nets/value100K.pth (torch_old, 643777 bytes, 25 tensors)

a1.weight f4 [16, 5, 3, 3]
0	0xbcea4fde	-0.028602537
1	0x3e8deb37	0.27718517
2	0x3ebd933b	0.3702639
3	0x3eb66ebc	0.3563136
4	0x3ec177a8	0.37786603
5	0x3e9a05b4	0.30082476
6	0xbe24dc27	-0.16099606
7	0x3ec120c4	0.3772031
8	0x3e0ea4f9	0.1393012
9	0x3e6271a2	0.2211366
10	0x3e650a40	0.22367191
11	0x3d97d44f	0.074135415
12	0x3e02344f	0.12715267
13	0xbdd4524e	-0.10367261
14	0xbe0f4917	-0.13992725
15	0xbf3eee5c	-0.7458246
16	0xbe86c244	-0.26320088
17	0xbb824108	-0.0039750375
18	0x3c95ddab	0.018294176
19	0x3ce36783	0.02775932
20	0xbdea564e	-0.114422426
21	0x3eaf99ec	0.3429712
22	0xbe8d4041	-0.27588084
23	0xbe138df7	-0.14409624
24	0xbdd0f11c	-0.10202238
25	0xbe1c27cb	-0.15249555
26	0xbcb5e585	-0.02220417
27	0x3e184f1e	0.14873931
28	0xbe1f771c	-0.1557278
29	0x3cd51b24	0.026013918
30	0x3da92987	0.08259874
31	0x3dd964db	0.1061494
32	0xbda8864b	-0.08228739
33	0xbe1e0f75	-0.15435584
34	0x3e0f4e25	0.13994654
35	0x3cd94ec8	0.026526824
36	0x3d0a0b5e	0.033702247
37	0xbcaa3477	-0.02077697
38	0xbdeef0a6	-0.11666994
39	0xbd289724	-0.041159764
40	0x3dad2de5	0.08456019
41	0x3d61034b	0.05493478
42	0xbd176013	-0.036956858
43	0x3dd72e3b	0.10506865
44	0xbd0277ff	-0.03185272
45	0xbf416b37	-0.7555422
46	0xbeb41764	-0.35174096
47	0xbf557471	-0.833808
48	0x3d1ddda7	0.038541462
49	0xbe4ce3c8	-0.20008767
50	0x3e0f2456	0.13978705
51	0xbee14246	-0.43995875
52	0xbe5de59d	-0.21669622
53	0x3da8efb7	0.08248847
54	0x3e67942f	0.22615121
55	0x3d0d39a5	0.034478802
56	0x3e84909f	0.25891587
57	0xbe5d36d1	-0.21602942
58	0xbe24c513	-0.16090803
59	0xbf05eedb	-0.5231759
60	0x3e87e1cf	0.26539466
61	0xbd96923c	-0.07352111
62	0x3ca0949f	0.019602118
63	0xb9f674c6	-0.0004700778
64	0x3e2380f6	0.15967163
65	0xbe37b2c7	-0.17939292
66	0xbe871729	-0.26384857
67	0x3e29acf9	0.1656989
68	0xbf031929	-0.51210266
69	0xbea8a739	-0.3294008
70	0x3e55eb73	0.20890598
71	0x3dde4e9e	0.10854839
72	0x3e829f43	0.25512132
73	0xbd8deb64	-0.06929663
74	0x3e680cf1	0.22661187
75	0x3e53d174	0.20685369
76	0x3b33efd7	0.0027456188
77	0x3ec37971	0.3817859
78	0x3ef4ebc9	0.4783614
79	0x3e71131b	0.23542444
80	0xbe4e1cc5	-0.20128162
81	0x3de9e2ee	0.114202365
82	0x3ce52ea3	0.02797634
83	0xbde04142	-0.10949947
84	0x3d9b8815	0.07594315
85	0xbcdb0620	-0.026736319
86	0xbc0c4ae1	-0.008562774
87	0xbde9b787	-0.11411958
88	0x3de33d25	0.11095647
89	0xbd0710e6	-0.0329751
90	0x3da04a19	0.07826633
91	0xbdda9535	-0.1067299
92	0xbe8b244e	-0.27176136
93	0x3cf3647f	0.029711006
94	0xbe576424	-0.21034294
95	0x3cb61952	0.02222887
96	0xbe881957	-0.26581833
97	0xbde75ee6	-0.11297397
98	0xbf08a318	-0.5337386
99	0xbebd2734	-0.36943972
100	0x3da184b7	0.078866415
101	0x3e08590c	0.13315219
102	0x3e8ca10d	0.27466622
103	0x3e9b65b0	0.3035102
104	0x3e8e436a	0.27785808
105	0x3edb30e3	0.42810735
106	0xbe93eb99	-0.28890684
107	0x3ed0726f	0.40712306
108	0xbe8400a3	-0.25781736
109	0x3ea16248	0.31520295
110	0xbdc74bcd	-0.09731255
111	0xbe250816	-0.16116366
112	0x3ec2ea8b	0.38069567
113	0x3e2d6b11	0.16935374
114	0x3ea40b84	0.32040036
115	0x3e8815a4	0.2657901
116	0x3ee496e7	0.4464638
117	0x3e31b75e	0.17355105
118	0xbe676918	-0.22598684
119	0x3ee2d79a	0.44305116
120	0xbe19060c	-0.14943713
121	0x3dca07a2	0.09864737
122	0xbeabeed7	-0.33580658
123	0xbe9b0a42	-0.30281264
124	0x3eddded2	0.4333406
125	0xbe254f0c	-0.16143435
126	0xbe1fa73c	-0.15591139
127	0xbcdd28f8	-0.026997074
128	0x3dbf9e1e	0.0935633
129	0xbe04d995	-0.12973626
130	0x3d464408	0.048404723
131	0x3ca04ded	0.019568408
132	0x3d93f7a4	0.07224968
133	0x3d97fffa	0.074218705
134	0xbc023950	-0.007948235
135	0x3e7b78b7	0.24557768
136	0xbe11351c	-0.14180416
137	0xbf032e7e	-0.51242816
138	0x3e28bf09	0.16479124
139	0xbe1558c6	-0.14584646
140	0x3d24b70a	0.040213622
141	0x3e2b4c6e	0.16728374
142	0xbcf08871	-0.029361935
143	0x3ded923b	0.11600157
144	0xbe4e0188	-0.20117772
145	0xbea14498	-0.31497645
146	0x3de22e93	0.110440396
147	0x3efc75a5	0.49308506
148	0xbea1860b	-0.3154758
149	0xbe51c271	-0.2048433
150	0xbec69b6e	-0.38790458
151	0xbeb7523b	-0.35804924
152	0xbe094c11	-0.13407923
153	0xbe1709ea	-0.14749876
154	0xbeee9dee	-0.46604866
155	0xbf6935b8	-0.91097593
156	0xbe130103	-0.14355855
157	0xbf07f1a2	-0.5310308
158	0xbdc37c58	-0.09545201
159	0xbef74dd3	-0.48301563
160	0xbe4c4306	-0.19947442
161	0xbf0d2f90	-0.551507
162	0x3e3f1ab9	0.18662538
163	0x3ed7f0bd	0.42175856
164	0x3f151ba0	0.5824528
165	0xbe7a964e	-0.24471399
166	0xbe5873e4	-0.21137959
167	0xbe93d445	-0.28872886
168	0xbe51ad64	-0.204763
169	0x3dcb5c9f	0.099297754
170	0x3d3da7bd	0.046302546
171	0x3dc4f9b4	0.096179396
172	0xbdda9230	-0.10672414
173	0xbd8b8bc7	-0.0681377
174	0x3d53ae61	0.051679973
175	0x3c8087e3	0.015689796
176	0x3d71a192	0.058991976
177	0xbd504c7e	-0.0508542
178	0xbd8e320f	-0.06943142
179	0x3d9c4fe3	0.07632425
180	0x3e680e2c	0.22661656
181	0x3ec1c5bf	0.3784618
182	0x3ea82739	0.32842425
183	0xbdf34b6a	-0.118796185
184	0x3d968384	0.07349303
185	0x3e9fed7e	0.3123588
186	0x3cbd8d3e	0.023138639
187	0x3d80337e	0.06259821
188	0x3da2b4c4	0.079446346
189	0xbe4a3248	-0.19745743
190	0xbf0c8a27	-0.54898304
191	0xbea9e666	-0.33183593
192	0x3d1c8c1b	0.038219552
193	0xbd840e96	-0.064480945
194	0x3dc8e99b	0.09810182
195	0xbede8510	-0.43460894
196	0xbeb6bf53	-0.35692844
197	0xbc0537ad	-0.00813095
198	0xbed4e508	-0.41580987
199	0xbe616012	-0.22009304
200	0x3e984a8b	0.29744372
201	0xbf1914eb	-0.59797543
202	0x3ddda0a5	0.10821656
203	0xbd7c6ad7	-0.061625328
204	0xbda4de85	-0.08050255
205	0xbe682579	-0.22670545
206	0x3e42d72a	0.19027391
207	0x3d04e52d	0.03244512
208	0xbd4a1565	-0.04933681
209	0xbd7e4113	-0.06207378
210	0xbe13ec20	-0.14445543
211	0xbddae14b	-0.106875025
212	0x3ddcadcb	0.10775336
213	0x3e2c8caf	0.16850542
214	0x3dac0488	0.08399302
215	0xbd4a4308	-0.049380332
216	0xbdccc6db	-0.09998866
217	0xbd40ee4c	-0.047102258
218	0xbe3905d6	-0.18068632
219	0x3ea4f223	0.32215986
220	0xbb361eb4	-0.0027789297
221	0xbc4a8682	-0.012361171
222	0xbdb3284a	-0.08747919
223	0xb9ca198f	-0.00038547485
224	0xbe40ddc8	-0.18834603
225	0x3c8d3d43	0.017241126
226	0xbf0e667c	-0.5562513
227	0xbf3bf085	-0.7341388
228	0xbe938825	-0.28814808
229	0xbf13219c	-0.5747316
230	0xbe73397c	-0.23752397
231	0xbe214c8e	-0.1575186
232	0xbe6e5b8a	-0.23277107
233	0xbc843db1	-0.016142698
234	0x3db53776	0.08848469
235	0x3ef38089	0.47559002
236	0x3e7c611e	0.24646422
237	0x3e64b105	0.22333153
238	0x3f0e25dd	0.55526525
239	0x3e8aed20	0.27134037
240	0x3da6381e	0.08116172
241	0x3e8bf28b	0.27333483
242	0x3e3f13ab	0.18659846
243	0xbe81ab0c	-0.2532581
244	0x3e4d835d	0.20069642
245	0x3ea7923d	0.32728758
246	0x3e259132	0.16168669
247	0x3e8675e1	0.2626181
248	0x3e05a5d3	0.13051538
249	0x3e5bd022	0.21466115
250	0x3d85f661	0.06541134
251	0xbe6c05ba	-0.2304906
252	0xbd073d53	-0.033017468
253	0x3e79dc83	0.24400525
254	0x3e6b0729	0.2295195
255	0x3e9d95bd	0.30778304

a1.bias f4 [16]
0	0xbd2d7f83	-0.042357933
1	0xbdf27ad9	-0.118398376
2	0x3d85ff53	0.0654284
3	0xbd4e846f	-0.050419267
4	0xbdf2efde	-0.11862157
5	0xbd3746d5	-0.044745285
6	0xbd2aae43	-0.041670095
7	0x3e47fe95	0.19530709
8	0x3dab53c2	0.08365585
9	0x3cd7a923	0.026325768
10	0xbdf5aa34	-0.11995354
11	0x3deed4e6	0.11661701
12	0xbdb7c506	-0.08973126
13	0xbe95b713	-0.29241237
14	0xbd7d7d05	-0.061886806
15	0xbe39289f	-0.18081902

a2.weight f4 [16, 16, 3, 3]
0	0xbd8d2dfd	-0.06893537
1	0x3e3f35c4	0.18672854
2	0x3e2daebe	0.1696119
3	0x3e38162a	0.17977205
4	0xbe5357f8	-0.20639026
5	0x3e629898	0.22128522
6	0x3e624850	0.22097898
7	0x3df53a9f	0.11974072
8	0xbe0941ef	-0.13404058
9	0xbeaf1432	-0.34195095
10	0xbdb48511	-0.08814443
11	0xbc5961cd	-0.013267946
12	0x3d51da7f	0.051233765
13	0xbb60f49a	-0.0034325481
14	0xbeda3660	-0.4261961
15	0xbf0defb7	-0.554439
16	0x3d96be03	0.073604606
17	0xbf1b0087	-0.6054768
18	0xbda873b4	-0.082251936
19	0xbe7009fc	-0.23441309
20	0xbc2ead1d	-0.010661391
21	0x3e8c49a1	0.27399924
22	0xbe4c7baf	-0.19969057
23	0x3d9f1f9a	0.077696994
24	0xbea925a4	-0.3303653
25	0x3ecc0c7c	0.39853275
26	0x3d40a4bc	0.047032103
27	0x3cf00c38	0.029302701
28	0xbd341717	-0.043967333
29	0x3df68def	0.120387904
30	0xbead770c	-0.33879888
31	0xbf52d9cd	-0.8236359
32	0xbe7c1470	-0.24617171
33	0xbd17aedb	-0.03703199
34	0xbe8b3dee	-0.27195686
35	0x3e820af0	0.2539897
36	0x3c7b9faf	0.015357896
37	0xbe027c6d	-0.12742777
38	0xbd9afef4	-0.0756816
39	0x3d1e7bcc	0.03869228
40	0x3e4add3d	0.19810958
41	0xbe56183d	-0.20907684
42	0xbe11f1cd	-0.14252396
43	0x3d98adf1	0.07455052
44	0x3db33d15	0.08751885
45	0x3e55cfe3	0.20880084
46	0xbd8c7006	-0.06857304
47	0x3dc54252	0.0963179
48	0x3dcd4271	0.10022438
49	0x3e3860e4	0.18005711
50	0x3d7a1e81	0.061064247
51	0xbf0e1d00	-0.55513
52	0xbd0b4ce3	-0.03400887
53	0xbe8cbadf	-0.2748632
54	0x3dd08728	0.10182029
55	0x3e4cc631	0.19997479
56	0x3e7ea3c8	0.24867165
57	0xbd8881de	-0.06665395
58	0x3d093fa6	0.033507966
59	0x3e1cb58d	0.15303631
60	0x3d1ecabd	0.038767565
61	0x3dc9b872	0.09849633
62	0xbe8b311f	-0.27185914
63	0x3d3e9633	0.04652996
64	0xbe6c1c69	-0.23057713
65	0xbe509c5d	-0.20372148
66	0x3e56ec6c	0.20988625
67	0xbd97cced	-0.07412133
68	0x3d399e4f	0.04531699
69	0xbf310695	-0.6915067
70	0xbdb40096	-0.08789174
71	0xbee2c38a	-0.4428981
72	0xbcc79dec	-0.024367295
73	0x3e5d5a9f	0.216166
74	0xbeef1981	-0.46699145
75	0xbdc54ba5	-0.09633569
76	0x3e8727cb	0.26397547
77	0xbdf283f3	-0.118415736
78	0xbf42ff87	-0.76171154
79	0xbf01e2fc	-0.50736976
80	0xbdfe1dfa	-0.12408061
81	0xbe7c43e9	-0.2463528
82	0xbe54895e	-0.20755526
83	0xbe089272	-0.13337114
84	0x3e8df6ae	0.27727264
85	0x3cecccc3	0.028906232
86	0x3ebfcbb1	0.37460092
87	0x3e4ea82c	0.2018134
88	0xbe4cc6c1	-0.19997694
89	0x3d6e3bd2	0.058162518
90	0xbe3e8032	-0.1860359
91	0xbe0a8045	-0.13525493
92	0xbe022cf0	-0.12712455
93	0x3e5f4af5	0.21805938
94	0x3e2b0ae3	0.16703372
95	0x3dc13db6	0.094355986
96	0x3e1961d4	0.14978725
97	0x3dac2615	0.08405701
98	0xbdcd9225	-0.100376405
99	0x3def1f30	0.116758704
100	0x3ef5184d	0.47870103
101	0xbd340923	-0.043954026
102	0xbd55b2d3	-0.052172493
103	0xbe1a587b	-0.15072815
104	0xbd8339e6	-0.064075276
105	0x3d04cd29	0.03242222
106	0x3df00623	0.117199205
107	0xbde43ca7	-0.11144381
108	0xbdceaca7	-0.100915246
109	0xbd534217	-0.0515767
110	0xbdf0a6dc	-0.11750576
111	0x3f00aae3	0.5026075
112	0x3d4aec2a	0.04954163
113	0x3ee9d239	0.456682
114	0x3e8189d7	0.25300476
115	0xbe22c908	-0.15897
116	0xba74cbad	-0.00093382114
117	0x3ee1f394	0.44131148
118	0xbe37ea2a	-0.1796042
119	0x3e74d971	0.23911072
120	0x3c804f1d	0.015662724
121	0xbdd171ad	-0.1022676
122	0xbf0de263	-0.55423564
123	0xbdf1fcf6	-0.118158266
124	0xbe7518b5	-0.23935206
125	0xbe36b91b	-0.1784405
126	0x3cab9701	0.020946028
127	0xbd1b90a9	-0.037979756
128	0x3ea05c18	0.31320262
129	0xbc2f4c49	-0.01069934
130	0xbec6fee2	-0.38866335
131	0x3d4c760c	0.049917266
132	0x3e0a5463	0.13508753
133	0x3da3c579	0.07996649
134	0x3efa6d1e	0.48911375
135	0xbe841d29	-0.25803497
136	0xbe84ff2b	-0.25975928
137	0xbd8e30fe	-0.06942938
138	0xbea00917	-0.31256935
139	0x3e5dcbd0	0.2165978
140	0x3d873124	0.0660117
141	0x3e3bfe95	0.18358834
142	0x3e5b876b	0.21438377
143	0xbdbcfd00	-0.092279434
144	0x3c2a2bbf	0.010386406
145	0x3ddc51f0	0.10757816
146	0x3dea9565	0.11454276
147	0xbdfee90b	-0.12446793
148	0x3dfafb6e	0.12254988
149	0x3cc16a26	0.023610186
150	0x3de62ed6	0.11239402
151	0x367099e0	3.5852354e-06
152	0x3e89473f	0.2681217
153	0xbc961c50	-0.018324047
154	0xbe1575e2	-0.1459575
155	0xbdc847ba	-0.09779306
156	0xbe78f58a	-0.24312416
157	0x3da667c4	0.081252605
158	0xbeaee9d9	-0.34162787
159	0xbd66b3d0	-0.056323826
160	0xbe035675	-0.1282595
161	0xbeaed003	-0.34143075
162	0x3d2ebe6e	0.042662077
163	0x3d5bf94f	0.053704556
164	0x3dc9993e	0.09843682
165	0xbdeb9436	-0.11502878
166	0x3d7834a8	0.060597092
167	0xbd9ac2e3	-0.07556703
168	0xbe890382	-0.2676049
169	0xbcf528bc	-0.02992665
170	0xbf22387a	-0.63367426
171	0x3eeb9375	0.46010938
172	0x3ddb64e0	0.107126
173	0x3dcdebcd	0.10054741
174	0xbba30bc7	-0.004975769
175	0x3d8cf9a9	0.068835564
176	0x3d852c3e	0.06502579
177	0xbde8942d	-0.11356387
178	0x3e02bfe2	0.1276851
179	0xbc4a5517	-0.012349389
180	0xbc08a5b5	-0.008340289
181	0x3bdb2a2f	0.0066883783
182	0x3e88c675	0.2671391
183	0x3df067cf	0.1173855
184	0x3e465c3a	0.19371119
185	0x3e8b1a40	0.27168465
186	0x3e262018	0.1622318
187	0xbbe41764	-0.006960796
188	0xbe3cdfb6	-0.18444714
189	0xbe2dcbc2	-0.16972259
190	0xbcab7ed4	-0.0209345
191	0xbe8e0e69	-0.2774537
192	0xbc8c0a17	-0.017094655
193	0xbe89452f	-0.26810595
194	0xbead6bf3	-0.3387142
195	0xbdf85002	-0.12124635
196	0x3e161aef	0.14658712
197	0xbe81dac2	-0.2536221
198	0x3e96255e	0.29325384
199	0x3dca7df3	0.09887304
200	0x3e45ab65	0.19303663
201	0xbe918179	-0.28419092
202	0xbeb53e39	-0.35399035
203	0xbe38b14c	-0.18036383
204	0x3cff87a7	0.031192614
205	0x3e90b1be	0.28260607
206	0xbdda3af2	-0.10655774
207	0x3d6fe8fb	0.058571797
208	0xbe2a5245	-0.16632946
209	0x3c6c3645	0.014417236
210	0x3e1ccd07	0.15312587
211	0x3c0f83a8	0.008759417
212	0xbe0bc6e2	-0.13650087
213	0x3d563517	0.052296724
214	0xbdcc1e86	-0.099667594
215	0x3e189b6f	0.14903043
216	0xbe11170b	-0.14168946
217	0xbdb1de00	-0.08684921
218	0xbcf0c12f	-0.029388992
219	0xbe0c4a9c	-0.13700336
220	0xbdfcdcc6	-0.12346797
221	0x3e01bcfb	0.12669747
222	0x3cea76bb	0.028621068
223	0xbe848180	-0.2588005
224	0x3e626cff	0.22111891
225	0xbdba4d1e	-0.0909674
226	0x3d81badd	0.063344695
227	0x3dfd05ae	0.12354599
228	0xbdd060aa	-0.10174687
229	0x3e92ae81	0.2864876
230	0x3e2d5d8b	0.16930215
231	0xbdf05477	-0.117348604
232	0x3d153476	0.036426984
233	0xbe0f6f10	-0.1400721
234	0x3df5ce65	0.12002257
235	0xbe93e77f	-0.28887555
236	0xbe8d4b27	-0.275964
237	0x3e1a1be6	0.15049705
238	0x3d42d434	0.047565654
239	0xbf04a7fc	-0.51818824
240	0x3e847bd4	0.25875723
241	0x3e9b904a	0.3038352
242	0x3e293f78	0.16528118
243	0x3e765ed6	0.24059615
244	0xbd71161a	-0.05885897
245	0x3e365cd7	0.17808853
246	0x3d4e879f	0.050422307
247	0xbd9a3391	-0.07529367
248	0xbd19a321	-0.037509087
249	0x3e780980	0.24222374
250	0x3d2e3a56	0.042536102
251	0x3abeee58	0.0014566882
252	0xbe19309f	-0.14959954
253	0xbe5484fa	-0.20753852
254	0xbe1f5c2a	-0.15562502
255	0xbda6624d	-0.08124218

a2.bias f4 [16]
0	0xbeb173d6	-0.34658688
1	0x3d5b9c2b	0.05361573
2	0x3d0610c2	0.032730825
3	0xbe2873d8	-0.16450441
4	0x3c0f020e	0.008728517
5	0xbdfb2353	-0.12262597
6	0xbe1932f6	-0.14960846
7	0xbe0d7e7a	-0.13817778
8	0xbea02577	-0.31278583
9	0x3e52089f	0.20511101
10	0xbdfe2d5b	-0.124109946
11	0xbe80c982	-0.25153738
12	0xbd6f3c5c	-0.058407173
13	0x3d3e51ce	0.046464734
14	0xbdd78547	-0.105234675
15	0x3d866e64	0.06564024

a3.weight f4 [32, 16, 3, 3]
0	0x3ccbbb21	0.024869503
1	0xbda81e88	-0.082089484
2	0x3e5f89b3	0.21829872
3	0x3de37afd	0.111074425
4	0xbe555e01	-0.20836641
5	0xbd6c10f7	-0.057633366
6	0x3c83a7e5	0.01607127
7	0xbe73c5ac	-0.23805875
8	0x3da2b412	0.07944502
9	0x3dd43997	0.10362547
10	0x3d49af17	0.049239244
11	0xbe08083d	-0.13284393
12	0xbc9690c5	-0.018379578
13	0x3e7d053e	0.24709031
14	0xbe3e8286	-0.18604478
15	0x3d9fb102	0.077974334
16	0x3e5e081b	0.2168278
17	0xbd4f0fd5	-0.050552208
18	0xbeb450ca	-0.35217887
19	0x3e08ee2a	0.13372102
20	0xbdf8eecb	-0.12154921
21	0x3e91f469	0.28506783
22	0x3c478dc9	0.0121798
23	0xbdbdf8ce	-0.09275971
24	0xbeb0cab3	-0.34529647
25	0x3dd5d745	0.1044145
26	0xbe5c5b82	-0.21519282
27	0x3ea79baf	0.32735965
28	0x3e64ef3a	0.22356883
29	0xbe2f7194	-0.1713317
30	0x3cab7690	0.020930558
31	0x3cf3fec1	0.029784562
32	0x3d93f8f7	0.07225221
33	0x3e32d81c	0.17465252
34	0x3ed5ba53	0.41743717
35	0xbd85f1c9	-0.065402575
36	0x3e520317	0.20508991
37	0xbd7a25e3	-0.061071288
38	0xbe71dfc3	-0.23620515
39	0x3e29c328	0.16578352
40	0x3da94ebd	0.08266971
41	0xbe3a37f4	-0.18185407
42	0x3ec6401d	0.3872079
43	0x3df1cc50	0.11806548
44	0xbd572b45	-0.0525315
45	0xbdac6ac1	-0.08418799
46	0x3c283175	0.010265698
47	0x3c1ea213	0.009682196
48	0x3d75e3d8	0.06003174
49	0x3da7a1d7	0.081851654
50	0x3ceb818a	0.028748292
51	0xbd3f0ace	-0.046641164
52	0xbcff9b5a	-0.031202007
53	0xbd1fea55	-0.039041836
54	0xbf1b5cb4	-0.6068833
55	0x3c90b37f	0.017663715
56	0x3e1be0f7	0.15222536
57	0x3e1339c2	0.14377502
58	0x3e9c2e87	0.30504248
59	0x3dd03794	0.10166851
60	0x3e3c0b40	0.18363667
61	0xbf05da27	-0.52286
62	0x3e03a2bf	0.12855051
63	0x3dc0f431	0.09421576
64	0x3d711f22	0.05886758
65	0xbe83eb89	-0.25765637
66	0x3e1b1c80	0.1514759
67	0x3adcbce6	0.0016840964
68	0xbe7507f6	-0.23928818
69	0x3e985e54	0.29759467
70	0x3d867a9d	0.065663554
71	0x3e6ed5f6	0.23323807
72	0x3df8e988	0.121539176
73	0x3e048fac	0.12945431
74	0xbf02fa20	-0.5116291
75	0x3ccba747	0.024860037
76	0x3e58432a	0.21119371
77	0xbe85622d	-0.26051465
78	0xbe331069	-0.17486729
79	0x3e139ae2	0.14414552
80	0xbc46df65	-0.012138222
81	0xbdc67cb1	-0.09691752
82	0xbd323185	-0.043504257
83	0xbc5d8409	-0.013520249
84	0xbea0a72b	-0.3137754
85	0xbc831dc3	-0.016005402
86	0x3d4d7e95	0.050169546
87	0xbe90f7f8	-0.28314185
88	0x3dbb8252	0.09155716
89	0x3d55c8a8	0.052193314
90	0x39b101bf	0.00033761372
91	0xbe58c377	-0.21168314
92	0x3e33fd58	0.17577112
93	0x3d2697d4	0.04067214
94	0xbd6ca596	-0.057775103
95	0x3e3d2601	0.18471529
96	0xbd4e2ea7	-0.05033746
97	0x3d3f4a69	0.046701822
98	0x3e96b3e3	0.29434118
99	0x3de03d49	0.10949189
100	0x3dcfeb85	0.10152344
101	0xbeadde44	-0.33958638
102	0xbdf3c272	-0.11902322
103	0x3d1dad44	0.038495317
104	0x3db3210e	0.08746539
105	0x3f1b4818	0.6065688
106	0xbeae85c2	-0.34086424
107	0x3dc36b14	0.09541908
108	0xbdf4f753	-0.11961236
109	0xbe0f837e	-0.14015004
110	0x3d2ce10b	0.042206805
111	0xbd8bd673	-0.06828012
112	0x3dd3667c	0.10322282
113	0x3e34ba3f	0.17649172
114	0xbf211558	-0.6292319
115	0xbe2d5167	-0.16925584
116	0x3e0a8981	0.13529016
117	0xbee56708	-0.4480517
118	0x3e0e8269	0.13916935
119	0x3e18d4d1	0.14924933
120	0xbe1915a3	-0.1494966
121	0x3d1c207f	0.03811693
122	0x3dd1c26d	0.10242162
123	0x3da4ff18	0.08056468
124	0xbe703423	-0.23457389
125	0x3edd9d13	0.432839
126	0xbd71dc75	-0.059048135
127	0x3eeb9010	0.46008348
128	0xbe597685	-0.21236618
129	0xbefb8692	-0.49126107
130	0xbd40f305	-0.04710676
131	0xbe167cdd	-0.14696069
132	0x3e0e1c42	0.13877967
133	0xbeddcede	-0.4332189
134	0x3dac219b	0.08404847
135	0xbc3d137f	-0.011540293
136	0xbe162f77	-0.14666544
137	0x3e8a5601	0.2701874
138	0xbd5cbd16	-0.053891264
139	0xbe6f07dd	-0.23342843
140	0x3e7c10a3	0.24615721
141	0xbe8bc7a8	-0.27300763
142	0x3e0791ca	0.13239208
143	0x3d72eaef	0.05930608
144	0xbf914fbf	-1.1352462
145	0xbf1d956a	-0.6155611
146	0x3e41e5ad	0.1893527
147	0x3e5c558a	0.21517006
148	0x3db8b792	0.09019388
149	0xbd57bac2	-0.05266834
150	0x3e7ab0ad	0.24481459
151	0x3f4203b6	0.7578691
152	0xbe4c86ae	-0.19973251
153	0x3ec2db9a	0.38058168
154	0x3f2dca21	0.6788655
155	0xbefe056a	-0.49613506
156	0x3ec83bfc	0.39108264
157	0xbc9603bf	-0.018312333
158	0xbe08e2bf	-0.13367747
159	0x3e0e64a2	0.13905576
160	0xbe8972c4	-0.26845372
161	0x3cc7ad2e	0.02437457
162	0xbd2a9132	-0.041642375
163	0xbe6a3ab8	-0.22873962
164	0xbee3fcd4	-0.4452883
165	0x3cda5b27	0.026654793
166	0x3d8f0222	0.06982829
167	0x3dce7623	0.100811265
168	0xbda4661a	-0.08027287
169	0x3e3d1331	0.18464352
170	0xbdf1a1b8	-0.117984235
171	0x3ed9b14e	0.42518085
172	0x3e895921	0.26825812
173	0xbdde72ce	-0.10861741
174	0xbc33cefd	-0.010974643
175	0xbef9be64	-0.4877807
176	0xbd9c4513	-0.07630362
177	0x3e2c5379	0.16828717
178	0x3e41fbf6	0.18943772
179	0x3e16e395	0.14735253
180	0x3e43b2f0	0.19111228
181	0x3c44ffe7	0.0120239025
182	0x3dd36dfd	0.10323713
183	0x3e10a93e	0.14127061
184	0x3c848d9f	0.016180811
185	0x3ea2dbea	0.31808406
186	0xbeb70664	-0.35747063
187	0xbe75ca6d	-0.24003
188	0xbec486f7	-0.3838422
189	0xbcea5c3c	-0.028608434
190	0x3d7a1098	0.06105098
191	0xbd43c3c4	-0.04779412
192	0xbcb3ba79	-0.021939503
193	0x3d9ffbcc	0.07811698
194	0xbb1291cc	-0.0022364734
195	0x3d198ff1	0.03749079
196	0x3d936c05	0.071983375
197	0x3c99948e	0.018747594
198	0xbe35df8c	-0.17761058
199	0xbe88bfb9	-0.26708773
200	0x3e920344	0.28518116
201	0x3e90e05d	0.28296176
202	0xbe19acb2	-0.15007284
203	0x3de711b0	0.112826705
204	0xbddce5e0	-0.10786033
205	0x39e8c258	0.00044395286
206	0xbdbd22bd	-0.092351414
207	0xbd6977c2	-0.056998976
208	0x3da652cd	0.08121262
209	0xbe16c331	-0.14722897
210	0x3dfeb75e	0.12437318
211	0x3d8e85d4	0.069591194
212	0x3dbe74e7	0.09299641
213	0x3da5426f	0.08069312
214	0x3e86fbb6	0.26363915
215	0xbe85ee7a	-0.26158506
216	0x3ec0230f	0.37526748
217	0x3e550aec	0.20804948
218	0xbbf59518	-0.00749458
219	0x3e862912	0.2620321
220	0xbd9a5e25	-0.07537488
221	0x3d2e61d9	0.042573784
222	0x3e53cb16	0.2068294
223	0x3de8a005	0.11358646
224	0xbe950d8f	-0.29111907
225	0xbe2942b7	-0.16529356
226	0xbe3aa9a7	-0.1822878
227	0xbf721542	-0.94563687
228	0xbe6945d4	-0.22780544
229	0xbc28124a	-0.010258267
230	0xbe022fa9	-0.12713493
231	0xbe21f6ca	-0.15816799
232	0xbe21b4b6	-0.15791592
233	0xbcb491a5	-0.022042105
234	0xbdcbbd20	-0.09948182
235	0xbe88e375	-0.26736036
236	0x3eccb475	0.39981428
237	0xbe982656	-0.29716748
238	0xbdd0b7cd	-0.10191307
239	0x3e2ad209	0.16681685
240	0xbebcdcc2	-0.36887175
241	0xbef3eed5	-0.47643152
242	0xbeffc2d7	-0.49953339
243	0x3dbbd441	0.091713436
244	0x3dbea22d	0.09308276
245	0x3d9333f6	0.07187645
246	0x3da5d71f	0.08097672
247	0xbea49b5b	-0.32149777
248	0xbecf2268	-0.40455937
249	0x3d3c7cd6	0.04601749
250	0x3de9719d	0.11398623
251	0xbccd76b2	-0.025081012
252	0xbf40e213	-0.7534496
253	0xbdc9c573	-0.098521136
254	0xbf29629a	-0.6616608
255	0x3ea8d271	0.32973054

a3.bias f4 [32]
0	0xbea146cd	-0.3149933
1	0xbeb1e1d8	-0.34742618
2	0xbe2e0ca1	-0.16997005
3	0x3dc5447c	0.09632203
4	0xbd9b7d3f	-0.07592248
5	0x3ed0c7e2	0.40777498
6	0x3e7e7eb3	0.2485302
7	0xbe59e332	-0.21278074
8	0x3d8f347d	0.06992433
9	0x3e94560f	0.28971907
10	0xbeaacbc8	-0.33358598
11	0x3e4e1929	0.20126785
12	0x3d792926	0.060830258
13	0xbe7060cc	-0.23474425
14	0xbe847b66	-0.25875396
15	0xbe7bb938	-0.24582374
16	0xbe853942	-0.26020247
17	0xbe235056	-0.15948614
18	0x3e569d6b	0.20958488
19	0xbed832e1	-0.42226318
20	0x3e7cd30e	0.24689886
21	0xbdb0cc2f	-0.08632695
22	0xbe6caf41	-0.23113729
23	0xbc48fb8e	-0.012267007
24	0xbe755b6c	-0.23960656
25	0xbe5030e6	-0.20331153
26	0x3ee1c1c3	0.4409314
27	0x3e7ad5ae	0.24495575
28	0x3d70f11b	0.058823686
29	0xbdb66484	-0.089058906
30	0xbea5281b	-0.3225716
31	0x3ef60d8d	0.48057213

b1.weight f4 [32, 32, 3, 3]
0	0x3ddc73bf	0.10764264
1	0x3e467782	0.19381526
2	0xbdb15d5e	-0.086603865
3	0x3d02aa56	0.031900726
4	0xb92956b5	-0.00016149397
5	0xbe143408	-0.14472973
6	0xbe3e723b	-0.18598263
7	0xbd8c3c0d	-0.06847391
8	0xbdf1602d	-0.11785922
9	0xbe211722	-0.1573148
10	0xbe1e4e38	-0.15459526
11	0xbcc20136	-0.023682218
12	0xbec5979b	-0.38592228
13	0x3e2d9f78	0.16955364
14	0x3e1f600f	0.15563987
15	0x3ee26c35	0.4422318
16	0xbeb01210	-0.3438878
17	0x3f169cd3	0.58833045
18	0xbd1ff204	-0.039049163
19	0xbd8fb240	-0.0701642
20	0xbe305012	-0.17218044
21	0x3d044ac5	0.03229787
22	0xbdd0e16c	-0.10199246
23	0x3eb4f415	0.3534247
24	0xbe1241a5	-0.14282854
25	0xbdc4aa36	-0.09602778
26	0xbcba6fe0	-0.022758424
27	0x3e3ca176	0.18420967
28	0xbdf85c56	-0.12126987
29	0xbe5fddcf	-0.21861957
30	0xbe016652	-0.12636688
31	0x3e5f9c86	0.21837053
32	0xbe866f40	-0.26256752
33	0x3cd11292	0.02552155
34	0xbdb4be06	-0.088253066
35	0x3d2baa6e	0.04191058
36	0x3e0bc152	0.13647965
37	0xbd35b037	-0.044357505
38	0xbd9a6fd0	-0.07540858
39	0xbdaba8dc	-0.08381817
40	0x3eaf2516	0.34207982
41	0x3de2357a	0.11045356
42	0x3d80249f	0.06256985
43	0xbe9fce6d	-0.31212178
44	0x3e1c8998	0.15286863
45	0xbd36b27f	-0.04460382
46	0x3e8c8a12	0.2744909
47	0x3f21a48e	0.63141716
48	0xbda9ce8e	-0.0829135
49	0xbe13bf01	-0.14428331
50	0xbe3f0e4f	-0.18657802
51	0xbe3b6652	-0.18300751
52	0x3e9f6bf8	0.3113706
53	0x3e85add2	0.26109177
54	0xbb02755c	-0.0019906377
55	0xbe9b674b	-0.30352244
56	0x3d0333d3	0.032031845
57	0x3e154a4d	0.14579125
58	0x3ecc8af3	0.3994976
59	0x3e50aa2f	0.2037742
60	0xbde6c44f	-0.11267912
61	0xbe04151a	-0.12898675
62	0xbe8cf54e	-0.27530903
63	0x3da196bc	0.078900784
64	0xbe9ebeb8	-0.31004882
65	0xbea3a4f8	-0.319618
66	0x3e166cb2	0.14689901
67	0xbe398100	-0.18115616
68	0x3e684dbc	0.22685903
69	0x3e0002c2	0.12501052
70	0xbbcd2a77	-0.0062611657
71	0x3de0689e	0.10957454
72	0x3b96cd68	0.004602123
73	0x3bf34221	0.0074236547
74	0xbde7a453	-0.11310639
75	0x3d89b36a	0.06723674
76	0x3e1851fe	0.14875028
77	0x3d9fdf1f	0.07806229
78	0xbebc7ca6	-0.3681385
79	0x3d9d1905	0.07670788
80	0xbc291169	-0.010319092
81	0xbd967b71	-0.07347763
82	0x3c4768cd	0.012170983
83	0x3d63c16f	0.055604395
84	0x3e2bb3fc	0.16767877
85	0xbe186605	-0.14882667
86	0xbe1e6a7c	-0.15470308
87	0xbe78e9d4	-0.24307948
88	0xbecae01c	-0.39624107
89	0xbddf1ed4	-0.10894552
90	0xbd9804d2	-0.074227944
91	0x3dcf8e0b	0.101345144
92	0x3ed8d760	0.42351818
93	0xbdff1091	-0.12454332
94	0x3dba89ac	0.0910829
95	0x3e86e715	0.26348177
96	0xbd35cb8c	-0.04438357
97	0xbdb15a3b	-0.08659788
98	0xbd7eaf6d	-0.062179018
99	0xbeeaf039	-0.458864
100	0x3d1580ba	0.036499716
101	0x3f635f6d	0.88817483
102	0xbd53efb2	-0.051742263
103	0x3d3dd0b2	0.046341605
104	0x3f2bb419	0.6707168
105	0x3db6fc97	0.089348964
106	0x3e8cd50c	0.27506292
107	0x3eb2911e	0.3487634
108	0x3e70c6f3	0.23513393
109	0x3e394655	0.18093236
110	0x3e7832ec	0.24238175
111	0x3e2d40bc	0.16919225
112	0x3df7ea9c	0.12105295
113	0x3ea19718	0.31560588
114	0xbd11f073	-0.0356297
115	0x3d29d6e1	0.04146469
116	0x3edf3d3b	0.43601403
117	0xbc7a8314	-0.0152900405
118	0xbe1342ad	-0.14380904
119	0x3da28359	0.07935209
120	0x3e20d200	0.15705109
121	0x3c188f8f	0.009311571
122	0xbe02c94e	-0.12772104
123	0xbf2951cd	-0.66140443
124	0xbe57ff17	-0.21093403
125	0xbf320c33	-0.69549865
126	0xbe562ad4	-0.20914775
127	0xbde738c1	-0.11290122
128	0xbd85254d	-0.06501255
129	0x3e96e3b5	0.29470602
130	0x3d15fb82	0.03661681
131	0xbe7b9177	-0.24567209
132	0x3e9bf4ce	0.3046021
133	0xbe38d797	-0.18050991
134	0xbda0f4a4	-0.078591615
135	0x3e0287aa	0.12747064
136	0xbd2faa2a	-0.04288689
137	0xbe105055	-0.14093144
138	0x3e9f0b3d	0.31063262
139	0x3dd2cbaa	0.10292752
140	0xbe16ab82	-0.14713863
141	0xbd5a73dc	-0.05333315
142	0x3ee203cb	0.4414352
143	0xbe12592d	-0.1429183
144	0xbe386d1e	-0.18010375
145	0xbe074ea6	-0.13213596
146	0xbd4a15d6	-0.04933723
147	0xbcf35e17	-0.029707951
148	0x3da15f71	0.07879532
149	0x3ec17fb1	0.37792733
150	0xbdde480d	-0.10853586
151	0x3c116d8f	0.008876218
152	0x3dfc8779	0.12330527
153	0x3cb8cc3d	0.022558326
154	0x3d282176	0.041047536
155	0xbe814660	-0.25249004
156	0xbdb40ac7	-0.08791118
157	0x3dac57a9	0.08415157
158	0x3e391942	0.18076041
159	0x3d20d122	0.039261945
160	0xbe95aeff	-0.29235074
161	0x3ea7f46e	0.32803673
162	0x3ba74f45	0.005105885
163	0xbdb331aa	-0.08749707
164	0xbea4f193	-0.32215557
165	0x3b715241	0.0036822709
166	0x3e1ee5b6	0.15517315
167	0xbda4b5f2	-0.08042516
168	0xbee7162f	-0.45134112
169	0xbe19aa8a	-0.15006462
170	0xbce5ca3c	-0.028050534
171	0x3e971eb6	0.29515618
172	0x3d8e4551	0.06946815
173	0x3e2763e0	0.16346693
174	0x3ba341de	0.004982217
175	0x3cf1de07	0.029524816
176	0x3e1d96ed	0.15389605
177	0xbea6bddc	-0.32566726
178	0xbd0ec284	-0.034853473
179	0x3e45076e	0.19241115
180	0xbe63d57f	-0.22249411
181	0x3e25de46	0.16198072
182	0x3edc2330	0.42995596
183	0x3e25ddb2	0.16197851
184	0xbe9f0c7e	-0.31064218
185	0xbe019a54	-0.12656528
186	0xbc24c9a8	-0.010057844
187	0xbe59c2a6	-0.21265659
188	0x3b115a7a	0.0022179172
189	0x3d14618c	0.03622584
190	0x3bafb4c2	0.005362124
191	0xbd0b9c4a	-0.034084596
192	0xbc1cd42f	-0.009572073
193	0xbc3851b5	-0.011249949
194	0x3c8f8699	0.017520236
195	0xbcff8cd7	-0.031195087
196	0x3c558244	0.013031546
197	0x3d696ee0	0.056990504
198	0xbdd16e88	-0.1022616
199	0xbece3bba	-0.40279943
200	0xbe7e9767	-0.24862443
201	0x3c43432b	0.01191787
202	0xbdf15813	-0.11784377
203	0xbcbcdcff	-0.023054598
204	0xbd2d579e	-0.042319886
205	0x3e673c8e	0.22581694
206	0xbcd13a7d	-0.025540585
207	0xbc4331d7	-0.011913738
208	0x3cded045	0.02719892
209	0x3d5e1708	0.054221183
210	0x3d3f69ca	0.046731748
211	0x3c99c9b5	0.01877294
212	0xbc449d9f	-0.01200047
213	0xbca0381b	-0.019558003
214	0x3ce2ea25	0.02769954
215	0x3ce8e557	0.02842967
216	0xbe0cd0da	-0.13751546
217	0x3d9e38b4	0.07725659
218	0x3e4817e5	0.19540365
219	0x3e054e50	0.13018155
220	0x3ef12fcf	0.47106788
221	0xbe20a087	-0.15686236
222	0xbddcfb98	-0.10790175
223	0xbdeede42	-0.11663486
224	0x3cf8b0d2	0.030357752
225	0x3e44619d	0.19177862
226	0x3d999d3e	0.07500695
227	0xbd8f01ba	-0.06982751
228	0x3eb39271	0.35072663
229	0x3d249b0c	0.040186927
230	0x3c8520eb	0.016251048
231	0xbe9f6b24	-0.3113643
232	0xbeaad883	-0.3336831
233	0x3d182cc3	0.037152063
234	0xbe03ddaf	-0.12877534
235	0x3d0f4bdc	0.034984455
236	0xbe5b586f	-0.21420453
237	0x3e0b72d5	0.13618024
238	0x3d9c8f61	0.07644535
239	0x3efca108	0.49341607
240	0xbd33f9d1	-0.043939415
241	0xbcb36b97	-0.021901889
242	0xbe1ae966	-0.15128097
243	0xbe34d879	-0.17660703
244	0xbe35dc77	-0.17759882
245	0x3dcc837b	0.099860154
246	0xbe1cf39e	-0.15327308
247	0x3c4051fc	0.011738297
248	0xbea50fee	-0.32238716
249	0xbe955643	-0.29167375
250	0x3d9916d1	0.07475055
251	0x3e7ea64d	0.24868126
252	0xbea9ed12	-0.33188683
253	0xbe1f55b7	-0.15560041
254	0x3efee6d7	0.49785492
255	0x3d33481a	0.043769933

b1.bias f4 [32]
0	0xbe2885c7	-0.16457282
1	0x3ebe38b3	0.37152633
2	0x3d106021	0.035247926
3	0x39fb3a45	0.00047917865
4	0xbe14551d	-0.14485593
5	0xbecc4315	-0.3989493
6	0xbe8b2475	-0.27176252
7	0x3e81e8bb	0.25372872
8	0xbf215162	-0.63014805
9	0xbeef9484	-0.46792996
10	0xbce46990	-0.027882367
11	0x3de7f50a	0.11326034
12	0xbe791568	-0.24324572
13	0x3edb8f9e	0.4288301
14	0xbdfdb7a9	-0.12388546
15	0xbe6c49ba	-0.23075
16	0xbdb87ee6	-0.09008579
17	0xbd1dccef	-0.038525518
18	0xbea89281	-0.32924274
19	0x3ef7574d	0.48308793
20	0x3cf2b410	0.029626876
21	0x3da0a867	0.0784462
22	0xbe8bb6b0	-0.27287817
23	0xbe07351d	-0.13203855
24	0x3ebc855d	0.36820498
25	0x3d3f0622	0.046636708
26	0xbf07f691	-0.53110605
27	0x3dc02875	0.093827166
28	0xbdad1427	-0.084511094
29	0xbe7d3837	-0.24728476
30	0xbe8d951b	-0.2765282
31	0xbc60b30b	-0.013714562

b2.weight f4 [32, 32, 3, 3]
0	0xbed1fa0a	-0.41011077
1	0xbe9bd807	-0.30438253
2	0xbdb1ba56	-0.08678119
3	0x3d9214b9	0.07132859
4	0x3dd3bdfc	0.10338971
5	0x3de35e90	0.11102021
6	0xbe8088df	-0.25104424
7	0x3dd4bf64	0.10388067
8	0xbe625863	-0.2210403
9	0xbe4f46aa	-0.202418
10	0xbdb95f0a	-0.090513304
11	0xbe6410f4	-0.22272092
12	0x3ecd054a	0.40043098
13	0xbd2258f9	-0.039635632
14	0x3e5e53ce	0.21711656
15	0x3e6f16bc	0.23348516
16	0x3d79fbf4	0.061031297
17	0xbcff566a	-0.031169135
18	0x3d7ba044	0.061432138
19	0x3eb3b8cb	0.35101923
20	0x3e13dada	0.14438954
21	0xbee8514d	-0.45374528
22	0xbd0cc723	-0.0343696
23	0xbea330ba	-0.31873113
24	0xbe650b55	-0.22367604
25	0xbd836e8d	-0.0641757
26	0xbdeb08a6	-0.11476259
27	0xbdc4b7f2	-0.09605397
28	0xbeea7c20	-0.45797825
29	0xbe64c183	-0.22339444
30	0xbe5cc814	-0.21560699
31	0x3dd0f7df	0.10203528
32	0x3e844123	0.25830945
33	0xbd1be721	-0.03806222
34	0xbdc34a7c	-0.09535691
35	0xbeef9734	-0.46795046
36	0x3dbd2e70	0.09237373
37	0x3e87eed6	0.26549405
38	0x3e89a37f	0.2688255
39	0xbe960188	-0.29298043
40	0xbc296835	-0.010339786
41	0xbcc8ebb1	-0.024526449
42	0xbea80466	-0.32815856
43	0x3e9c33dc	0.30508316
44	0xbeacbe97	-0.3373916
45	0x3db8a402	0.09015657
46	0x3e1da101	0.1539345
47	0x3e0f0b79	0.1396922
48	0xbedef2b1	-0.43544534
49	0xbf322f9a	-0.69603884
50	0x3e9468b6	0.28986138
51	0xbf07143b	-0.52765244
52	0xbc83186a	-0.016002852
53	0xbe3809c8	-0.17972481
54	0x3e678267	0.22608338
55	0xbccf9e49	-0.025344031
56	0x3df8a863	0.12141492
57	0xbdb71257	-0.08939045
58	0x3d3e8923	0.046517503
59	0xbe03e42c	-0.1288001
60	0xbe2e6e9a	-0.17034379
61	0x3dc0252a	0.093820885
62	0xbda42de7	-0.08016568
63	0x3d6a0d49	0.057141576
64	0xbf66efd8	-0.9020972
65	0x3e894055	0.26806894
66	0x3e0b6da8	0.1361605
67	0x3d0d34f3	0.034474324
68	0x3ca11c16	0.019666713
69	0x3d87937d	0.06619928
70	0xbd6087d8	-0.05481705
71	0x3eae4d89	0.3404353
72	0x3e19669d	0.1498055
73	0xbd406cee	-0.046978883
74	0x3f0ada73	0.5423958
75	0x3e701fc2	0.23449615
76	0xbd4f28ff	-0.050576206
77	0x3e5b131b	0.21394007
78	0x3edf4b46	0.43612117
79	0xbdbb2dea	-0.09139617
80	0x3ea5dc48	0.32394624
81	0x3cf1531e	0.029458579
82	0xbca62744	-0.020282395
83	0x3e2e2047	0.170045
84	0xbd37871c	-0.044806585
85	0xbee798c3	-0.45233735
86	0xbf0d580a	-0.5521246
87	0xbd75a0e9	-0.05996791
88	0x3e4cfb81	0.20017816
89	0xbd728d69	-0.05921689
90	0x3d8ca8e2	0.06868149
91	0xbdf6bdd9	-0.12047929
92	0xbec13433	-0.37735137
93	0xba8ecab0	-0.0010894146
94	0x3dde7deb	0.10863861
95	0xbebf4bf2	-0.3736263
96	0x3e287564	0.16451031
97	0xbe9c1111	-0.3048177
98	0x3db31661	0.08744503
99	0x3d204ae7	0.039133932
100	0xbd6e92af	-0.058245357
101	0xbee0696c	-0.4383043
102	0x3d65d7ae	0.05611389
103	0xbdde19a4	-0.10844734
104	0x3dd52e52	0.104092255
105	0xbd936a02	-0.07197954
106	0xbcbf9257	-0.02338521
107	0x3e17bb06	0.14817438
108	0xbaef0758	-0.0018236442
109	0xbe0b49a4	-0.1360231
110	0x3ba211c6	0.0049459664
111	0x3de8d8b4	0.11369458
112	0xbe128219	-0.14307441
113	0xbcb5a7cb	-0.022174736
114	0xbeaa90b7	-0.33313534
115	0xbe589e85	-0.2115422
116	0x3eb7c9b1	0.35896066
117	0x3d8e5cd1	0.06951297
118	0x3ecd271b	0.40068898
119	0xbe1ac428	-0.1511389
120	0xbc98b43c	-0.01864063
121	0xbc70f5ee	-0.014707072
122	0xbdeb73e1	-0.114967115
123	0x3e86128a	0.2618602
124	0x3e24e500	0.16102982
125	0x3e843fdd	0.25829974
126	0xbe5ec53a	-0.21754923
127	0x3cd6372a	0.026149351
128	0x3e18c72a	0.14919725
129	0x3da4738c	0.08029851
130	0x3d6194c6	0.055073522
131	0xbe6ce753	-0.23135118
132	0x3deb7f76	0.114989206
133	0x3e321e15	0.17394288
134	0xbe9122e5	-0.28346935
135	0xbe899a76	-0.26875657
136	0xbbc0a5f8	-0.00587916
137	0xbda33bdd	-0.079704024
138	0x3c331e3c	0.010932501
139	0x3c34e860	0.011041731
140	0xbc7c87fc	-0.015413281
141	0xbe8b7295	-0.27235857
142	0x3cf8dfc4	0.030380137
143	0xbe9b98f0	-0.3039012
144	0xbca33b8a	-0.019925851
145	0x3df4a518	0.11945552
146	0x3ddf3208	0.108982146
147	0xbe5d0c61	-0.21586753
148	0x3e931941	0.28730205
149	0x3e86b4e2	0.26309878
150	0xbe87592d	-0.26435223
151	0x3dce506b	0.10073932
152	0x3e874a95	0.2642409
153	0x3af8024d	0.0018921584
154	0x3e08ba75	0.13352378
155	0x3e0c53c8	0.13703835
156	0xbead972d	-0.339044
157	0xbe950333	-0.29104003
158	0xbe9b3830	-0.30316305
159	0x3e9e7e50	0.30955744
160	0x3e7bead1	0.24601294
161	0xbe0b6dfc	-0.13616174
162	0xbd00c97e	-0.031442158
163	0xbdc4731c	-0.09592268
164	0xbe8c816e	-0.27442497
165	0xbe922682	-0.28545004
166	0x3e456698	0.19277418
167	0xbe465849	-0.19369616
168	0x3e03fd92	0.12889698
169	0xbcde6f09	-0.027152555
170	0xbeec076f	-0.4609942
171	0x3d41aed5	0.047285873
172	0x3d350cd4	0.044201687
173	0xbe380d23	-0.17973761
174	0x3db1fe1c	0.08691046
175	0x3e1a2166	0.15051803
176	0xbd361509	-0.044453654
177	0xbd4a451e	-0.04938232
178	0xbd619fa5	-0.05508389
179	0x3e2b2620	0.16713762
180	0xbd6f412a	-0.058411755
181	0xbd0f7d59	-0.03503165
182	0xbdbd3317	-0.0923826
183	0x3e08bcb6	0.13353238
184	0xbd3bd6c5	-0.045859117
185	0xbe1685c8	-0.14699471
186	0xbd84ee23	-0.064907335
187	0xbda7a489	-0.081856795
188	0xbe9216a0	-0.28532887
189	0xbd34e916	-0.0441676
190	0x3dfa7f0f	0.12231266
191	0xbeac6ab4	-0.33675158
192	0x3e016359	0.12635554
193	0x3e227206	0.15863809
194	0x3dc8725f	0.097874396
195	0xbe28a259	-0.1646818
196	0x3e8a43a4	0.2700473
197	0xbdcd96f3	-0.10038557
198	0x3d9801f2	0.07422246
199	0xbdedc9b2	-0.11610736
200	0xbee20d6d	-0.44150868
201	0xbdfaef6d	-0.12252698
202	0xbe577ae4	-0.21042973
203	0x3df84f97	0.121245556
204	0x3e51bc3e	0.20481965
205	0xbe96dc0a	-0.2946475
206	0x3d816c92	0.06319536
207	0x3d26c79b	0.040717702
208	0xbc209e31	-0.009803341
209	0x3c23754c	0.009976696
210	0xbd079ae4	-0.0331067
211	0xbc8b5817	-0.017009778
212	0x3d2afcb5	0.041744906
213	0xbd6f6336	-0.058444224
214	0xbc58c96d	-0.013231617
215	0xbca7d4c9	-0.020487206
216	0x3ed75465	0.42056575
217	0x3cd68095	0.02618436
218	0x3e3a20b3	0.18176536
219	0x3dc28f11	0.09499944
220	0xbe49cd3b	-0.19707195
221	0xbdef6afd	-0.11690328
222	0x3f0e958f	0.5569696
223	0x3e79ce03	0.24394993
224	0xbddb199d	-0.10698245
225	0xbe9ab4c9	-0.30216053
226	0xbd159709	-0.03652099
227	0x3ed2c992	0.4116941
228	0xbeed1f4a	-0.46312934
229	0xbd08d992	-0.033410616
230	0x3e16a7f0	0.147125
231	0xbe23d76c	-0.16000146
232	0xbd42bc4a	-0.047542848
233	0xbe991a66	-0.29902953
234	0xbe4b1695	-0.19832833
235	0xbe9bff85	-0.30468383
236	0xbdbf571f	-0.09342789
237	0xbf1f205e	-0.62158763
238	0xbc8611f6	-0.016365986
239	0xbe927b91	-0.286099
240	0xbe513272	-0.204294
241	0xbe1aea49	-0.15128435
242	0xbebbc27e	-0.36671823
243	0xbec426e9	-0.38310936
244	0xbe587857	-0.21139656
245	0x3ed73f33	0.42040405
246	0xbe5a4859	-0.21316661
247	0x3c9b5a02	0.018963818
248	0xbdcddd74	-0.100520045
249	0x3c060172	0.0081790555
250	0x3e941de2	0.2892905
251	0x3e2e0ef5	0.16997893
252	0x3e082ade	0.13297603
253	0x3b52147a	0.0032055662
254	0xbe9174c2	-0.28409392
255	0x3dda00e8	0.10644704

b2.bias f4 [32]
0	0x3e5fb4f4	0.21846372
1	0x3da8f6af	0.08250176
2	0xbe6d2f57	-0.2316259
3	0xbe337e11	-0.1752856
4	0xbf02653a	-0.5093571
5	0xbeeaf559	-0.4589031
6	0xbe58365a	-0.21114483
7	0xbdd6d883	-0.10490515
8	0xbe835111	-0.25647786
9	0xbe8a6df1	-0.27037004
10	0x3d4572ca	0.048205175
11	0xbdf36ccd	-0.118859865
12	0x3e9cd366	0.30630034
13	0x3dec1656	0.11527698
14	0xbdefcdef	-0.117092006
15	0xbe3b70f8	-0.18304813
16	0xbde4f28e	-0.11179076
17	0xbe2b988d	-0.16757412
18	0xbec0edca	-0.3768142
19	0x3eecb8eb	0.4623483
20	0x3eb2343b	0.34805474
21	0xbe239e73	-0.15978412
22	0xbeacf756	-0.33782452
23	0xbee475e8	-0.44621205
24	0x3df680f5	0.12036315
25	0xbecbbb33	-0.3979126
26	0xbeece2cc	-0.46266782
27	0xbdc3fbe5	-0.095695294
28	0xbe67238f	-0.22572158
29	0xbf0a2ecf	-0.53977674
30	0x3e6e7623	0.23287253
31	0x3e96cafd	0.29451743

b3.weight f4 [64, 32, 3, 3]
0	0xbd9295e7	-0.07157498
1	0xbca8a43f	-0.020586131
2	0xbd89d7cf	-0.06730615
3	0xbda61ad4	-0.08110586
4	0xbd7bb4e9	-0.061451826
5	0x3c4d03cc	0.012513112
6	0xbdc4c045	-0.09606985
7	0xbd9db97a	-0.077013925
8	0xbd997c9a	-0.07494469
9	0xbd5222b4	-0.051302627
10	0xbceb1a96	-0.0286992
11	0xbdbfcf63	-0.09365728
12	0xbd9e0e1f	-0.07717537
13	0xbc88d591	-0.016703399
14	0xbdd01079	-0.10159392
15	0xbd37d1c8	-0.044877797
16	0xbd20d90b	-0.03926949
17	0xbc51c1fa	-0.012802595
18	0xbc5d62ac	-0.013512295
19	0xbd68f3fb	-0.056873303
20	0xbd93b37e	-0.0721197
21	0xbcbf96ce	-0.023387339
22	0x3ca8e281	0.020615818
23	0xbd74e98a	-0.059793033
24	0xbd578c5c	-0.05262409
25	0x3ca596be	0.020213481
26	0xbd769291	-0.06019837
27	0xbdb915ce	-0.09037362
28	0xbd9903dd	-0.0747144
29	0xbd8f4dd6	-0.06997268
30	0xbcd53194	-0.026024617
31	0x3cdacd10	0.02670911
32	0xbc5820bb	-0.013191397
33	0xbd5031f9	-0.050828908
34	0xbd75e1c9	-0.06002978
35	0x3d741937	0.05959436
36	0x3d073f23	0.033019196
37	0xbdc1730e	-0.09445773
38	0xbd8b0c77	-0.06789487
39	0xbbe9def2	-0.007137173
40	0xbd7f4760	-0.062323928
41	0xbca8a34f	-0.020585684
42	0x3c6a2d84	0.014293078
43	0x3cb5d088	0.022194162
44	0x3c1dd653	0.009633618
45	0xba965e4e	-0.0011472197
46	0xbd3d552a	-0.046223797
47	0xbdbbcf34	-0.0917038
48	0xbd8450d4	-0.06460729
49	0xbd6e61d5	-0.05819877
50	0xbda0b5cb	-0.07847174
51	0xbd023239	-0.031786177
52	0xbd86072f	-0.06544339
53	0xbad0a7bf	-0.0015919133
54	0xbd82ed86	-0.0639296
55	0xbd43f6ff	-0.047842976
56	0xbdcb2802	-0.0991974
57	0xbbdbb06c	-0.0067043807
58	0xbdb37d96	-0.08764188
59	0xbd9be5ea	-0.07612212
60	0x3c14efa6	0.00909034
61	0xbd5d46ec	-0.054022714
62	0xbd6eb947	-0.058282163
63	0xbbaa0f82	-0.005189837
64	0x3cf4b538	0.029871568
65	0xbc947a4f	-0.018124728
66	0xb8b96fee	-8.842336e-05
67	0xbd521494	-0.051289156
68	0xbccea64d	-0.025225783
69	0xbbd09558	-0.0063654594
70	0xbd0e883e	-0.0347979
71	0xbc97b29d	-0.018517787
72	0x3d12e8ca	0.035866536
73	0xbc8d09a0	-0.017216504
74	0xbd934d3a	-0.07192464
75	0xbd95a2f9	-0.07306475
76	0xbd84bd18	-0.06481379
77	0x3c382571	0.0112393955
78	0x3be52198	0.00699253
79	0xbcd2ad5c	-0.02571743
80	0xbd4930cf	-0.049118813
81	0xbb6fe34b	-0.0036603983
82	0xbdc1e660	-0.09467769
83	0xbd99ae4d	-0.07503948
84	0xbd967e67	-0.07348328
85	0xbd4121ca	-0.047151364
86	0xbc1103d0	-0.008851007
87	0x3b2514e4	0.0025189454
88	0xbcbe008d	-0.023193622
89	0x3c929ce8	0.017897084
90	0x3d0193a2	0.031634934
91	0xbd5a14c3	-0.053242456
92	0xbc9cd822	-0.019146029
93	0xbc46dfa3	-0.01213828
94	0xbc09ff72	-0.008422719
95	0xbd37991b	-0.044823747
96	0xbd6c1324	-0.05763544
97	0xbccf9a6c	-0.025342189
98	0xbd62bd75	-0.05535646
99	0xbd4ce1ad	-0.05001991
100	0xbd1b70a1	-0.03794921
101	0xbcebbd1a	-0.028776694
102	0xbd5a16a9	-0.053244267
103	0xbdaaf244	-0.0834699
104	0xbd12b1f6	-0.035814248
105	0xbd3cba7c	-0.046076283
106	0x3cf6d25e	0.030129608
107	0xbcb9f82d	-0.022701347
108	0xbd60b9fc	-0.05486487
109	0x3bacf30c	0.005277997
110	0xbd932d00	-0.071863174
111	0xbd05fb04	-0.03271009
112	0xbcc2c256	-0.023774307
113	0xbd00f517	-0.031483736
114	0xbce2970d	-0.027659917
115	0x3b93dead	0.004512629
116	0xba5e743d	-0.0008485949
117	0xbd63e722	-0.055640347
118	0xbd810d78	-0.06301397
119	0xbca18e57	-0.019721193
120	0xbd49a036	-0.049225055
121	0xbcb75dd4	-0.022383608
122	0xbd14b93b	-0.036309462
123	0x3b77e045	0.0037822884
124	0xbcc8e660	-0.024523914
125	0xbc4abf73	-0.012374747
126	0xbaf7e5d2	-0.0018913096
127	0x3c1fa7d7	0.009744606
128	0x3d264511	0.04059321
129	0xbdc4c098	-0.09607047
130	0x3d2ce406	0.042209648
131	0xbd72d1b5	-0.059282023
132	0xbc4bb339	-0.012432867
133	0xbdc4373f	-0.0958085
134	0xbd4b781a	-0.049675085
135	0xbd65e55b	-0.056126934
136	0xbd420557	-0.047368374
137	0xbd5fd324	-0.05464472
138	0xbd67c47c	-0.056583866
139	0x3cc8b836	0.024501901
140	0xbd8d5078	-0.06900114
141	0xbcbe8d33	-0.023260688
142	0xbd77ca5a	-0.060495712
143	0xbdb78c0b	-0.08962258
144	0xbcf10f10	-0.029426128
145	0xbd203bf7	-0.039119687
146	0xbda9456a	-0.08265193
147	0xbcf958f2	-0.03043792
148	0xbd7aab31	-0.061198417
149	0xbd38dc34	-0.045131877
150	0x3cfca2ad	0.030839289
151	0xbd12678c	-0.03574328
152	0x3cc70dee	0.024298634
153	0xbd938c85	-0.07204536
154	0xbd83b792	-0.06431498
155	0x3a8cec79	0.0010751627
156	0xbd974ab6	-0.07387297
157	0xbdb0ea2d	-0.086384155
158	0x3d13ff78	0.036132306
159	0x3c877509	0.016535299
160	0xbaa3de20	-0.0012502111
161	0xbc509d9c	-0.0127328895
162	0xbce48090	-0.027893335
163	0xbc434c74	-0.011920083
164	0x3d00f9ec	0.031488344
165	0x3c385ddc	0.011252847
166	0x3b5a683c	0.0033326289
167	0x3cf127b5	0.02943788
168	0x3a9f0a3f	0.0012133791
169	0x3da55b5d	0.08074067
170	0xbacc4a40	-0.0015586093
171	0xbd7d1219	-0.061784837
172	0xbcc96dac	-0.024588428
173	0xbd8af0fd	-0.06784246
174	0xbcecf0a1	-0.028923335
175	0xbccaaa68	-0.02473946
176	0x3ce3a0b5	0.027786592
177	0xbd4f446a	-0.050602354
178	0xbc572a23	-0.013132605
179	0xbd5bc8d4	-0.05365832
180	0xbd0da4e7	-0.03458109
181	0xbd741c93	-0.059597563
182	0xbd8ada3c	-0.06779906
183	0xbd20e4ae	-0.039280586
184	0x3cbabc43	0.022794848
185	0x39a04c5d	0.00030574473
186	0xbd7ca98c	-0.06168513
187	0xbd17e39e	-0.037082307
188	0x3c65c60f	0.014024272
189	0x3cac5242	0.021035317
190	0xbd487fa3	-0.04894985
191	0xbb286d60	-0.0025699958
192	0x3d009721	0.031394128
193	0x3c8afa82	0.016965155
194	0xbd158258	-0.03650126
195	0x3cc24ab2	0.023717258
196	0x3d25c7bf	0.040473696
197	0x3d0d4183	0.034486305
198	0x3cf7e6d1	0.030261429
199	0x3c227fcf	0.009918167
200	0xbd62ce07	-0.055372264
201	0x3ce4272c	0.02785071
202	0x3cf0a6a3	0.029376334
203	0x3d0a790a	0.033806838
204	0xbc44910c	-0.0119974725
205	0x3ce389c0	0.027775645
206	0xbd1ba3de	-0.037998073
207	0xbd07c6ee	-0.0331487
208	0xbd192e6b	-0.037397783
209	0xbd509140	-0.05091977
210	0xbd2de114	-0.04245098
211	0xbd516a6f	-0.051126894
212	0x3c8f4372	0.017488215
213	0x3c2acbc4	0.010424558
214	0x3d5cddea	0.05392257
215	0xba1d11bf	-0.0005991719
216	0xbd875b95	-0.06609265
217	0xbd8e3e1c	-0.0694544
218	0xbac61734	-0.0015113116
219	0xbd963a12	-0.07335295
220	0xbd086f93	-0.03330953
221	0xbabd0b39	-0.00144229
222	0xbd73e9af	-0.05954903
223	0x3c49feb6	0.012328794
224	0xbd44a99f	-0.048013326
225	0xb97e5331	-0.00024254319
226	0xbd73b5a9	-0.059499417
227	0xbad9c887	-0.0016615548
228	0x3b61db95	0.0034463156
229	0x3d05e5d3	0.03268988
230	0xbdaf506a	-0.0856026
231	0xbd9045ec	-0.070445865
232	0xbd2df4ec	-0.042469904
233	0xbd50358f	-0.050832327
234	0xbcdb0f52	-0.026740704
235	0xbbaea478	-0.005329665
236	0xbce1f22f	-0.027581302
237	0xbcf4deba	-0.02989136
238	0x3d05464a	0.032537736
239	0x3c7722b4	0.015083957
240	0xbd1344b9	-0.03595421
241	0xbda6f888	-0.08152872
242	0xbd48a9ba	-0.04898999
243	0x3c65cf64	0.014026497
244	0xbd025f8b	-0.031829398
245	0xbd926b30	-0.07149351
246	0xbc9bbea8	-0.01901181
247	0xbd1d4dbb	-0.038404208
248	0xbd337968	-0.043816954
249	0xbc11e618	-0.008904956
250	0xbd53c2c5	-0.05169942
251	0xbdb4293f	-0.087969296
252	0x3d2948b7	0.041329112
253	0x3ca915f6	0.020640355
254	0xbd0ea46c	-0.034824774
255	0xbd3713eb	-0.04469673

b3.bias f4 [64]
0	0xbcc37149	-0.02385773
1	0xbde23504	-0.11045268
2	0xbdcf06c2	-0.10108711
3	0xbcc3bc84	-0.023893602
4	0xbde38e4f	-0.111111276
5	0xbcd3bfe2	-0.025848333
6	0xbd6a16bd	-0.05715059
7	0xbe1fd7e1	-0.15609695
8	0xbcedff97	-0.029052539
9	0x3d188210	0.037233412
10	0x3bc67e35	0.0060575255
11	0xbe173cd8	-0.14769304
12	0xbcd034f4	-0.025415875
13	0x3c1380c0	0.009002864
14	0xbebd7cdd	-0.37009326
15	0xbe0baeed	-0.13640948
16	0x3d7741fd	0.060365666
17	0xbdd4a492	-0.10382952
18	0xbe035425	-0.12825067
19	0x3d875e76	0.06609814
20	0xbbce8c41	-0.0063033407
21	0xbcf31a1c	-0.029675536
22	0xbd3df1f6	-0.04637333
23	0xbe20364e	-0.15645716
24	0xbe0015e6	-0.12508354
25	0x3e0490db	0.12945883
26	0xbe386d4f	-0.18010448
27	0xbe92cb6c	-0.28670824
28	0xbe9c401c	-0.30517662
29	0x3dacc40e	0.08435832
30	0xbda6c086	-0.0814219
31	0x3ce33574	0.02773545
32	0xbe1f911f	-0.15582703
33	0xbd67ad0d	-0.05656152
34	0x3e0b7037	0.13617025
35	0xbe3527a2	-0.176909
36	0xbcf33e29	-0.029692726
37	0xbda7a163	-0.08185079
38	0xbdd7277f	-0.1050558
39	0xbe7009ca	-0.23441234
40	0x3df915c7	0.12162357
41	0x3ead8194	0.33887923
42	0x3c4da933	0.012552547
43	0xbd115ce1	-0.035488967
44	0xbe2f711c	-0.17132992
45	0x3daacce4	0.08339861
46	0xbdeee5f9	-0.116649576
47	0x3d59db80	0.053187847
48	0xbe2e896c	-0.1704461
49	0x3daa79c2	0.08324005
50	0xbe5168ab	-0.20450084
51	0xbe06b16e	-0.13153622
52	0xbe3d59f5	-0.18491347
53	0xbdb67d17	-0.08910578
54	0xbe34ae82	-0.17644694
55	0xbdde92f7	-0.10867875
56	0xbd36c9f0	-0.044626176
57	0xbdcb4de0	-0.09926963
58	0x3cf3cf6a	0.029761989
59	0xbe2cc23e	-0.16870973
60	0xbdb5387a	-0.08848663
61	0xbda26270	-0.07928932
62	0x3e0be0e8	0.13660014
63	0x3c5ba720	0.013406545
