nets/value (another copy).pth (torch_old, 643777 bytes, 25 tensors)

a1.weight f4 [16, 5, 3, 3]
0	0x3de99c20	0.114067316
1	0x3de39057	0.11111515
2	0x3e6fd840	0.23422337
3	0xbe80266a	-0.25029308
4	0xbd818aac	-0.06325278
5	0xbd8e0c9f	-0.06936001
6	0x3e23071a	0.15920678
7	0xbdb3c5b2	-0.08777942
8	0xbd480616	-0.04883393
9	0x3e303335	0.17207034
10	0xbdd30800	-0.1030426
11	0x3e400a23	0.18753867
12	0xbdda5a3e	-0.106617436
13	0xbe09c85d	-0.13455339
14	0x3e287ecb	0.16454618
15	0xbd69dd0d	-0.057095576
16	0xbc9e17fe	-0.01929855
17	0xbd9771aa	-0.073947266
18	0xbe30ca10	-0.1726458
19	0x3db48e3e	0.08816193
20	0x3d9f9353	0.07791772
21	0xbc289bb9	-0.010291033
22	0xbc97e455	-0.018541494
23	0x3d63d199	0.05561981
24	0xbd3d9414	-0.046283796
25	0x3e103cad	0.14085646
26	0x3cadd302	0.02121878
27	0xbe311165	-0.17291792
28	0x3d346a38	0.04404661
29	0x3dcefe46	0.101070926
30	0x3e148e08	0.14507306
31	0xbe1b3f84	-0.15160948
32	0xbd623d05	-0.055233974
33	0x3e010939	0.12601174
34	0x3d6f623b	0.05844329
35	0x3e0522de	0.13001582
36	0x3d113eae	0.035460167
37	0xbdc413b1	-0.09574068
38	0x3dabbe10	0.08385861
39	0xbdc7fa86	-0.097645804
40	0xbcdfdf46	-0.027328145
41	0xbd98fb9c	-0.07469866
42	0xbda51644	-0.080608875
43	0x3e018d7d	0.1265163
44	0xbd30b320	-0.043139577
45	0xbdf3decf	-0.11907732
46	0xbe6241e4	-0.22095448
47	0x3e1028e6	0.14078102
48	0x3c8a6084	0.016891725
49	0x3d03e3e6	0.032199763
50	0xbe07e414	-0.13270599
51	0x3e0ddb37	0.13853155
52	0xbd0d71af	-0.034532245
53	0xbe0c8b63	-0.13725047
54	0xbcbe8864	-0.023258395
55	0xbd9f9529	-0.07792122
56	0x3df21d10	0.118219495
57	0xbbf96d5b	-0.007611913
58	0xbe4beff2	-0.1991575
59	0x3e58cfb7	0.21172987
60	0x3e036ec6	0.12835225
61	0xbe0da7ae	-0.13833496
62	0x3e474b93	0.19462423
63	0xbdbaf1e9	-0.09128172
64	0xbdbfe78b	-0.09370335
65	0x3dbe50e4	0.092927724
66	0x3e3b8ea2	0.18316129
67	0xbe17b936	-0.14816746
68	0x3e4c4c16	0.199509
69	0x3daa5c56	0.08318393
70	0xbd8aebb3	-0.06783237
71	0xbe8e917b	-0.27845368
72	0xbdc83102	-0.097749725
73	0x3c45e082	0.012077453
74	0xbe30de53	-0.1727231
75	0xbe207dd8	-0.15673006
76	0x3e1c3ae4	0.1525684
77	0x3db94f5d	0.090483405
78	0xbe0cb447	-0.13740645
79	0x3d435362	0.047686942
80	0x3e34b7f9	0.17648305
81	0x3d6a906f	0.05726665
82	0x3da04996	0.078265354
83	0x3d94887b	0.07252594
84	0xbe064cc6	-0.13115224
85	0xbdb371c7	-0.08761936
86	0xbd79c76b	-0.060981195
87	0x3d9e7068	0.077362835
88	0xbdeca2ba	-0.11554475
89	0x3d95e3e5	0.07318858
90	0x3e55249c	0.20814747
91	0x3dd96b18	0.1061613
92	0xbd56c9c4	-0.052438512
93	0xbe758470	-0.23976302
94	0x3d47b4e1	0.048756484
95	0xbe0f679d	-0.14004369
96	0x3e3c856c	0.18410271
97	0xbe4167f5	-0.18887313
98	0xbdc9642c	-0.098335594
99	0xbe4185f1	-0.18898751
100	0xbdf0f8f4	-0.11766234
101	0x3e3c74c3	0.18403916
102	0xbd1dd033	-0.038528632
103	0xbd842205	-0.06451801
104	0x3d8d1d66	0.06890373
105	0x3d5c8bbe	0.053844206
106	0xbcfb8d2b	-0.030706963
107	0xbd16c9bb	-0.03681348
108	0x3e0d0e90	0.13775086
109	0x3e0bbb09	0.13645567
110	0xbd3631b9	-0.044481013
111	0x3c89d5a2	0.0168255
112	0xbdd4f93d	-0.10399101
113	0xbe195d29	-0.14976944
114	0xbe08ce1b	-0.13359873
115	0x3d803455	0.062599815
116	0xbe411bf6	-0.18858323
117	0xbd6de9ea	-0.058084406
118	0x3da6e68c	0.08149442
119	0xbcda0044	-0.026611455
120	0xbe0f34fb	-0.13985054
121	0x3e093047	0.13397323
122	0x3c91318c	0.017723821
123	0x3dfab757	0.122420006
124	0xbe8123a1	-0.25222495
125	0x3e2c1bb2	0.1680744
126	0x3dd8fdc9	0.10595281
127	0x3da2ef2c	0.07955775
128	0x3bc5caa0	0.0060361177
129	0xbd7e6985	-0.06211235
130	0x3d8eb834	0.06968728
131	0x3d6d78ac	0.05797641
132	0xbd828828	-0.06373626
133	0xbdba81db	-0.09106799
134	0x3d76e540	0.060277224
135	0x3e51aaa0	0.20475245
136	0xbd9c1488	-0.076211035
137	0x3bcb41e6	0.006202924
138	0x39a5430f	0.00031521215
139	0x3e2ae430	0.16688609
140	0x3e7a0123	0.24414496
141	0xbe023474	-0.12715322
142	0xbdb9646e	-0.090523586
143	0xbd21c3d3	-0.039493393
144	0xbdc4525e	-0.09586023
145	0x3e6d356e	0.23164913
146	0xbe41ada5	-0.18913896
147	0x3e11e6d3	0.14248209
148	0x3e393528	0.18086684
149	0x3e031580	0.1280117
150	0xbe0c3c24	-0.13694817
151	0x3e2d7a10	0.16941094
152	0x3b5c2320	0.0033590272
153	0xbe0b2021	-0.13586475
154	0xbde7c232	-0.11316337
155	0xbe26db7b	-0.16294663
156	0xbdf17c62	-0.11791302
157	0xbda3b047	-0.079926066
158	0xbdd8035d	-0.105475165
159	0x3e0cc515	0.13747056
160	0xbc72e457	-0.014824948
161	0x3e2fcc4a	0.17167774
162	0xbdf6f70f	-0.120588414
163	0x3d3ce7be	0.046119444
164	0xbe36eab5	-0.17862971
165	0xbdb3725d	-0.087620474
166	0x3e420c83	0.18950085
167	0xbddee9b3	-0.10884418
168	0xbdec74e8	-0.115457356
169	0x3d3b4515	0.04572018
170	0xbe5a4b00	-0.21317673
171	0xbc645582	-0.013936402
172	0x3dc8b2c2	0.0979972
173	0x3b09b3e2	0.002101176
174	0x3de9c862	0.11415173
175	0xbdbfcfad	-0.09365783
176	0x3ce27806	0.027645122
177	0x3dc5ca17	0.09657686
178	0xbe0d5499	-0.13801803
179	0xbdfcf69c	-0.123517245
180	0xbdd7ce6e	-0.1053742
181	0x3e6bbde2	0.23021653
182	0x3e2ca1d4	0.16858608
183	0xbc832724	-0.016009875
184	0xbe3c19dc	-0.1836924
185	0x3daf7373	0.08566942
186	0x3df5f444	0.120094806
187	0x3e629a22	0.2212911
188	0x3e1d65fc	0.15370935
189	0xbb978710	-0.004624255
190	0xbd8ee514	-0.06977287
191	0x3e2e5a0d	0.17026539
192	0x3e870845	0.26373497
193	0xbd3eef12	-0.046614714
194	0xbdd5e2df	-0.10443663
195	0x3b673eee	0.0035285312
196	0xbcc343d3	-0.023836052
197	0x3ce46cf4	0.027883984
198	0xbe5cfeb5	-0.21581538
199	0xbe909b01	-0.2824326
200	0xbe6c6051	-0.23083617
201	0x3dc00248	0.09375435
202	0x3d85dedd	0.065366484
203	0xbdafae29	-0.0857814
204	0x3dbc531c	0.09195539
205	0x3d372287	0.044710662
206	0x3d5c4a28	0.05378166
207	0x3e114e5a	0.14190045
208	0x3da73dfc	0.081661195
209	0x3ddbdbab	0.10735258
210	0xbd8db3b9	-0.06919045
211	0xbdc6c4aa	-0.097054794
212	0xbe3706e3	-0.17873721
213	0x3de387d4	0.111098915
214	0xbde1cc7b	-0.1102533
215	0xbe393db2	-0.18089941
216	0xbde09e0c	-0.10967645
217	0xbc68ed48	-0.0142167285
218	0x3dc071f1	0.093967326
219	0xbdd17264	-0.102268964
220	0xbde3f3df	-0.11130499
221	0xbc3f3e2f	-0.011672541
222	0x3df9c4be	0.12195729
223	0xbd001b15	-0.031275827
224	0x3c428cab	0.011874358
225	0x3de3047f	0.11084842
226	0x3db1ce5e	0.086819395
227	0xbe54565d	-0.2073607
228	0x3e08a547	0.13344298
229	0xbd0822cf	-0.03323632
230	0xbe98d57e	-0.29850382
231	0xbe74507a	-0.23858824
232	0x3e7482e4	0.23878056
233	0xbd8ada3c	-0.06779906
234	0xbb247cc3	-0.0025098778
235	0x3e019a5c	0.1265654
236	0x3e1fa3b2	0.15589789
237	0xbe229a79	-0.15879239
238	0x3e57aae2	0.2106128
239	0xbdf7df71	-0.12103165
240	0xbde65c5c	-0.11248085
241	0x3e2370e4	0.15961033
242	0x3e6d8189	0.23193945
243	0xbc68229b	-0.014168407
244	0x3d3a09ab	0.045419376
245	0xbd5e17eb	-0.05422203
246	0x3daab55e	0.08335374
247	0xbc7ad5f3	-0.0153097985
248	0x3e205946	0.15659055
249	0xbe30af3c	-0.17254347
250	0x3d9e1f60	0.07720828
251	0x3e45175f	0.19247197
252	0xbe1e9cd9	-0.1548952
253	0x3d9eb9c3	0.07750275
254	0x3d48b80b	0.049003642
255	0x3e20c120	0.15698671

a1.bias f4 [16]
0	0xbc7bcbbe	-0.0153684
1	0x3dc4a9fb	0.09602734
2	0xba3d44bb	-0.00072200195
3	0x3df779e4	0.12083796
4	0xbd8c3d06	-0.06847577
5	0xbe052b80	-0.13004875
6	0xbd08db6f	-0.033412393
7	0x3dcc283d	0.09968612
8	0xbdf37661	-0.11887813
9	0xbc98cb85	-0.018651733
10	0x3dd8d94b	0.1058832
11	0x3d73ce6d	0.059523035
12	0x3ad69673	0.0016371742
13	0xbe3e9851	-0.18612792
14	0x3dc4fbc4	0.09618333
15	0x3ddabad2	0.106801644

a2.weight f4 [16, 16, 3, 3]
0	0xbb921635	-0.0044582137
1	0x3db916a5	0.09037522
2	0x3d25ab27	0.040446427
3	0x3cf1eced	0.02953192
4	0x3cc2c97e	0.02377772
5	0x3cfb73f3	0.030694937
6	0x3e137494	0.1439994
7	0xbe20f1ae	-0.15717193
8	0xbe181c43	-0.14854531
9	0xbe5bea87	-0.21476184
10	0xbe6a069d	-0.22854085
11	0xbdd465e9	-0.10371
12	0x3dcf4f2e	0.10122524
13	0xbd1edc9c	-0.03878461
14	0x3c7d6207	0.015465266
15	0xbdda8da5	-0.10671548
16	0x3d19a9c1	0.037515406
17	0xbe3dd332	-0.18537596
18	0xbe155c61	-0.14586021
19	0x3dd61e87	0.104550414
20	0x3dc5f38b	0.09665593
21	0x3d35c292	0.04437501
22	0xbe33f5f9	-0.175743
23	0x3d5259f9	0.051355336
24	0x3ce94e00	0.028479576
25	0x3ce1d594	0.027567662
26	0xbe8c45ce	-0.27397007
27	0xbd2a49af	-0.041574176
28	0xbde9e42f	-0.11420476
29	0x3da2c06c	0.07946858
30	0xbd4ab1df	-0.049486037
31	0xbd6b0e3d	-0.057386626
32	0xbc8d6358	-0.017259285
33	0xbe0e2a61	-0.13883354
34	0xbbfc98c4	-0.007708641
35	0x3d1cea98	0.038309664
36	0xbd9a6222	-0.075382486
37	0x3d82b112	0.0638143
38	0xbd4db88d	-0.05022483
39	0xbdd36477	-0.103218965
40	0x3dddb603	0.108257316
41	0x3d3da478	0.046299428
42	0x3db50f9f	0.0884087
43	0xbc82146b	-0.015878877
44	0xb7df7036	-2.6635924e-05
45	0x3db4fd2b	0.088373505
46	0xbdcd7054	-0.100311905
47	0xbc1f6738	-0.009729199
48	0xbd2217c2	-0.03957344
49	0xb8ffbc0e	-0.000121943754
50	0x3e710934	0.23538667
51	0x3d44badb	0.04802976
52	0xbdfad169	-0.12246973
53	0x3d802a35	0.0625805
54	0xbd2d5de7	-0.04232588
55	0xbe852ee7	-0.26012346
56	0xbe4ef827	-0.2021185
57	0x3d2ba0c2	0.041901357
58	0x3e2301c6	0.15918645
59	0xbdf436bc	-0.11924502
60	0x3cddfcd9	0.027098106
61	0xbddfb0e4	-0.10922411
62	0xbcb0d25a	-0.021584678
63	0xbe43945f	-0.19099568
64	0xbe271869	-0.16317905
65	0xbdc3224f	-0.09528028
66	0xbe2c4bef	-0.16825841
67	0xbc5c1083	-0.013431671
68	0x3db5d540	0.08878565
69	0xbd73f081	-0.059555534
70	0xbd91adf8	-0.0711326
71	0x3dace80b	0.08442696
72	0xbe41a100	-0.18909073
73	0x3d3f2a39	0.046671126
74	0x3d6bae0b	0.057539027
75	0x3d930d32	0.07180251
76	0xbe096824	-0.13418633
77	0xbe1195af	-0.14217256
78	0xbe5d5a02	-0.21616367
79	0xbdab2f26	-0.08358602
80	0xbe5c784f	-0.21530269
81	0xbb19e120	-0.0023480132
82	0xbe28e017	-0.16491733
83	0x3e275682	0.16341594
84	0xbdb31d2c	-0.087457985
85	0x3e07e700	0.13271713
86	0xbd433443	-0.047657263
87	0x3c970546	0.018435132
88	0x3df5ff6c	0.120116085
89	0xbdc1a103	-0.09454539
90	0xbd4e2cea	-0.050335802
91	0x3d247e9e	0.040159814
92	0xbd38bf3d	-0.045104254
93	0xbdb4b8d2	-0.08824314
94	0xbbc93e08	-0.006141428
95	0x3d00096d	0.03125899
96	0xbd710d62	-0.058850653
97	0x3d722a1a	0.059122182
98	0x3da4b01e	0.08041404
99	0xbe91d1cc	-0.28480375
100	0x3d2e25f7	0.042516675
101	0x3dfbf062	0.12301709
102	0x3d402fad	0.046920467
103	0xbe800f6e	-0.25011772
104	0x3d321af0	0.04348272
105	0xbbd6772e	-0.006544969
106	0xbdae75e0	-0.085185766
107	0xbde74e72	-0.11294259
108	0xbdd099ec	-0.10185608
109	0x3d6ce0f1	0.05783171
110	0xbdc7df71	-0.09759415
111	0xbe0094b5	-0.12556727
112	0xbdcf1cf1	-0.10112942
113	0xbd9bf399	-0.07614822
114	0xbd198731	-0.037482444
115	0x3db793f9	0.089637704
116	0x3e06bcd5	0.13157971
117	0xbcb590ba	-0.022163738
118	0xbd41a8c0	-0.047280073
119	0x3e10b06a	0.14129797
120	0x3d81ca31	0.06337393
121	0x3de54355	0.11194483
122	0x3dea2fb4	0.1143488
123	0x3cdbca6f	0.026829926
124	0x3e07a036	0.1324471
125	0x3d9abf92	0.075560704
126	0x3e477a82	0.19480327
127	0xbdd78eff	-0.10525321
128	0xbe9a2763	-0.30108175
129	0x3d3feb92	0.046855517
130	0xbe6b6e49	-0.22991289
131	0xbcfd9cb5	-0.030958513
132	0xbe632c45	-0.22184856
133	0x3c918b26	0.017766546
134	0xbe2f8dcd	-0.17143936
135	0xbd9835c6	-0.074321315
136	0xbe198923	-0.1499372
137	0xbe725836	-0.23666462
138	0x3da60002	0.0810547
139	0xbda27fdc	-0.079345435
140	0xbd0d870d	-0.034552623
141	0x3d98206c	0.07428059
142	0xbdc6040f	-0.09668743
143	0xbdf2b5d3	-0.118510865
144	0x3e4d768a	0.2006475
145	0x3dc14cb7	0.0943846
146	0xbe4cb0f5	-0.19989379
147	0xbdf150b9	-0.11782975
148	0xbc18f789	-0.009336361
149	0x3cd84d3d	0.026404018
150	0x3d034bf7	0.032054868
151	0x3d14b601	0.036306385
152	0xbdde47a4	-0.10853508
153	0x3dcc45c2	0.09974243
154	0x3d2036a2	0.039114602
155	0xbe08e8b0	-0.13370013
156	0xbda73aff	-0.081655495
157	0xbda10932	-0.07863082
158	0x3d95bd46	0.07311492
159	0x3d7840c7	0.06060865
160	0x3dc8b017	0.097992115
161	0xbdb2f4b3	-0.08738079
162	0x3d8dd886	0.06926064
163	0x3c36e984	0.011164073
164	0xbc014727	-0.007890499
165	0x3cdf5f32	0.027267072
166	0x3df10771	0.117689975
167	0x3dffe6f0	0.1249522
168	0x3d4cd681	0.050009254
169	0xbd1148bb	-0.03546975
170	0x3dc85f34	0.097837836
171	0xbd6fa365	-0.058505435
172	0x3cb68f95	0.022285262
173	0xbc22e37d	-0.009941933
174	0x3d3777b6	0.0447919
175	0xbe1a04cb	-0.15040891
176	0xbe061af6	-0.13096222
177	0xbd5d852b	-0.054082077
178	0x3bd7c090	0.0065842345
179	0xbe4fdbaa	-0.20298639
180	0xbddc4682	-0.10755636
181	0xbe8377bb	-0.25677285
182	0xbe409fcc	-0.18810958
183	0x3d341bb9	0.04397175
184	0x3d1886bb	0.037237864
185	0xbdebd0b6	-0.11514418
186	0x3dc67f91	0.096923
187	0xbd6bb73a	-0.057547785
188	0x3de5606f	0.11200034
189	0xbd849dd3	-0.06475415
190	0xbcffd954	-0.03123156
191	0xbd453ec6	-0.04815557
192	0x3ce8caec	0.028417073
193	0xbdfb7aa1	-0.12279249
194	0xbeada893	-0.33917674
195	0xbe23ea3f	-0.16007327
196	0xbdb6fdee	-0.08935152
197	0x3dabe939	0.08394093
198	0xbcd67a97	-0.026181502
199	0x3d566f8a	0.052352466
200	0xbc6f8cc9	-0.014620968
201	0x3d83bc6d	0.06432424
202	0x3e5b0596	0.2138885
203	0xbc2eae39	-0.010661655
204	0xbc4e8afd	-0.01260638
205	0xbe185c5e	-0.14878985
206	0x3d593829	0.053032074
207	0xbd352c01	-0.04423142
208	0x3da44547	0.08021026
209	0x3e1c937e	0.15290639
210	0xbe06d9c4	-0.13169008
211	0xbd6b72d3	-0.05748255
212	0x3c2ac2dc	0.010422435
213	0xbda00532	-0.07813491
214	0x3c9ebad7	0.019376202
215	0x3c404ee5	0.01173756
216	0x3e0315c6	0.12801275
217	0xbe600d8d	-0.21880169
218	0xbe63be59	-0.2224058
219	0x3e0756f6	0.13216767
220	0x3d6ab207	0.057298686
221	0x3c892892	0.016742978
222	0xbd905b16	-0.07048623
223	0x3dbb1ab9	0.09135956
224	0xbda047a7	-0.078261666
225	0x3d1c10ce	0.038101964
226	0xbddbd4ea	-0.107339695
227	0xbc4deb94	-0.012568373
228	0x3cea81c4	0.02862633
229	0xbdbbeb93	-0.091757916
230	0xbe460763	-0.19338755
231	0xbe91d0e8	-0.28479695
232	0x3db1d15f	0.086825125
233	0xbdb940f0	-0.09045589
234	0x3dc35012	0.095367566
235	0x3d0ef970	0.03490585
236	0xbda93e5c	-0.08263847
237	0xbc08494f	-0.008318259
238	0x3c59e548	0.013299294
239	0xbe63faa3	-0.22263579
240	0xbc7128a3	-0.014719161
241	0x3bb5b181	0.0055448418
242	0x3d835cc2	0.064141765
243	0xbd29d379	-0.04146144
244	0x3bf6540a	0.0075173425
245	0x3db8344d	0.089943506
246	0xbb5083b4	-0.0031816782
247	0xbe221f1b	-0.15832178
248	0x3d40fc2a	0.047115482
249	0xbc4e63c2	-0.012597026
250	0xbdb20f75	-0.086943544
251	0xbd388457	-0.045048084
252	0xbe08fed9	-0.13378467
253	0xbd257654	-0.04039605
254	0xbd256f21	-0.040389184
255	0x39e74678	0.00044112257

a2.bias f4 [16]
0	0xbdee0650	-0.11622298
1	0x3bdd359d	0.006750776
2	0x3c3d2544	0.011544529
3	0xbcf067b8	-0.029346332
4	0xbd05b92d	-0.0326473
5	0x3cf63f2e	0.030059423
6	0xbcc88523	-0.024477547
7	0x3d61e08d	0.05514579
8	0x3c77b3a8	0.015118517
9	0x3d284ee0	0.041090846
10	0x3c09b6f5	0.008405437
11	0xbca2a05a	-0.019851852
12	0xbd277830	-0.040886104
13	0xbd6c1ea8	-0.057646424
14	0x3d68e846	0.05686214
15	0xbd90c187	-0.070681624

a3.weight f4 [32, 16, 3, 3]
0	0x3e9d8ae0	0.30770016
1	0xbde38a6d	-0.11110387
2	0x3e2abeb8	0.16674316
3	0x3dee097b	0.11622902
4	0x3e722635	0.23647387
5	0xbd5f5174	-0.05452104
6	0x3dc99e19	0.09844608
7	0xbe91a5d2	-0.28446823
8	0xbe3140d8	-0.17309892
9	0x3d052867	0.032509234
10	0x3d70ea87	0.058817413
11	0xbd1f9949	-0.038964543
12	0x3d46863e	0.048467867
13	0x3da18935	0.07887498
14	0x3dea388f	0.11436569
15	0xbbf91208	-0.0076010264
16	0xbcd513f0	-0.026010484
17	0xbe2a0abf	-0.16605662
18	0xbc83c41d	-0.016084725
19	0x3d49c789	0.049262557
20	0x3d90250e	0.070383176
21	0xbdc9d2b8	-0.098546445
22	0x3d365150	0.04451114
23	0xbe0648a4	-0.13113648
24	0x3e18f927	0.14938794
25	0x3d9bfa11	0.07616056
26	0xbe0cc1ff	-0.13745879
27	0x3de12392	0.109931126
28	0xbda59387	-0.08084779
29	0x3e1c9590	0.15291429
30	0x3e3471a6	0.17621478
31	0xbe8ee3ad	-0.27908078
32	0x3e256534	0.16151887
33	0x3d9e8db8	0.077418745
34	0x3d65cfb0	0.05610627
35	0xbe87cdcf	-0.26524207
36	0x3c826100	0.015915394
37	0xbcbbe943	-0.022938376
38	0xbe1c95c0	-0.152915
39	0x3e06820f	0.13135551
40	0x3d5edf28	0.054412037
41	0x3cf56c9c	0.029959016
42	0x3ce46dba	0.027884353
43	0xbda35868	-0.079758465
44	0x3c99688b	0.018726608
45	0xbdf9879a	-0.12184067
46	0xbe59dda0	-0.2127595
47	0x3d64c73d	0.05585407
48	0xbc3d40a2	-0.011551054
49	0xbcd22b65	-0.025655458
50	0x3a884734	0.0010397197
51	0x3d82c587	0.063853316
52	0xbbd2eb15	-0.0064367154
53	0xbe08b229	-0.13349213
54	0x3dccb766	0.09995918
55	0x3d5ed808	0.054405242
56	0xbeb2c46b	-0.3491548
57	0x3d5b1b31	0.05349273
58	0xbe246f25	-0.16058023
59	0xbd2c9f71	-0.042144243
60	0xbd2181de	-0.03943049
61	0xbd9abc1e	-0.07555412
62	0x3db5ad0e	0.08870898
63	0x3dd348d9	0.10316629
64	0xbcced34a	-0.025247235
65	0xbd5844f5	-0.052800138
66	0x3da67045	0.081268825
67	0x3d76219c	0.060090646
68	0x3c511e9e	0.012763647
69	0x3d9eac7a	0.07747741
70	0x3baedc61	0.00533633
71	0xbd9a7336	-0.07541506
72	0xbdb8e186	-0.0902739
73	0x3d9ea17c	0.077456445
74	0x3d8aca34	0.067768484
75	0xbe9dc225	-0.30812183
76	0xbda68f72	-0.08132829
77	0xbd216af0	-0.039408624
78	0x3ce37877	0.027767403
79	0x3cecdc24	0.028913565
80	0xbd272e6e	-0.040815763
81	0x3dc3dae3	0.09563234
82	0x3e175cd2	0.14781502
83	0xbd86b7c8	-0.06578022
84	0xbcc9a603	-0.024615293
85	0xbcb1a171	-0.021683427
86	0x3da7d1ed	0.08194337
87	0xbc074035	-0.008255054
88	0xbe1907ae	-0.14944336
89	0x3cd90769	0.026492791
90	0xbdec9dfd	-0.115535714
91	0xbcc32b45	-0.023824343
92	0x3cf93ec6	0.03042544
93	0xbe049472	-0.12947252
94	0xbdfbf0b5	-0.123017706
95	0x3d2aca4a	0.041696824
96	0x3dd3f48a	0.103493765
97	0xbc82adb8	-0.015951976
98	0xbd28247c	-0.04105042
99	0xbddc3be2	-0.10753609
100	0x3e068c3f	0.13139437
101	0x3d0a3700	0.03374386
102	0xbbdf063f	-0.0068061645
103	0xbdf0dc3f	-0.117607586
104	0x3e119117	0.14215504
105	0x3cf9e521	0.030504765
106	0xbdb7e929	-0.08980019
107	0x3df89c7d	0.12139223
108	0xbdac16ec	-0.084028095
109	0xbd426d7c	-0.047467694
110	0xbc5e07b2	-0.013551639
111	0xbd49f24b	-0.049303334
112	0x3c3a9686	0.011388427
113	0xbdb532d3	-0.088475846
114	0xbe3bfca3	-0.18358092
115	0x3e031e6f	0.12804578
116	0x3de3cc8d	0.11122999
117	0x3dbc6302	0.09198572
118	0xbd7ef46c	-0.062244818
119	0x3d1fee30	0.039045513
120	0x3db22f27	0.087004
121	0xbc53ad04	-0.012919668
122	0xbab86757	-0.0014068884
123	0x3d01c49b	0.03168164
124	0x3e13990c	0.14413851
125	0xbd0da0f6	-0.034577332
126	0xbcf9d112	-0.0304952
127	0x3e35de17	0.17760502
128	0x3d80bb3b	0.062857114
129	0x3cef52b2	0.029214237
130	0x3d9aa75c	0.075514525
131	0xbe412b8f	-0.18864273
132	0x3ccd5169	0.025063233
133	0x3c0e2737	0.008676342
134	0xbe8a75fa	-0.27043134
135	0x3d091d4f	0.033475216
136	0xbdfc8879	-0.123307176
137	0xbc6fc534	-0.014634419
138	0x3d60e056	0.054901443
139	0x3d9972a6	0.074925706
140	0x3dbb5bf1	0.09148396
141	0xbcb62a75	-0.022237042
142	0x3ca8f1b8	0.020623073
143	0x3c6ecc0d	0.014575017
144	0x3dace8ce	0.084428415
145	0xbddf7130	-0.10910261
146	0x3dfd8bf8	0.123802125
147	0xbc290408	-0.0103159025
148	0x3dedc537	0.11609881
149	0x3d59896c	0.05310957
150	0x3dc33a92	0.09532656
151	0x3e29bf1e	0.16576812
152	0xbde89b76	-0.11357777
153	0xbde12233	-0.10992851
154	0xbd448f78	-0.047988385
155	0xbd106c47	-0.03525951
156	0x3dac91fc	0.08426282
157	0xbd6b3b76	-0.057429753
158	0x3ce97329	0.028497295
159	0xbdb8786e	-0.09007345
160	0x3dbaf7eb	0.09129318
161	0x3dcfadf1	0.101405986
162	0x3d086b29	0.03330532
163	0x3d70f707	0.058829334
164	0x3d881d33	0.06646194
165	0xbc9281f1	-0.017884227
166	0xbcbf55ec	-0.0233564
167	0xbc3410de	-0.01099035
168	0xbd819e3e	-0.063290104
169	0xbe1842b4	-0.14869195
170	0xbc9d3dbc	-0.019194476
171	0xbc0c8e61	-0.008578868
172	0xbdb220bf	-0.08697652
173	0x3d045580	0.0323081
174	0xbe200f63	-0.1563087
175	0xbd38e04e	-0.04513579
176	0xbc54500f	-0.012958541
177	0x3e90ead7	0.2830417
178	0xbd1dccbe	-0.038525335
179	0xbca2dec9	-0.019881623
180	0xbc828b4f	-0.015935568
181	0xbc7c6a53	-0.015406209
182	0x3db642c0	0.0889945
183	0xbb8870e5	-0.0041638487
184	0x3df99be6	0.121879384
185	0x3d52994c	0.051415727
186	0x3d2a3d6b	0.04156248
187	0xbd20109c	-0.03907834
188	0xbe15761a	-0.14595833
189	0xbd83a6de	-0.06428312
190	0x3bb3d59d	0.005488111
191	0xbd5e9fe7	-0.054351714
192	0xbc9d9f48	-0.01924099
193	0xbd93c76c	-0.07215771
194	0x3c8bfd45	0.017088542
195	0x3db2f929	0.0873893
196	0x3e4a90bc	0.19781774
197	0x3de625ed	0.112377025
198	0xbd9fd8b0	-0.07805002
199	0x3d05d57a	0.03267429
200	0xbc3e326a	-0.011608699
201	0x3cad8ae2	0.021184389
202	0x3dc3b5ec	0.09556183
203	0x3d95f820	0.07322717
204	0x3d41fc4a	0.047359742
205	0x3d9fd6e9	0.07804663
206	0xbe38107f	-0.17975043
207	0xbc77a28c	-0.015114438
208	0x3dcbe46f	0.099556796
209	0xbdd0f16a	-0.10202296
210	0xbde33293	-0.11093631
211	0x3b7bb8e9	0.0038409776
212	0x3cd15074	0.025551058
213	0xbded97c2	-0.11601211
214	0xbe51741c	-0.20454448
215	0x3cfbbbcc	0.030729197
216	0xbe860c9d	-0.26181498
217	0x3e0e8553	0.13918047
218	0x3d7f603d	0.06234764
219	0x3da366f9	0.07978625
220	0xbcb1e903	-0.021717554
221	0x3c91ed0b	0.017813226
222	0x3c467936	0.01211386
223	0x3e5a88b4	0.2134121
224	0xbe0f5ce2	-0.14000276
225	0xbe1a7efd	-0.15087505
226	0xbe1598d1	-0.14609076
227	0xbcb1cbdb	-0.021703651
228	0x3ba1cd06	0.004937771
229	0xbe0d6829	-0.13809265
230	0x3ce3d7e4	0.027812906
231	0x3d2621c5	0.04055955
232	0xbb4aa4db	-0.0030921015
233	0x3e0da1fe	0.13831326
234	0xbdeb958b	-0.115031324
235	0x3b754342	0.0037424122
236	0xbdb07302	-0.08615686
237	0x3dcf80b4	0.1013197
238	0x3d8d635a	0.069037154
239	0xbd3c99db	-0.046045166
240	0x3daca4fe	0.08429907
241	0x3bdc5d9d	0.0067250268
242	0x3e25cdb7	0.16191755
243	0xbd1b0a55	-0.03785165
244	0x3e21ad4e	0.15788767
245	0xbb0a911a	-0.0021143616
246	0x3cd972bc	0.026543967
247	0x3e723ee1	0.23656799
248	0x3d41598a	0.04720453
249	0xbdee7cc8	-0.11644894
250	0x3de2b30c	0.11069307
251	0x3d8ec505	0.06971172
252	0xbcc93d00	-0.02456522
253	0x3d20cb8e	0.039256625
254	0xbe346647	-0.1761714
255	0x3c322bf6	0.010874739

a3.bias f4 [32]
0	0xbc321766	-0.010869836
1	0xbcd5491e	-0.026035842
2	0x3d6b984c	0.05751829
3	0x3ce17682	0.02752233
4	0xbd591993	-0.053002905
5	0x3d1be8c3	0.038063776
6	0x3d0f85aa	0.03503958
7	0xbd2b1a26	-0.041772984
8	0xbe18a246	-0.14905652
9	0x3c9746c2	0.018466357
10	0xbcb7ce68	-0.02243729
11	0xbcdee159	-0.027207064
12	0xbd9bc48a	-0.07605846
13	0xbd47beb6	-0.04876586
14	0x3d3ad655	0.04561456
15	0x3c53a622	0.012918027
16	0x3d6dacce	0.058026128
17	0xbdeee8e9	-0.11665518
18	0xbbda3000	-0.006658554
19	0x3c3ff747	0.01171667
20	0xbdfc7701	-0.12327386
21	0xbd616ba6	-0.055034302
22	0x3bacb14e	0.00527016
23	0x3d08aae0	0.033366084
24	0x3d3db8c6	0.04631879
25	0x3d84165c	0.06449577
26	0xbd6355a2	-0.055501588
27	0xbdc20b75	-0.094748415
28	0x3d1023c3	0.035190355
29	0x3d2bcc89	0.041943107
30	0x3bcba33d	0.006214528
31	0xbbe8761a	-0.007094157

b1.weight f4 [32, 32, 3, 3]
0	0x3cdceab8	0.026967391
1	0xbca9748a	-0.020685453
2	0x3d0a2c49	0.03373364
3	0x3d3bd399	0.045856092
4	0x3d025fda	0.031829692
5	0xbca12a08	-0.019673362
6	0x3d3133a9	0.043262158
7	0xbd25a562	-0.040440924
8	0x3ca0d64e	0.019633438
9	0xbd73d4de	-0.059529178
10	0x3d7c7f2c	0.061644718
11	0xbd6c9dcd	-0.057767678
12	0x3c900e57	0.017584963
13	0xbd5cdad6	-0.053919636
14	0x3c63330c	0.013867151
15	0x3cd6e00d	0.026229883
16	0xbd513d92	-0.05108411
17	0xbcd97408	-0.026544586
18	0xbd53bfa6	-0.051696442
19	0xbd0d8928	-0.03455463
20	0x3d059769	0.0326151
21	0xbd852cc7	-0.06502681
22	0x3ca0e06e	0.019638266
23	0xbcd75d74	-0.02628968
24	0x3c8356d5	0.016032616
25	0x3c84ad58	0.016195938
26	0xbc294bd8	-0.010333024
27	0x3d133369	0.0359377
28	0xbd0ed0eb	-0.03486721
29	0xbd1515ab	-0.036397617
30	0x3c47b76f	0.01218973
31	0x3c966e81	0.01836324
32	0xbcce3784	-0.025172956
33	0xbd7ad34c	-0.061236665
34	0xbd263dc1	-0.040586237
35	0x3d54668f	0.05185562
36	0xbd917bee	-0.07103716
37	0xbcb3beea	-0.02194162
38	0x3cac4082	0.021026853
39	0xbd855dcc	-0.06512031
40	0xbb7dbc3a	-0.0038716928
41	0x3d36ee71	0.04466099
42	0x3d30e305	0.043185253
43	0xbd540905	-0.051766414
44	0x3cbef636	0.023310762
45	0x3d19dc0e	0.037563376
46	0xbd23a2f9	-0.039950345
47	0xbc81b6aa	-0.015834171
48	0xbc93f797	-0.018062396
49	0x3b3f2ff1	0.0029172862
50	0x3cea431a	0.02859645
51	0x3d32a3fc	0.04361342
52	0xbc36b5f5	-0.01115178
53	0xbafe0120	-0.0019378997
54	0xbd5b14d9	-0.05348668
55	0x3ccd53b5	0.025064329
56	0x3d0a082f	0.03369921
57	0xbc177861	-0.009245009
58	0x3d2aee99	0.04173145
59	0x3c9b1d82	0.018934969
60	0xbb2d9fee	-0.002649303
61	0x3ccc31cf	0.024926094
62	0xbcf87d54	-0.030333199
63	0xbd2e84a8	-0.04260698
64	0x3cd7be79	0.026335942
65	0xbcc6192e	-0.024181928
66	0xbd8fc972	-0.070208445
67	0xbca97507	-0.020685686
68	0xbc750864	-0.014955614
69	0xbd85d9ac	-0.06535658
70	0xbc159e23	-0.009131941
71	0x3bb5cb28	0.0055478998
72	0xbd629d8c	-0.05532603
73	0xbd031446	-0.032001756
74	0x3abe1b60	0.0014504008
75	0x3c05b5ec	0.008161049
76	0x3c912662	0.017718498
77	0x3c75b2f4	0.014996279
78	0xbd4fbfb6	-0.05071994
79	0x3c31dcd4	0.010855872
80	0x3d6d4317	0.05792531
81	0x3cc8a34a	0.024491925
82	0xbd4e1ced	-0.050320555
83	0x3d7071b5	0.05870219
84	0xbd19935c	-0.03749405
85	0xbd8a4612	-0.06751646
86	0xbcba98ec	-0.022777997
87	0xbc749ca1	-0.014929921
88	0x3ca5f8a1	0.020260157
89	0x3bac4dd8	0.005258303
90	0xbcfb2bfd	-0.030660624
91	0x3a39d180	0.0007088408
92	0xbca40ada	-0.020024706
93	0x3c0fff54	0.008788902
94	0xbd67eba6	-0.056621216
95	0x3c9a82b6	0.018861156
96	0x3c1cef74	0.009578574
97	0xbd5a91f1	-0.053361837
98	0xbd28a780	-0.041175365
99	0xbd0ca270	-0.0343346
100	0x3d68a5b7	0.056798663
101	0xbcdef8fa	-0.02721833
102	0x3cfb8d4e	0.030707028
103	0xbc0fd8f7	-0.008779756
104	0xbd0b216f	-0.03396743
105	0xbcdf37f0	-0.027248353
106	0x3d03b441	0.032154325
107	0x3d3006b3	0.04297514
108	0xbd6643a7	-0.056216862
109	0xbcc0efed	-0.023551906
110	0x3d35d35b	0.044391017
111	0x3c0bd898	0.008535527
112	0x3cd574ac	0.02605661
113	0x3c8cb45a	0.017175842
114	0x3cd242c0	0.025666595
115	0xbbf92870	-0.0076036975
116	0x3c30a564	0.01078162
117	0xbcc48208	-0.023987785
118	0xbce2791b	-0.027645638
119	0xbb9891c0	-0.0046560466
120	0x3bfc06f3	0.007691258
121	0x3cc1eed7	0.023673458
122	0xbd41ba7f	-0.047296997
123	0xbd7fc959	-0.06244788
124	0xbd076a1a	-0.03306017
125	0x3cef8166	0.029236507
126	0x3ba1b833	0.0049352883
127	0xbd2f8938	-0.04285547
128	0xbd621fe1	-0.055206183
129	0xbca560d5	-0.020187775
130	0xbc79fd09	-0.015258082
131	0xbd333745	-0.04375388
132	0xb94e814e	-0.0001969386
133	0x3c1a2edf	0.009410589
134	0x3ce16a5a	0.027516533
135	0xbc919d6f	-0.017775265
136	0xbd020a4c	-0.0317481
137	0xbd48097a	-0.048837163
138	0xbc635ace	-0.01387663
139	0xbd35a14d	-0.04434328
140	0xbcc8717c	-0.024468176
141	0xbd2a743a	-0.04161475
142	0xbcc71672	-0.024302695
143	0x3cddc2be	0.0270704
144	0x3c9768c1	0.018482568
145	0x3bf49108	0.007463578
146	0xbd178a6c	-0.036997244
147	0x3b45eae4	0.003019982
148	0xbd825ccc	-0.06365356
149	0x3d17dc47	0.037075307
150	0xbcb9f1d3	-0.022698319
151	0x3c35c976	0.011095395
152	0xbd32e8c8	-0.04367903
153	0x3c8aeb7d	0.016957993
154	0x3d6dab3b	0.058024626
155	0x3d697a03	0.057001125
156	0xbd640644	-0.055670038
157	0x3cc82536	0.024431806
158	0x3d21fea5	0.03954949
159	0x3c3f87ac	0.011690062
160	0xbd4a013c	-0.049317583
161	0xbd07e7d0	-0.033180058
162	0x3c60263a	0.013680989
163	0x3d02a7d0	0.03189832
164	0x3b9305f8	0.0044867955
165	0x3b11aa60	0.0022226796
166	0xbb9a9388	-0.004717294
167	0xbcbd6c62	-0.02312297
168	0xbd6cd0dc	-0.05781637
169	0xbd2218f0	-0.039574564
170	0xbd42ba70	-0.047541082
171	0xbcda5728	-0.026652887
172	0xbd3b0fa7	-0.045669224
173	0x3c629924	0.013830457
174	0xbd163a1c	-0.03667651
175	0xbc014728	-0.0078905
176	0x3d485a5b	0.048914295
177	0x3d5f70ee	0.054551058
178	0x3ceae146	0.028671872
179	0x3d023457	0.031788196
180	0xbcb45114	-0.022011317
181	0xbd003492	-0.031300135
182	0xbbdc7340	-0.006727606
183	0xbd3a0bae	-0.045421295
184	0xb8bb1a00	-8.921698e-05
185	0x3d143849	0.03618649
186	0x3ce0da3a	0.027447809
187	0xbd384d15	-0.044995386
188	0xbc21de8c	-0.0098797195
189	0xbc1e496d	-0.009661061
190	0x3cbafb24	0.022824831
191	0xbd4c1653	-0.049825978
192	0xbd4a3cec	-0.049374506
193	0xbce3a09c	-0.027786545
194	0xbd1e5a74	-0.03866048
195	0xbc814a6e	-0.015782561
196	0x3cc872b6	0.024468761
197	0x3d5a63b5	0.053317744
198	0xbd6ea6e5	-0.05826463
199	0xbd248517	-0.040165987
200	0x3ce21c66	0.027601432
201	0xbd07e8dc	-0.033181056
202	0x3c60771f	0.013700276
203	0x3cec7eee	0.028869119
204	0x3c8d2dbc	0.017233722
205	0x3d5bdd4c	0.053677842
206	0x3d171865	0.0368885
207	0x3d327230	0.04356593
208	0x3d357145	0.044297475
209	0x3c04695c	0.00808176
210	0xbb0f827d	-0.0021897845
211	0xbd35f7ca	-0.044425763
212	0x3cf0bc16	0.029386561
213	0xbd428a20	-0.047495008
214	0xbd7b0068	-0.061279684
215	0x3c090bbc	0.008364614
216	0xbd718395	-0.058963377
217	0x3d0a390c	0.03374581
218	0x3c989322	0.018624846
219	0x3d284f10	0.041091025
220	0x3d194017	0.037414636
221	0xbb459f00	-0.0030154586
222	0x3c68f2bb	0.014218028
223	0xbc5d09bb	-0.013491089
224	0xbd0d526f	-0.034502443
225	0x3d2f95a3	0.042867314
226	0x3be26bc5	0.00690982
227	0x3b2550b0	0.0025225095
228	0x3b40d772	0.002942529
229	0xbd077a53	-0.03307564
230	0xbd039987	-0.032128837
231	0xbd883c47	-0.06652122
232	0x3cf0c32c	0.02938994
233	0xbd1d911d	-0.03846847
234	0xbd3e8151	-0.046510044
235	0xbd8af056	-0.06784122
236	0xbd2d7106	-0.042344116
237	0xbb3794cf	-0.002801228
238	0x3baafc75	0.0052180835
239	0x3a450b00	0.0007516593
240	0xbd4bf3b3	-0.049792957
241	0xbcfc71e8	-0.030816033
242	0xbd4e1ef6	-0.050322495
243	0xbd12f9d6	-0.035882793
244	0x3ce9d812	0.028545413
245	0xbd58ff24	-0.052977696
246	0x39d0c300	0.00039818138
247	0x3d375695	0.044760305
248	0x3d0c80cd	0.03430252
249	0x3c993182	0.018700365
250	0xbd6068fe	-0.05478763
251	0x3c59a0d4	0.013282973
252	0x3bed2b97	0.0072378623
253	0xbc4b4b4c	-0.012408089
254	0x3c8393ba	0.016061652
255	0xbc8697b0	-0.016429752

b1.bias f4 [32]
0	0xbd6a51c8	-0.0572069
1	0x3cdbcf2b	0.026832184
2	0x3d36efb4	0.044662192
3	0xbb374954	-0.002796729
4	0x3c9f87f3	0.019474005
5	0x3c7cdf3a	0.015434081
6	0x3ccacd4d	0.024756098
7	0xbc5863e6	-0.013207411
8	0x3c4ce4bc	0.012505706
9	0xbd9e1474	-0.07718745
10	0xbd9e0220	-0.07715249
11	0xbc30dac4	-0.010794345
12	0x3d44df5e	0.048064582
13	0x3cd1e1df	0.025620399
14	0x3d1bdec7	0.038054254
15	0x3d147faa	0.036254562
16	0x3c8f59e6	0.017498922
17	0xbd347f2b	-0.04406659
18	0x3cddd159	0.027077364
19	0x3c4c0ff1	0.012454973
20	0x3cc12785	0.023578415
21	0xbd11eaa4	-0.03562416
22	0xbd94c717	-0.07264536
23	0x3cc0ec43	0.023550158
24	0xbd92cdac	-0.07168135
25	0xbb1c45e1	-0.0023845362
26	0x3a227ec2	0.0006198698
27	0xbc2ab728	-0.010419644
28	0xbd516fa4	-0.05113186
29	0xbc117e38	-0.008880191
30	0x3b0a38eb	0.0021091055
31	0xbcc9fd36	-0.024656873

b2.weight f4 [32, 32, 3, 3]
0	0xbcf81579	-0.030283676
1	0xbd1e63d6	-0.03866943
2	0x3d23ea39	0.040018294
3	0x3d28878f	0.041144904
4	0x3c71a11c	0.014747884
5	0xbad8ff00	-0.0016555488
6	0xbc1ca5a4	-0.009560976
7	0x3d421992	0.047387667
8	0xbbb26ab0	-0.005444847
9	0xbd46b4fc	-0.048512444
10	0xbe3091b0	-0.17243075
11	0xbd992835	-0.07478372
12	0xbd19d44c	-0.037555978
13	0x3c86c515	0.016451398
14	0x3e0c5625	0.13704737
15	0xbd802a0f	-0.06258022
16	0x3d8603e1	0.065437086
17	0x3ddfa993	0.109210156
18	0xbdf98e9c	-0.12185404
19	0xbe0febc2	-0.14054778
20	0xbd96b10f	-0.0735799
21	0x3cee8529	0.02911623
22	0xbdb4c9b0	-0.08827531
23	0xbe220348	-0.15821564
24	0xbb13aaed	-0.00225323
25	0x3e340894	0.17581397
26	0x3e7c8380	0.24659538
27	0xbdaf03a9	-0.0854562
28	0xbe08cef6	-0.133602
29	0xbe0728ad	-0.1319911
30	0x3d9d5d25	0.076837815
31	0xbd128e7c	-0.035780415
32	0xbdbc3f25	-0.09191731
33	0xbe0a2b26	-0.13493022
34	0xbbdd14fe	-0.006746887
35	0xbd064a8a	-0.03278593
36	0x3e0db9bf	0.13840388
37	0x3e010df9	0.12602986
38	0x3d81ebc0	0.06343794
39	0x3ddc2084	0.10748389
40	0x3e3b384d	0.18283196
41	0x3dd6a3c8	0.104804575
42	0x3e15eda7	0.14641438
43	0x3d92cef9	0.07168383
44	0x3d349c0d	0.044094134
45	0xbc3ce6c5	-0.011529629
46	0xbe2568c9	-0.16153254
47	0xbe1414ea	-0.14461103
48	0x3a8fb2e7	0.0010963351
49	0xbe82e1c0	-0.2556286
50	0xbd4b5034	-0.049637035
51	0x3d982712	0.07429327
52	0x3bb0d34b	0.005396282
53	0x3d77a50a	0.060460128
54	0xbe57df86	-0.21081361
55	0xbe8cedd3	-0.27525195
56	0xbe4de72e	-0.2010772
57	0x3e0883a4	0.13331467
58	0xbda0829c	-0.07837412
59	0xbe13f4dd	-0.14448877
60	0x3c927631	0.017878624
61	0xbbc8da0b	-0.0061295084
62	0x3de3a111	0.11114705
63	0x3d681f61	0.05667055
64	0x3e0111bf	0.12604426
65	0x3cfb2fdb	0.030662468
66	0xbb58b130	-0.0033064596
67	0x3de6cd1b	0.112695895
68	0x3e1c3442	0.1525431
69	0xbc9e5b1a	-0.01933055
70	0x3dc5abf7	0.0965194
71	0x3d77cd0f	0.060498293
72	0x3d818a16	0.06325166
73	0xbd7fae33	-0.06242199
74	0x3de94fda	0.113921836
75	0x3c9b81ea	0.018982846
76	0xbe87e75e	-0.26543707
77	0xbe146e23	-0.14495139
78	0xbe0a907f	-0.13531683
79	0x3d73a861	0.05948675
80	0x3e8872a1	0.26649955
81	0xbcc31b72	-0.023816798
82	0xbcf8c992	-0.030369554
83	0xbc4e03a2	-0.012574108
84	0x3cdf7930	0.027279466
85	0x3cf10879	0.029422985
86	0xbc697112	-0.0142481495
87	0x3d7e13d3	0.062030625
88	0x3cbbbd40	0.02291739
89	0xbd248b5b	-0.040171962
90	0xbd088af6	-0.03333565
91	0x3d090cd3	0.033459496
92	0x3d32ffef	0.04370111
93	0x3ccc1582	0.0249126
94	0x3ac6d2d0	0.0015169028
95	0x3d44f57d	0.04808568
96	0xbda655a0	-0.081218004
97	0xbcf5a43b	-0.029985538
98	0xbbb33340	-0.005468756
99	0x3d16afc0	0.036788702
100	0xbd25c1b5	-0.040467937
101	0xb963f7e9	-0.0002174076
102	0xbd8f6943	-0.07002499
103	0xbe19367d	-0.14962192
104	0xbd6a33e6	-0.0571784
105	0x3d66d4b9	0.056355212
106	0xbdd64f92	-0.104643956
107	0xbc6dfaed	-0.014525157
108	0x3cb5fbe7	0.022214843
109	0x3c6a53c0	0.014302194
110	0x3e4c25a5	0.19936235
111	0xbd8d7b04	-0.06908229
112	0xbd27c0be	-0.040955298
113	0x3e66a66f	0.22524427
114	0x3d27e9ec	0.04099457
115	0xbe25977d	-0.1617107
116	0x3d72d1e2	0.05928219
117	0xbc84a8c8	-0.016193762
118	0xbdbbf9ce	-0.09178506
119	0x3df707ed	0.120620586
120	0xbd64e5cb	-0.05588321
121	0xbd6d1676	-0.05788275
122	0xbe26981b	-0.16268961
123	0x3df53787	0.119734816
124	0x3e2756ad	0.16341658
125	0x3d1f3171	0.03886551
126	0xbe12400b	-0.14282243
127	0xbe6d8086	-0.23193559
128	0x3d51f6f0	0.05126089
129	0xbd537d90	-0.051633418
130	0x3c435810	0.011922851
131	0xbdb01aa6	-0.08598833
132	0xbbaf8b7f	-0.0053572054
133	0x3c952fe4	0.018211313
134	0x3d7bc5b3	0.061467838
135	0x3d0224b2	0.031773277
136	0xbdbf8e97	-0.09353369
137	0xbb108c4e	-0.0022056284
138	0x3ccfeb49	0.025380747
139	0xbd1db8f2	-0.038506456
140	0xbc35f1ed	-0.011105043
141	0x3ddbc621	0.107311495
142	0x3d475ed5	0.048674423
143	0x3d3452a0	0.04402411
144	0x3c92dae7	0.017926646
145	0xbca778bf	-0.020443318
146	0xbd9f33f3	-0.077735804
147	0xbd16cd15	-0.036816675
148	0xbc201878	-0.009771459
149	0xbd5a7897	-0.05333766
150	0x3d18c905	0.037301082
151	0x3d07c024	0.033142224
152	0x3dc25822	0.09489466
153	0x3d2b712d	0.04185598
154	0x3daae98a	0.08345325
155	0xbe7dd234	-0.24787217
156	0xbd81edbd	-0.06344173
157	0x39efcdd6	0.00045738992
158	0x3ca86ee9	0.020560699
159	0x3da8fbaf	0.0825113
160	0xbceab2df	-0.028649746
161	0xbd96c6b9	-0.07362122
162	0xbda72412	-0.08161177
163	0xbe137835	-0.14401324
164	0xbda2ec6f	-0.079552524
165	0xbdb99b1a	-0.090627864
166	0xbe367a98	-0.17820203
167	0xbe0254b4	-0.12727624
168	0xbc9ddd49	-0.019270556
169	0x3cdd1c6f	0.026991097
170	0x3db699d3	0.089160584
171	0xbdc7a0bc	-0.097474545
172	0xbd65d4ed	-0.056111265
173	0x3d7210d0	0.059098065
174	0xbd37e7ab	-0.04489867
175	0xbe5ce218	-0.21570623
176	0xbda00a4e	-0.078144655
177	0xbca72c1e	-0.020406779
178	0xbcb726a2	-0.022357289
179	0xbd98bc51	-0.074577935
180	0xbe346fd2	-0.17620781
181	0xbe503224	-0.20331627
182	0xbe021fd7	-0.12707458
183	0xbdbe012b	-0.092775665
184	0xbe1dd4a6	-0.1541315
185	0xbe54deb2	-0.20788077
186	0xbbd89d71	-0.0066105654
187	0x3ad00219	0.0015869766
188	0x3e2dd222	0.1697469
189	0x3d9b9f07	0.075986914
190	0x3d986501	0.0744114
191	0x3db6e61c	0.08930609
192	0x3e22cf0f	0.15899299
193	0x3e286c3a	0.16447535
194	0xbda7be02	-0.08190538
195	0x3cc261b9	0.023728238
196	0x3db07759	0.08616514
197	0xbde587d5	-0.112075485
198	0x3c0cb939	0.008589082
199	0x3d382bab	0.04496352
200	0xbcc756fd	-0.024333471
201	0xbc3d539a	-0.011555577
202	0xbbb00485	-0.0053716325
203	0xbba5449a	-0.0050435783
204	0x3cf1f4e8	0.029535726
205	0xbcd8092f	-0.026371567
206	0xbd959b50	-0.07305014
207	0xbd757aba	-0.059931494
208	0xbe2f9d78	-0.17149913
209	0xbdb20428	-0.08692199
210	0xbc935d70	-0.01798889
211	0xbe099048	-0.13433945
212	0xbe25e82a	-0.16201845
213	0x3deac8e8	0.11464101
214	0xbcca0699	-0.02466135
215	0xbdcdb968	-0.10045129
216	0xbd728a15	-0.059213717
217	0x3c6825f6	0.014169207
218	0x3dffc628	0.12488967
219	0x3d2dcd9b	0.04243241
220	0x3d989a78	0.074513376
221	0x3cb33420	0.021875441
222	0xba9a01e3	-0.001174983
223	0x3cea94be	0.028635379
224	0xbc925719	-0.017863797
225	0xbe267659	-0.16256084
226	0xbe846b99	-0.2586334
227	0xbdc3e223	-0.095646165
228	0xbd4b2659	-0.049597118
229	0xbd8a3c35	-0.06749765
230	0xbe39d169	-0.1814629
231	0x3e0afd1a	0.13573113
232	0x3d88d48f	0.06681167
233	0xbde51273	-0.111851595
234	0xbe49b85b	-0.19699232
235	0xbdde207a	-0.10846038
236	0xbdbe2e2b	-0.092861496
237	0xbb902f9d	-0.004400207
238	0xbe399266	-0.18122253
239	0xbcad16b0	-0.021128982
240	0xbbee286c	-0.0072680023
241	0x3ddf92a7	0.109166436
242	0x3cd0a4f0	0.025469273
243	0x3d8131ce	0.063083276
244	0xbd8134ed	-0.06308923
245	0x3dd86fb9	0.105681844
246	0xbd5b7569	-0.053578768
247	0xbd4f30d2	-0.050583668
248	0x3e0b01e9	0.13574947
249	0x3edff84d	0.43744126
250	0x3e926447	0.2859213
251	0xbeae7be7	-0.34078905
252	0xbb0532f0	-0.002032455
253	0x3ca5671a	0.020190764
254	0x3c96f2e6	0.01842637
255	0xbc232508	-0.009957559

b2.bias f4 [32]
0	0xbbdf9f94	-0.006824443
1	0xbd82b9aa	-0.06383069
2	0x3d121286	0.035662197
3	0xbc917c30	-0.017759413
4	0x3d001d7f	0.03127813
5	0x3c59f87e	0.013303874
6	0x3b590ffe	0.0033121104
7	0xbd01c253	-0.031679463
8	0x3c783477	0.015149227
9	0x3d0a6748	0.033789903
10	0x3c3ce9ce	0.011530353
11	0xbcf30474	-0.02966521
12	0xbd05c22f	-0.03265589
13	0x3bc5cceb	0.006036391
14	0x3c19c6e3	0.009385797
15	0x3a28a0b5	0.00064326386
16	0x3c88bf4d	0.016692782
17	0xbad482d8	-0.0016213311
18	0x3cb7ef46	0.022452962
19	0x3cd2f6ab	0.025752386
20	0xbd19b038	-0.03752157
21	0xbd490b92	-0.0490833
22	0x3cf94f62	0.03043336
23	0x3a76e0ce	0.0009417654
24	0xbd0aa3a0	-0.03384745
25	0xbd6dd577	-0.058064904
26	0xbd8cd2f3	-0.06876173
27	0x3cef62c4	0.0292219
28	0xbd705734	-0.058676913
29	0x3ced47a2	0.028964821
30	0x3cd37fe5	0.02581782
31	0x3cd376f2	0.025813553

b3.weight f4 [64, 32, 3, 3]
0	0xbdb20446	-0.08692221
1	0xbd5c72d5	-0.05382045
2	0x3c430ead	0.011905354
3	0xbe0e981c	-0.13925213
4	0xbd09d054	-0.033645943
5	0x3e44a458	0.19203317
6	0x3ddb6849	0.1071325
7	0x3d06538b	0.032794517
8	0xbcbca8cf	-0.023029713
9	0xbd2765f8	-0.04086873
10	0xbd13098d	-0.03589778
11	0xbc946595	-0.018114844
12	0x3ceca5d7	0.028887672
13	0x3d3d9739	0.046286795
14	0x3d530624	0.051519528
15	0x3cbdec88	0.023184076
16	0xbcf87e41	-0.03033364
17	0xbb057ef0	-0.002036985
18	0xbdca9803	-0.09892275
19	0x3ccb9c49	0.024854796
20	0x3b90ae4d	0.0044153095
21	0xbd7661d2	-0.060151882
22	0x3d4d0225	0.050050873
23	0x3c89482e	0.01675805
24	0xbd134d57	-0.03596243
25	0xbdcdd691	-0.10050691
26	0xbbf2f270	-0.0074141547
27	0x3d87d669	0.06632692
28	0x3ca0aa2c	0.019612394
29	0xbd688b79	-0.056773636
30	0xbbb45e3a	-0.0055043967
31	0xbc949f01	-0.018142225
32	0x3d05f698	0.032705873
33	0xbcf67528	-0.030085161
34	0xbd81f974	-0.063464075
35	0xbd97363b	-0.073833905
36	0x3d93cf07	0.07217222
37	0xbdcd88b8	-0.10035843
38	0xbdaf2d5e	-0.08553575
39	0x3e44f7db	0.19235174
40	0x3c49e701	0.012323142
41	0xbdf04e39	-0.1173367
42	0x3df5401d	0.11975119
43	0x3d274a0b	0.040842097
44	0xbdd2e16f	-0.10296904
45	0xbb54077e	-0.0032353099
46	0x3afde40e	0.0019370334
47	0xbdc7a37c	-0.09747979
48	0x3d74d25b	0.059770923
49	0x3d3ebbf1	0.046565954
50	0xbe569e51	-0.2095883
51	0x3ce1209b	0.027481368
52	0x3c5aa572	0.013345109
53	0xbe29e34d	-0.16590615
54	0x3dbc0271	0.09180153
55	0xbd8bfb9f	-0.06835102
56	0xbd56711b	-0.05235396
57	0xbe32db92	-0.17466572
58	0x3e1a0e60	0.15044546
59	0x3d95cd84	0.073145896
60	0xbcbc271c	-0.022967868
61	0xbd1ae68d	-0.037817527
62	0x3b671362	0.0035259356
63	0x3d569275	0.052385766
64	0xbd546003	-0.051849376
65	0x3d3a88d1	0.045540635
66	0xbcd450ff	-0.025917528
67	0xbd03d7f7	-0.032188382
68	0x3ba4ec38	0.0050330423
69	0xbd1e5f96	-0.038665377
70	0x3d475424	0.048664227
71	0xbd3f0bae	-0.046641998
72	0xbd7f3bf8	-0.06231305
73	0x3dae68a6	0.08516054
74	0x3d951f05	0.07281307
75	0xbbb6ea60	-0.005582139
76	0xbbd667d8	-0.006543141
77	0xbcbc2a57	-0.022969408
78	0x3c681511	0.014165179
79	0xbc2cc669	-0.010545352
80	0xbda05196	-0.07828061
81	0x3db61890	0.08891404
82	0xbdf026d5	-0.117261566
83	0x3b263828	0.0025363062
84	0x3be18d85	0.0068833255
85	0xbd7d4f43	-0.061843168
86	0xbb9e46e0	-0.0048302263
87	0x3a3f1f7e	0.00072907645
88	0xbd3c3376	-0.045947514
89	0xbd5eb08f	-0.0543676
90	0x3dcb2dae	0.09920822
91	0xbdfcceb5	-0.12344114
92	0xbb60705c	-0.003424666
93	0x3da142af	0.07874047
94	0xbd802f98	-0.06259078
95	0x3c8535f7	0.016261084
96	0x3d210e08	0.039320022
97	0xbe0c5fb4	-0.13708383
98	0x3dc2a5b9	0.09504265
99	0x3cc67546	0.024225842
100	0x3d25278d	0.04032092
101	0xbcebbb7c	-0.028775923
102	0xbcba0214	-0.022706069
103	0xbcbf7aac	-0.023373924
104	0x3c908a52	0.017644081
105	0x3d2c460d	0.042058993
106	0x3d101a0e	0.035181098
107	0xbb81eb54	-0.003964821
108	0xbd1ee5f9	-0.038793538
109	0xbd1491b8	-0.03627178
110	0xbd8c1a0f	-0.06840908
111	0xbd3d357d	-0.04619359
112	0xbd0a0982	-0.033700474
113	0xbbd4a434	-0.006489301
114	0x3afe7e94	0.0019416385
115	0xbca6faf5	-0.020383338
116	0x3d2dae12	0.042402335
117	0xbd0e95e6	-0.034810923
118	0x3d95ae34	0.07308617
119	0xbc436052	-0.01192482
120	0xbd9e3547	-0.077250056
121	0x3e03d526	0.12874278
122	0x3c0dd6fd	0.008657214
123	0xbe13210b	-0.14368074
124	0x3a25b986	0.00063218956
125	0xbda60c2c	-0.0810779
126	0x3d4f61a3	0.050630223
127	0xbd14ba44	-0.03631045
128	0x3d7c8094	0.06164606
129	0xbdf1c5f2	-0.11805333
130	0x3d30a840	0.043129206
131	0xbce79720	-0.028270304
132	0xbd8f14cc	-0.069863886
133	0x3d6e29e5	0.058145422
134	0x3d0d8d0d	0.034558345
135	0x3c1ea9b3	0.009684014
136	0x3cad1a2b	0.021130642
137	0x3da02baf	0.07820832
138	0x3d441593	0.047872137
139	0x3db7de74	0.089779764
140	0xbc93bba1	-0.018033804
141	0xbe22b139	-0.15887918
142	0x3e2240fe	0.15845105
143	0xbb8722f0	-0.004124038
144	0x3da092ac	0.078404754
145	0x3dd6dec5	0.10491709
146	0x3e349b08	0.17637265
147	0x3e17e6eb	0.14834182
148	0x3ce682e6	0.02813859
149	0xbe083ceb	-0.13304488
150	0xbe1f81fd	-0.1557693
151	0xbd900ce3	-0.07033708
152	0xbdbef1d9	-0.093234725
153	0x3cd2d754	0.025737442
154	0xbe7726f0	-0.24135947
155	0x3d47a7a4	0.04874386
156	0x3e140919	0.14456595
157	0xbdc71b69	-0.09722025
158	0x3d6d7717	0.0579749
159	0xbc507ceb	-0.012725095
160	0x3c4cedf6	0.012507906
161	0xbd5d47bf	-0.0540235
162	0x3cd20881	0.02563882
163	0x3e17ac45	0.1481181
164	0x3d8e4801	0.069473274
165	0xbd9bc2f2	-0.07605542
166	0x3e3c4a4b	0.18387716
167	0x3d426fd4	0.04746993
168	0xbddbd2ce	-0.10733567
169	0x3d94c70d	0.072645284
170	0xbdb5df9f	-0.08880543
171	0x3d7188ca	0.058968343
172	0x3d955e6c	0.072934
173	0xbbc542a8	-0.006019909
174	0x3cb73157	0.022362394
175	0xbd882f3f	-0.066496365
176	0xbc9887b8	-0.018619403
177	0xbd32cd85	-0.04365303
178	0xbd03d79a	-0.032188036
179	0xbd7b21a2	-0.06131137
180	0xbccad086	-0.024757635
181	0x3d63f1e3	0.055650603
182	0xbd87cbbf	-0.06630658
183	0x3b47a376	0.003046242
184	0xbcbbf33f	-0.022943137
185	0xbd0874ce	-0.03331452
186	0x3c76529c	0.015034344
187	0xbbed085e	-0.0072336635
188	0xbd424cd5	-0.047436554
189	0xbd2c42dd	-0.042055953
190	0xbc0aafa1	-0.008464725
191	0xbd13e19b	-0.036103826
192	0x3d3bfced	0.045895506
193	0xbce798f3	-0.028271174
194	0x3cb88d56	0.022528332
195	0xbc2db831	-0.010602997
196	0xbcd7f53b	-0.026362052
197	0x3d4da38c	0.0502048
198	0xba8e82fc	-0.0010872777
199	0x380a82c6	3.3023556e-05
200	0x3df9cbd4	0.1219708
201	0xbd0431c4	-0.032274023
202	0xbcaa4232	-0.020783518
203	0x3ddc561c	0.107586116
204	0xbd7af84d	-0.061271954
205	0xbce2af90	-0.027671605
206	0x3dcab3f2	0.09897603
207	0xbddfa208	-0.10919577
208	0x3d8b033b	0.067877255
209	0x3d5d42a4	0.05401863
210	0xbe2cff19	-0.16894187
211	0x3ca10f4c	0.019660614
212	0xbc7cad27	-0.015422142
213	0x3c48ca64	0.012255285
214	0x3c081cde	0.008307664
215	0xbcdf373c	-0.027248017
216	0x3d18e082	0.037323482
217	0x3ced401e	0.028961238
218	0x3e25ff9d	0.1621079
219	0x3d12aa99	0.035807226
220	0x3a2fbcb8	0.00067038415
221	0x3df75e20	0.120785
222	0x3bda6bde	0.006665691
223	0x3de64369	0.11243326
224	0xbbf10721	-0.007355586
225	0xbd4cd9bc	-0.050012335
226	0x3d2f90a9	0.042862568
227	0x3cb0e872	0.021595214
228	0xbd5b88da	-0.05359731
229	0xbc13af6a	-0.00901399
230	0xbd7883b0	-0.060672462
231	0x39b05cb4	0.00033638405
232	0xbd84d33e	-0.06485604
233	0x3c32e184	0.010918025
234	0xbd3047b6	-0.04303714
235	0xbb39e810	-0.002836708
236	0xbd7fb4c3	-0.062428247
237	0xbcbbde9e	-0.0229333
238	0xbc78765c	-0.015164938
239	0x3c345838	0.011007361
240	0xbd2db400	-0.04240799
241	0xbd1edfa4	-0.0387875
242	0x3d1eb4a9	0.03874651
243	0xbcde222e	-0.027115908
244	0x3e0ec9a9	0.13944115
245	0x3dbada4b	0.09123667
246	0xbc6072c3	-0.013699236
247	0x3deb188e	0.11479293
248	0x3d0b2f86	0.03398087
249	0xbd9cf856	-0.07664554
250	0xbc20c90c	-0.009813558
251	0xbbeeff36	-0.007293607
252	0xbd6a87f9	-0.05725858
253	0xbd35cb46	-0.04438331
254	0xbb945080	-0.004526198
255	0xbc63e9dc	-0.013910737

b3.bias f4 [64]
0	0x3cc6b325	0.024255345
1	0xbaa60f3d	-0.0012669336
2	0x3d1ea147	0.038728025
3	0x3d86633a	0.06561895
4	0xbc9d0684	-0.019168146
5	0x3d10e6df	0.035376426
6	0x3dadc8db	0.08485576
7	0x3d376aac	0.044779465
8	0xbc9e66a9	-0.019336062
9	0xbd5a7aa2	-0.053339608
10	0x3d1d6d3f	0.038434263
11	0x3cce11ab	0.02515491
12	0xbca50fde	-0.020149168
13	0xbc8c028d	-0.01709106
14	0x3d2800e3	0.04101647
15	0x3d3a0b1f	0.045420762
16	0xbcee05a8	-0.029055431
17	0x3d0b1cf0	0.033963144
18	0x3d866073	0.06561365
19	0xbcd6438a	-0.026155252
20	0x3cd1fa20	0.025631964
21	0xbcb0fa11	-0.021603616
22	0x3d0b8971	0.03406662
23	0x3ccab401	0.024744036
24	0xbcc5e6d4	-0.024157919
25	0xbd015a7e	-0.03158044
26	0xbd01d448	-0.031696588
27	0xbca9ff20	-0.020751536
28	0x3cfc97eb	0.030834159
29	0x3ce14549	0.027498858
30	0xbd8cfd25	-0.06884221
31	0xbc11a58e	-0.008889569
32	0x3d15a6d1	0.03653604
33	0x3d2de087	0.042450454
34	0xbcd1b6ee	-0.025599923
35	0xbd49be08	-0.049253494
36	0x3bce607c	0.006298123
37	0x3cd9ddf2	0.02659509
38	0xbc452c4d	-0.012034488
39	0xbce94879	-0.02847694
40	0x3d086265	0.03329696
41	0xbd2e3027	-0.04252639
42	0x3cb37f04	0.021911152
43	0xbd2c1e6a	-0.042021193
44	0xbbde9542	-0.0067926953
45	0x3a7b83a2	0.0009594505
46	0xbd5a5b58	-0.05330977
47	0x3d24c34b	0.04022531
48	0xbd2d1786	-0.04225876
49	0xbd54a944	-0.051919237
50	0xbd5b9c39	-0.053615782
51	0x3d9c9776	0.076460764
52	0xbd44d201	-0.048051838
53	0xbc7f4a7f	-0.015581726
54	0xbd3185b6	-0.043340407
55	0xbcda7189	-0.026665466
56	0xbc1f5669	-0.009725192
57	0xbd667b70	-0.056270063
58	0xbb82bcc7	-0.003989789
59	0xbd732e1f	-0.059370156
60	0x3a38b17b	0.00070454896
61	0xba5bea0e	-0.0008389064
62	0x3d3c291e	0.04593765
63	0x3d26e5b5	0.04074641
