nets/value.pth (torch_old, 643777 bytes, 25 tensors)

a1.weight f4 [16, 5, 3, 3]
00000000: 7b8c ddbd 4f43 27bd 4d8e 2abe 9d46 2fbe
00000010: a729 4cbd a989 483d e6af 6cbd a56b 323e
00000020: e418 b3bc 7909 3f3b b61b 823e cf53 833e
00000030: c1a3 cd3d 741d a03d 95c6 1fbe 7592 8cbd
00000040: 10f8 61bd 780c 883d 0b36 913d f262 b93d
00000050: 5efc 3fbd c5f2 0ebc deb7 febc 8d74 2bbe
00000060: 1e12 88be a1d8 f13d 5ec2 4f3e d17b a53d
00000070: fc2a f1bd fc78 a5bc 5452 38be b2bc 333d
00000080: 1996 ac3d deeb 863e bbcd edbd 99d7 8cbd
00000090: 1d67 8ebd fcc5 533d 8b7e 693d e500 0a3c
000000a0: ca46 9c3c b522 a93d e8d6 563d e77c 9dbd
000000b0: 8f96 f6bd 3005 a93d fd1b 6e3e 0a3e 5f3e
000000c0: 1819 cb3d 29c7 863e e501 463e ac46 d1bd
000000d0: 5804 ae3d 15fb b9bd 07e8 59be 8bf8 a5bd
000000e0: 6ab9 013e 55df b4be 1392 36be 7e5e 4abd
000000f0: 5c9e 47be efad efbc 1317 8a3d f26c c23c
00000100: 135f 8b3d 8fe7 6a3d e7ac 8e3d d749 3bbd
00000110: 47d6 d63d eae8 37be 420b 8dbd 903b e8bd
00000120: 1d64 80bc fa0c 3bbd 2266 6abe 5e1c 4cbd
00000130: 6892 b93c 580c b03d 2cc0 13be 2cf7 bc3b
00000140: 6a48 1ebe f293 eabd c73f 41bd d6ed 823d
00000150: d31e 1cbd 6582 34bd 0ec8 f7bc a21b f23d
00000160: 9d1a 313c fe2f a93d d63a 30be 6e56 293e
00000170: 4ad3 863e e260 0dbe 7aa7 433e 53f3 013e
00000180: 0b97 103e 749a 29be 62aa fbbc 32d7 0a3e
00000190: 849e 91bd bcb7 72bd cab5 093e 3659 80bd
000001a0: 47f5 503e 18d8 15bd 9e34 afbd 6f37 cebd
000001b0: 2727 3b3e 4460 073e a3f5 91bd fd37 1b3e
000001c0: e11a 0e3e 8d87 993d 51f4 8dbe c9b4 11be
000001d0: 16ad 58be 8f02 f9bc fe8a 01be 903a 00be
000001e0: 6f8f c73d 8221 8a3a 7e9f fcbc aecd 22bd
000001f0: d2fa 763d 8f60 333e 3182 7bbc dc0b 7abc
00000200: b9c6 8bbd cc17 5b3d 9f87 f6bd 88c2 be3d
00000210: d85f 113e 410d f6bd 1d49 cebd 77eb 1abe
00000220: f3d0 b23d 3b0e 82be 7e75 2d3e fede aebc
00000230: 3f19 7ebd 2181 863d 2bb6 0a3d 72ff c8bd
00000240: c342 0dbe c8f9 3d3e 9087 883b b03f 26be
00000250: ed68 d3bd 30bc 2b3e 0dc2 de3a 53ae bd3d
00000260: 4e4c 8fbe 3e3c 6e3e 5219 47bd efe6 d43d
00000270: 5717 0e3c d90b d6bc 8122 1c3e 188f 033e
00000280: 8cfb 4ebe b53b 913e b7b4 bc3c bc00 d83d
00000290: 5bc3 923d 6e90 d7bb 1812 453b f9b2 19bc
000002a0: 4740 55be af7f d7bb 957f 8fbe 88d5 57bd
000002b0: 7d3b e63d 6961 0f3e 4633 c2bd c51e 283e
000002c0: a6bd 69bc c811 7f3d d041 13be 1362 02be
000002d0: 0545 2d3e dd87 e4bd cdac 943e 15b3 55be
000002e0: a640 aebd 49c0 483e be61 cd3c dbf3 393d
000002f0: 262e 343c ded5 2b3e 23cc 5dbe 59f1 d23d
00000300: 7d48 25be b592 72bd be80 a33c e095 31be
00000310: 323c adbc 892e 733e 3387 05be e3c2 5abe
00000320: d29e f63d 15ba acbc fe68 2abe e38c bfbe
00000330: b081 48bd 02f9 7bbe ab86 043c 350c a2b9
00000340: a834 303e 8b35 e83d d557 48be adc1 503e
00000350: 760f 03be 0034 043d 7fae 91bc db37 683d
00000360: 505f 5abd f688 f4bd 43e9 e3bd b0a8 fa3d
00000370: ff27 b93d 6aee dd3d bb3b 56bd fc9d bb3d
00000380: b28c 90bd b87e 133e 28e8 d0bd 6b2c a13e
00000390: 11f2 193d b8de 313d 351f 4fbd 6c12 553e
000003a0: 009c 533d 6fb1 2fbe 4592 273d 54e0 043d
000003b0: cfc3 e0bc 3d59 273e a90b 31bd 6265 5b3e
000003c0: da4f 5ebd fce4 ab3c 4783 13bd 514e 95bc
000003d0: 179a a8bd 2122 1c3e 9e2f 4abe c254 a0bc
000003e0: 92ab 313d d61e 66bb 4821 d03d c99e 45be
000003f0: 2141 143e dd9d 2bbe a993 d13d c39d 20be
-0.1081781 -0.040835675 -0.16655846 -0.1711678 -0.04984441 0.048959408 -0.057784937 0.17423876
-0.021862455 0.0029149933 0.25411767 0.25649878 0.10040999 0.07818118 -0.15603097 -0.06863872
-0.05516821 0.06643003 0.07090386 0.090520754 -0.046871535 -0.008724873 -0.031093534 -0.1674368
-0.26576322 0.11808897 0.20288989 0.08080257 -0.11775777 -0.020199291 -0.18000156 0.043881126
0.08427066 0.26351827 -0.116115056 -0.068770595 -0.06953261 0.051702484 0.057005446 0.008423065
0.019076724 0.08258573 0.052451044 -0.07689839 -0.120404355 0.082529426 0.23252864 0.2180101
0.09916896 0.26323822 0.1933666 -0.10218558 0.08496922 -0.09081093 -0.21279918 -0.081040464
0.12668386 -0.3532664 -0.1782916 -0.04940652 -0.19494003 -0.029257743 0.06742682 0.02373359
0.06805243 0.057349738 0.06966572 -0.045724716 0.10490089 -0.17959943 -0.06886913 -0.11339486
-0.015672738 -0.045666672 -0.22890523 -0.04983174 0.02265282 0.085961044 -0.14428777 0.00576677
-0.15457311 -0.114539996 -0.047179963 0.0639302 -0.038115334 -0.044069666 -0.03024676 0.11821677
0.010809568 0.08261107 -0.17209944 0.16536877 0.26333076 -0.13806489 0.19106856 0.12690477
0.14120118 -0.16562825 -0.030720893 0.13558653 -0.071103126 -0.059257254 0.13448253 -0.06267016
0.20406066 -0.036583036 -0.08554958 -0.10069167 0.18276654 0.13220316 -0.071269296 0.15158077
0.13877441 0.074965574 -0.2772546 -0.1422912 -0.21159777 -0.030396728 -0.12650678 -0.1252234
0.09744155 0.001053855 -0.03083777 -0.039746933 0.060297795 0.17517303 -0.015350864 -0.015261617
-0.06825013 0.05348949 -0.120375864 0.09314448 0.14196718 -0.12014247 -0.10072539 -0.15128885
0.0873126 -0.25401482 0.16939351 -0.021346565 -0.062035795 0.06567598 0.033865135 -0.09814347
-0.13794999 0.18552315 0.004166551 -0.16235232 -0.103227474 0.16771007 0.0016995087 0.09261765
-0.27987903 0.23265168 -0.04860813 0.103956096 0.008672557 -0.026128696 0.15247537 0.12847555
-0.20213145 0.28365865 0.02303539 0.10547015 0.07166167 -0.0065784967 0.00300706 -0.009381049
-0.20825301 -0.0065765004 -0.28027025 -0.052693874 0.11241815 0.14002003 -0.09482436 0.16417988
-0.014266407 0.062272817 -0.14380574 -0.12732725 0.1692086 -0.11158726 0.29038087 -0.20869096
-0.085084245 0.19604601 0.025071021 0.045398574 0.010997331 0.16780803 -0.21659903 0.1029994
-0.16140933 -0.059221942 0.01995885 -0.17342329 -0.021146867 0.2374822 -0.13039856 -0.21363406
0.12042011 -0.021084825 -0.16641614 -0.37412176 -0.048951805 -0.24606708 0.008088748 -0.00030908143
0.17207587 0.113383375 -0.19564755 0.20386381 -0.12798867 0.032276154 -0.017783402 0.056693893
-0.053313553 -0.11940186 -0.111284755 0.12239206 0.09040832 0.108364895 -0.052303057 0.091609925
-0.070580855 0.14403808 -0.1020053 0.314792 0.03758437 0.04342529 -0.05056687 0.20807809
0.051662445 -0.1715753 0.040910978 0.0324405 -0.027437119 0.16342635 -0.04322401 0.21425393
-0.05427537 0.020983212 -0.036013868 -0.01822582 -0.08232515 0.15247394 -0.19744727 -0.019571666
0.043376513 -0.0035113594 0.10162598 -0.19298853 0.1447797 -0.16759439 0.10233242 -0.15685181

a1.bias f4 [16]
00000000: 06dd 713c f690 e83c 2bec aa3d 44ac 04bd
00000010: 9743 1bbd 7d82 db3c fc4b 7b3d d84c f23d
00000020: ce19 e9bd 4ce5 6b3d a34d 903b ab86 debd
00000030: 54bf febc c608 9e3d a286 f3bd 673c 9a3d
0.014762169 0.028389435 0.08345827 -0.032390848 -0.037906256 0.02679562 0.06135176 0.11831063
-0.11381875 0.05759172 0.0044037863 -0.108655296 -0.031097092 0.07716517 -0.118909135 0.07531052

a2.weight f4 [16, 16, 3, 3]
00000000: 08ef ee3c 87aa 04bd 5c26 8ebb 73e8 7ebd
00000010: 9769 15bd 6f63 afbd 01ac f7bd 8e99 52bd
00000020: 86eb dabc f7d4 24bd 192b a0bc 2d9c bd3d
00000030: 601b 283e a1cf 2e3e 575b f03d 00a5 103d
00000040: c88b da3d a356 333d 01f5 67bd 894f 983d
00000050: 2819 acbd 1851 443d e512 a33d bccc 503d
00000060: 3d2d 6fbd fad7 353d 3039 59bd cf3b 73bd
00000070: 5749 063d 9286 53bd 8b69 4e3c 68f5 533d
00000080: 52c9 75bb 6180 84bd 7fce 92bd 4b24 ab3d
00000090: bac9 f9bc 1497 09be 95bb 94bd 8b08 c3bc
000000a0: 28f3 ba3d a2e8 1b3d 696a 95bd 8b8a 023e
000000b0: 4137 ff3d 735c 3ebd 2c82 2c3d 8270 493d
000000c0: 8c5c a4bd 690e 30bc 2613 16bd d262 a23d
000000d0: 4027 7e3e af75 6f3d 658a 943b 2027 bc3d
000000e0: 3be7 623c d757 c73d fe1a b53d cc18 863d
000000f0: 11aa 7dbc 7a81 c03d e0e2 de3d 376d 4d3d
00000100: 3802 e2bd ceb6 a0bd 9769 103d 4108 a6bd
00000110: 43ea acbd 7986 3c3d 9194 2fbe 7ae8 a4bc
00000120: 2785 b03b 7c74 83bd c5bc 1bbe 47fe 87bb
00000130: 387d 693d c042 71be 1132 8dbd f0fe 9cbe
00000140: e240 1dbe 4247 90bc 4dd1 0c3d 933d 873c
00000150: 5694 e7bb 7411 353c 3190 72bd 538c 8c3d
00000160: b4fb dcbd e265 d63d dea8 9d3d e2b3 a63d
00000170: c541 053d bc03 89bd 6181 15be 8c31 80be
00000180: 3ab5 91bc 5e31 413d 97f7 3d3e 2748 7f3c
00000190: a222 983d a700 aebd d45e 0a3e 0da7 59bd
000001a0: 11d8 f83d c25e e3bc cbf7 5c3d 51f6 4abe
000001b0: a414 c6bb 2214 1f3d 6200 103b 4c10 82bc
000001c0: 9041 a33c 7dab 28bd ab60 88bd 8c82 923d
000001d0: 6464 ccbc 9d91 8cbc e4f7 62bd e1a7 f53b
000001e0: 2428 7fbd effc 5b3d 950d d4bd 1429 083c
000001f0: f251 563d 8084 f73d ad1f f63a 2dad f3bc
00000200: 4c48 1dbd 9b97 8f3d 0e79 383d d3a1 183e
00000210: ec71 3bba 4c97 37be 7bd0 d73c 4fcc 87bd
00000220: c5de 95bd 1878 893d 9980 5a3d 3220 183d
00000230: c31a 21be fd9b e63c ed86 9c3d e8f3 ddbd
00000240: a7af b83b d1e5 a23c 2f16 66bd f6ec 96bd
00000250: 6caf a7bb 5136 fe3c 9e22 13be 9294 56bc
00000260: 64ab c33c bf03 193e 8755 463e 83ed 05be
00000270: 941c f03d 1849 3fbd 6b54 4ebe 0b47 c23d
00000280: e7ab 323d e619 9bba 613f 51be 429c 58be
00000290: a1ff b3bc 2b85 20be a208 bbbc b902 22bc
000002a0: 8743 703d 1f9c 8d3d 7021 6d3c 4096 493d
000002b0: 5feb e23d 4fe2 713d 68cf d9bd f5a2 88bc
000002c0: 3bb0 5ebd e121 fabd 2bd6 833d 9b64 083e
000002d0: 8d29 e73c 038f 053d 34ed 90be fed7 26bc
000002e0: fda8 cebc d106 943d c6a2 b4bd aa8d 84bd
000002f0: 0cf0 303d 894b a0bd 883e d5bd c391 5dbd
00000300: 9da9 8bbc 5c26 203e e313 b2bd 4f66 aabc
00000310: d255 b33c 5419 82bd 55ef 86bd e98e 123d
00000320: b6f8 543d 0307 8d3a 4924 9fbd c14b 69bd
00000330: bc2e 34bb 0be4 053d 8f2c d03d ee90 163e
00000340: 6892 8c3c 691b 263e 5733 99bd 7c81 ff3d
00000350: 218e 813d c601 dd3d 022c 643a 6d4c b83d
00000360: b94c f9bc a94e f43d f8b1 273d 56a9 5dbe
00000370: 6662 dfbd e119 b63d 80ed 29be 7dd5 26be
00000380: 6954 4abc e418 2c3d bbda 373e 6f99 003e
00000390: 9e31 0d3e bbf1 d23b 885d 8f3c 9f3d 103e
000003a0: 9bd0 633d 5d7f 5bbe 1ba9 2a3d 4255 31be
000003b0: 85ee aebd 554d 53bd 83e8 b4bb 1304 dd3d
000003c0: c315 da3d 4e57 28be a77f 583d 8c66 cfbd
000003d0: f7a7 1e3d 5694 0f3d 5479 06bd 58e6 2abd
000003e0: 7d0c 9e3c 003d 92ba 6702 a43d 610b 533e
000003f0: 6f27 4abe 2d15 fb3c 69cd 6abd 0396 73bd
0.029166713 -0.03238919 -0.004338069 -0.0622334 -0.03647765 -0.08563887 -0.12093354 -0.051415972
-0.026723634 -0.04024216 -0.0195518 0.09258304 0.16416693 0.17071392 0.11736172 0.035313606
0.106711924 0.043783795 -0.05663014 0.07437045 -0.08403236 0.0479289 0.07962588 0.0509765
-0.058392752 0.044395424 -0.053033054 -0.05938321 0.032784786 -0.051642008 0.012598406 0.05174771
-0.003750403 -0.06469799 -0.07168292 0.08356532 -0.030491699 -0.13436538 -0.07262341 -0.023807785
0.091284096 0.038063653 -0.07295687 0.12748162 0.12461711 -0.046474885 0.04211633 0.04917956
-0.080254644 -0.010745623 -0.036639355 0.07929005 0.2481966 0.05846184 0.0045330995 0.0918715
0.013849075 0.09733551 0.08843039 0.065476984 -0.0154824415 0.09399696 0.10883117 0.050152984
-0.110355794 -0.07847367 0.03525695 -0.08107043 -0.084431194 0.04602668 -0.17146517 -0.020130385
0.0053869667 -0.06418702 -0.15208729 -0.0041501853 0.057004184 -0.2356062 -0.06894315 -0.30663252
-0.15356782 -0.017612103 0.034379292 0.016508853 -0.0070672436 0.011051524 -0.059219543 0.06862702
-0.10790196 0.10468651 0.076982245 0.08139779 0.032533426 -0.066901654 -0.14600135 -0.250378
-0.01778661 0.04716622 0.1855148 0.015581167 0.07428481 -0.08496218 0.13512737 -0.053137828
0.121505864 -0.027755145 0.05394725 -0.19820525 -0.006044941 0.03883756 0.0021972884 -0.015876912
0.019928724 -0.04117917 -0.06659063 0.07153806 -0.024950214 -0.017159278 -0.05541219 0.0074968194
-0.06229414 0.053708013 -0.10354153 0.008310575 0.052324243 0.12085819 0.0018777751 -0.029745663
-0.038399026 0.07011338 0.04503732 0.14905481 -0.00071504596 -0.17928809 0.026344528 -0.06630766
-0.073178805 0.06712359 0.053345297 0.03714008 -0.15732865 0.028150553 0.076429226 -0.10837537
0.0056361738 0.019884976 -0.0561735 -0.073694155 -0.0051173475 0.03103176 -0.14368674 -0.013096945
0.023885436 0.14942835 0.19368564 -0.13078885 0.11724201 -0.046700567 -0.2014939 0.094862066
0.04362097 -0.001183328 -0.20434333 -0.21153358 -0.02197248 -0.156758 -0.022831265 -0.009888344
0.05865815 0.06914543 0.014473304 0.049215555 0.1108005 0.059053715 -0.10635263 -0.016679266
-0.054367285 -0.12213493 0.06437334 0.13319628 0.028218055 0.03260709 -0.28305972 -0.0101833325
-0.025227064 0.072278626 -0.08820109 -0.06472333 0.043197677 -0.07826907 -0.104123175 -0.054094087
-0.017048651 0.15639633 -0.08695199 -0.020800738 0.021891508 -0.06352487 -0.06588618 0.03578082
0.051995 0.0010759536 -0.07770593 -0.05695701 -0.0027493676 0.03268818 0.10164749 0.14703724
0.017159656 0.16221394 -0.074804954 0.12475869 0.06325937 0.10791354 0.00087040674 0.08998952
-0.030432092 0.11929066 0.04094121 -0.21646628 -0.1090744 0.08891655 -0.16594505 -0.16292377
-0.0123492265 0.042015925 0.17954533 0.1255853 0.13788459 0.006437508 0.017500654 0.14086007
0.055618864 -0.21435304 0.041665178 -0.1731768 -0.08541588 -0.05158742 -0.0055208816 0.10791793
0.10648682 -0.16439554 0.052856114 -0.10126981 0.038734403 0.035053574 -0.03283055 -0.04172358
0.019293064 -0.0011157095 0.08008271 0.2060981 -0.19741605 0.030649746 -0.0573248 -0.059469234

a2.bias f4 [16]
00000000: 1965 23bd 7398 90bd dfb6 56bd 0f1a 70bd
00000010: 66ef 93bc ef68 a73d 3338 023d a0f4 923d
00000020: 98b0 d8bc e0d9 8cbd 1cb7 8d3d 1885 18bd
00000030: f193 3e3c da05 883c 341b 4b3c d932 89bd
-0.039891336 -0.070603274 -0.052420493 -0.0586186 -0.01805849 0.08174311 0.031791877 0.07175565
-0.026451394 -0.06877494 0.06919691 -0.037236303 0.011631952 0.016604353 0.012396622 -0.066991515

a3.weight f4 [32, 16, 3, 3]
00000000: f578 2dbe 9c0c 6c3b 8bad 673d 425b 93bd
00000010: b3d0 05be 7738 4d3d ba62 83bc fb5f 10bc
00000020: 9f3f 003d 31b6 8e3c e7c8 82bd 8c50 5b3e
00000030: 6072 4bbd 0cd0 873d f1b6 be3c 25c6 f5bc
00000040: 52fa 193e da55 013e eaa6 43bd 849d 6b3d
00000050: 5312 a93c a0c0 babd e975 e0bc 6ae7 463e
00000060: 1f27 91bd ca4f 353e 1ea9 4d3e e542 023d
00000070: 4e7e 093c 6914 103e 370e a0be d06b c5bd
00000080: a9e3 37bd c139 9a3c 80e7 dd3d 3662 10bd
00000090: dfb6 2dbe bc92 33bd a385 203e c9d5 ac3d
000000a0: 64d6 58bd 19d2 bebd d359 ae3d fd9a b83d
000000b0: f4e5 5bbd 2616 99bc d186 093d bd52 ddbd
000000c0: ebc9 493d 0bad b7bd 8ea4 743b f2b7 85be
000000d0: debc 8fbd 09ec 973c 50c0 843d a1db ee3c
000000e0: d361 a5bc 6d0f 5abd b7d2 4a3d 8b01 6b3d
000000f0: e0bb fb3c 9822 f53c 6df1 b1bd 310c 21bd
00000100: dc15 eabc ec57 5f3c 612b 72be ad18 b33d
00000110: 4ee8 983d b3a6 b8bd 0380 853c 9216 b43d
00000120: 2d68 9ebc a828 09bd 9196 e53d e706 aebd
00000130: bc88 713d 4e5e 883d 3786 583d 345b abbb
00000140: 280a 193e 2ed8 dabc b17f f1bc 3b01 e63c
00000150: 4ce1 1dbd a5eb 49bc 5eed 42bd f544 64bd
00000160: 60b3 16bc 18ee 5d3c 6595 683d 339b 883d
00000170: 01dc 8f3d b5d3 953d a934 cd3c 6984 333e
00000180: 565a 143d 9699 afbd 51df 933d b1c0 0bbe
00000190: c127 423d 169b 223d eb64 0c3e b059 20be
000001a0: 21e3 e0bd 5222 cbbc d276 ed3b f540 05be
000001b0: 9e26 49bd fcc7 33be 6b73 00be f6ab 0bbe
000001c0: eaa4 debb cb05 e1bc d661 ffbb e707 9e3c
000001d0: c255 febb 1663 99bd 7812 c93d 6fb8 ae3d
000001e0: 4f84 083d 3548 8cbd ceb1 a6bd 3169 0e3d
000001f0: a744 363d e3db 313d 69e7 f03d 66c6 b3bd
00000200: f941 fbbd d38d 133c 94d8 883d c034 673b
00000210: 8e87 afba 4aa3 7f3d 34ec 7dbd 9eb2 05bd
00000220: 1b6f 5bbd 53db 92bc 8fc9 6b3d f61e 9bbd
00000230: bf67 1f3d bb0f 83ba 6e0d d23c f364 ed3c
00000240: 490f 1f3d e151 043d 1976 1dbd 0aa0 02be
00000250: 49f0 c2bc f432 ed3c 4c12 9939 51a0 cbbd
00000260: 71d9 00be 8dc1 9b3d 0d80 233e 4ad6 333d
00000270: 817c 0fbe d00b 8dbe a65b ca3a fa77 893d
00000280: 426d b23d f258 4fbd 413b 283d d069 aeba
00000290: 9b79 01bd 96ae 853d 669f 12be 20ad 023d
000002a0: 98f7 45bb c1d5 86bd e1fb 143e 5376 693d
000002b0: 2fba a6bc c267 fa3c db84 d03d a575 503b
000002c0: b419 af3d 4457 2d3d 0f7d 283d 3957 7a3d
000002d0: 1f23 d63d 16ee 0d3d 13fe 10be e64e 6d3d
000002e0: 5793 0b3c e553 833d 350b 5cbc e622 b53c
000002f0: b2ff eebd 5803 c2bc 4d9b ccbb 7954 c8bd
00000300: 9914 343d b60f d2bc 8230 48be 1e5b afbc
00000310: c1b0 4cbd 85ee 05be 1984 c53d 7b35 d43b
00000320: a90a 8dbc 7611 6abb dbcc ffbd f63b a63d
00000330: 950c 463d a7e3 7cbd 635c 653b e73b 28bd
00000340: 5f90 063e a2eb b23c c430 123d de69 0f3d
00000350: 0647 a7bb eafc acbd a177 13bd d20d bb3b
00000360: f25d 553d fe3c e83d a44e 723d 70c1 fd3d
00000370: c4c8 86bd d016 0f3d 6168 97bd 9ed9 c73d
00000380: 834d febd 7231 3ebc badd 6f3d cd74 b6bc
00000390: 9566 42bd ac3c 07bc 982b 4d3c 9dbb adba
000003a0: 8d08 ffbc 5b07 8cbc 216c 23bc c630 a23d
000003b0: 4741 ad3d 8fbc dabd a5e1 a93d b300 8cbd
000003c0: 0ed4 e4bc 70ef 873d c223 c8bc 39ec 493d
000003d0: d729 1b3e 9e22 22bd 335e 95bd bb05 dabd
000003e0: 439a 643d 6514 ce3d 0447 203e d6a7 41bd
000003f0: 6ff8 063e ef3c a4bc fbde a23d 4f5b bbbc
-0.16940673 0.0036018258 0.056561988 -0.071951404 -0.13067894 0.050102677 -0.016038287 -0.008811946
0.031310674 0.01742086 -0.06385975 0.21417445 -0.049669623 0.06631479 0.023280593 -0.03000171
0.15036896 0.12630406 -0.047766604 0.057523265 0.02063862 -0.091187716 -0.027399974 0.19424215
-0.0708754 0.17706218 0.20084044 0.031802077 0.00839193 0.14070286 -0.31260845 -0.09639704
-0.044894848 0.018826367 0.10835171 -0.03524991 -0.16964291 -0.04384111 0.15675978 0.08439214
-0.052938834 -0.09317417 0.08513226 0.09013937 -0.053686097 -0.018687319 0.033575837 -0.10806797
0.04926483 -0.08968552 0.0037329528 -0.26116902 -0.070184454 0.018545168 0.06481993 0.029157462
-0.020188248 -0.053237367 0.04951736 0.05737452 0.030729234 0.029923722 -0.086886264 -0.039318267
-0.028574876 0.013631802 -0.2364936 0.08744941 0.074661836 -0.0901617 0.016296392 0.087933674
-0.019336784 -0.03348604 0.11210359 -0.0849741 0.05896829 0.06658612 0.052862372 -0.005229378
0.1494528 -0.02671441 -0.029479833 0.028076759 -0.038544938 -0.012324248 -0.047589652 -0.055729825
-0.00919804 0.0135455355 0.0567831 0.06670227 0.07024384 0.073157705 0.025049524 0.17530979
0.036218964 -0.08574216 0.072203286 -0.13647725 0.047401194 0.039698683 0.13710372 -0.15659213
-0.109808214 -0.024796639 0.0072468305 -0.1301306 -0.049109094 -0.17556757 -0.12544028 -0.13639817
-0.0067945616 -0.027468583 -0.0077936454 0.019290878 -0.007761688 -0.07489602 0.09817976 0.08531272
0.033329304 -0.0684971 -0.08139382 0.034768287 0.044499066 0.04342259 0.11762888 -0.08778076
-0.12268443 0.0090059815 0.06681934 0.0035279244 -0.0013391839 0.062411584 -0.06199284 -0.032641046
-0.053572755 -0.017926848 0.057565268 -0.07574265 0.0389173 -0.0009999195 0.02564117 0.0289788
0.038832936 0.03230465 -0.038442705 -0.12756363 -0.023796218 0.02895496 0.00029196066 -0.09942687
-0.12582947 0.07605276 0.15966816 0.043905534 -0.14012338 -0.27548075 0.001543869 0.06712337
0.087122455 -0.050621934 0.041072134 -0.0013306681 -0.031610113 0.0652744 -0.14318618 0.031903386
-0.0030207392 -0.06583739 0.14549209 0.05699761 -0.020352451 0.030567054 0.1018159 0.0031808403
0.08549824 0.04231955 0.04113489 0.06111834 0.104559176 0.034650885 -0.14159422 0.05793657
0.008519015 0.06412486 -0.013430406 0.022111367 -0.11669864 -0.023683235 -0.0062440992 -0.09781737
0.043964956 -0.025642257 -0.19549754 -0.021405753 -0.049973253 -0.13079269 0.09644336 0.006476102
-0.017216997 -0.0035715974 -0.12490245 0.081169054 0.048351843 -0.061740544 0.0034997694 -0.041072752
0.1314101 0.021840874 0.035691038 0.035013072 -0.005104902 -0.08446677 -0.03600276 0.0057084346
0.052091546 0.11339758 0.05915703 0.12390411 -0.06581262 0.034933865 -0.073929556 0.09758304
-0.12417128 -0.011608468 0.058561064 -0.022272492 -0.04746111 -0.008254211 0.012522601 -0.0013254766
-0.031132007 -0.017093351 -0.00997451 0.07919459 0.08459716 -0.10680496 0.082949914 -0.06836071
-0.027933147 0.06637466 -0.024431113 0.049297545 0.1515268 -0.039583795 -0.07293358 -0.10645624
0.055811178 0.10062484 0.1565209 -0.0472792 0.13180707 -0.020048587 0.079526864 -0.022870688

a3.bias f4 [32]
00000000: e0d6 25bd 55da 563d 5cde dbbd 273f 573d
00000010: 6031 de3c 6431 8ebd cdca 873d a788 b7bd
00000020: 124f 6c3d 3e2b 97bc 1f32 713c 8669 923b
00000030: bd2c d63b 5fd2 9abc 81c8 ca3c 55bc a6bd
00000040: 39d7 b1bd f22a 7cbd f8eb 983d c3e4 bcbd
00000050: b148 4d3d 0a87 e53c f709 303d d010 7b3d
00000060: fa74 16bd d40d c83d 60ab cdbd a7eb 493c
00000070: 9b4c 3ebd 2d30 d2bc 79b9 40bd 7439 7cbd
-0.040488124 0.05245431 -0.10735771 0.05255046 0.027123153 -0.06943014 0.06630478 -0.08961611
0.057692595 -0.018453237 0.014721422 0.004468146 0.006536095 -0.01889914 0.02475381 -0.0814139
-0.086836286 -0.061564393 0.074668825 -0.0922332 0.050118152 0.028018493 0.042978253 0.06129533
-0.03673265 0.097682625 -0.10042453 0.01232425 -0.046459775 -0.025657738 -0.04705188 -0.06157823

b1.weight f4 [32, 32, 3, 3]
00000000: 5600 adbd 9fc5 67bd 0694 523d 7063 f83d
00000010: d7a9 03bb d69b a63c e5df 35be 7831 0e3c
00000020: e544 2dbc b052 1a3c 10be b9bd fd7e 143d
00000030: 4482 e3bc 73d2 02bd a415 013e 7bc7 e6bc
00000040: 3a96 733d 5bbb 6ebd 6054 abbb 2b9c 903c
00000050: fc12 85bd 8b24 363d 07cf 65bc 1191 c9bb
00000060: fafe 95bc 8d79 5a3d 7362 5bbd cc92 56bd
00000070: 17a1 f1bd ab1c 2fbd 6b55 693e 5dbd 8bbd
00000080: 1cdf f23b fbf3 823d c218 823d 02fa 383d
00000090: 1257 32bd fde7 cfbd 1a1e a33d 9e3f 8dbd
000000a0: 28c8 7f3c 8986 023e 3e6e 003e dde6 113b
000000b0: c28d 37bc f924 9dbd 93d8 4f3e 9f26 62bd
000000c0: 213b daba 9f98 49bb 7f7f 06bb 6151 2a3e
000000d0: b876 533d 8cf1 f5bd bd54 0abd c1b0 49bd
000000e0: 7197 043c 6a35 0ebc c606 9f3d 4601 e03d
000000f0: d701 a73d 2b82 043e b826 133d ee26 45bd
00000100: d519 67bd 5d22 0a3e c6ef 21b9 3cc1 45bd
00000110: d7ed a0bd bb5c ec3d 33ae fbbd 35c6 8dbd
00000120: d318 823d 04e5 403e 258b 063d 5468 85be
00000130: 3a59 9abd b107 08bd 4760 833e 2131 48be
00000140: 3925 e1bd ca6f 1bbd 298a aa3c 8a1b 643c
00000150: 6c31 9cbb 7531 8f3d 585b 133d 9e32 f2bd
00000160: 18c1 bebd 59bf 663c 5ef5 06bd e0bb 7c3b
00000170: 19e6 26bc 02c6 2abd 355d 023d 1db6 88bc
00000180: 3813 2dbd 7d4f 99bd 5192 bfbd c489 acbc
00000190: 1a9a cf3c 8d09 973d ae45 62be e8d9 51be
000001a0: db13 ef3d 6756 013e 701d 2e3e 0865 b03d
000001b0: 164c b43c 15d1 a9bd 48c4 5dbd a3f0 0dbd
000001c0: 2a91 c03d 6eab 12bc 48b3 0fbd 81ba 55bc
000001d0: 5e45 f73b 8b00 67bc 7cc7 193d e9b2 5b3c
000001e0: b8b3 0ebe d1fa 27bb 1c57 df3d 0016 343d
000001f0: d37e 9dbe 753e 2bbe c116 673d 27e3 c43c
00000200: d85c 733c 2cdf 6a3d 8047 fd3d 2286 fc3d
00000210: 0e9d 7d3d 67ce 0b3e ee7c 4fbd 8c72 07bc
00000220: cd07 483d 28c9 82bb 705c 51bb 86c2 c03c
00000230: 7e7f 35bd 1895 853b ba0d bf3c 08b7 44bc
00000240: daef 5fbd 239e 9b3d 8c8a c23c 0f39 40bd
00000250: ed93 68bd a999 d63c 7658 fabc 0bb4 89bc
00000260: 3a0d 44bd 5a03 6ebe 79f4 53bd b911 b83d
00000270: 93b0 cdbc 70bb 72bd d9d3 933d 7850 9ebd
00000280: f54b 273e d37d 69bb 0f50 893d 7435 0d3e
00000290: cd44 d83c 1cce 52bd bf32 6ebd 9353 c5bd
000002a0: 70bc 68bd 8ea4 a4bc dc6a f2b9 2f2d 563e
000002b0: dd54 3ebc adbb 3abe 30ee 243b d693 963d
000002c0: d28d ec3c 11e9 803c cc94 d53d 2552 953d
000002d0: 2c88 1ebd 8b7a 393c f9c8 32bc a489 e8bc
000002e0: b897 0dbe 0bf8 2fbd 0df2 f4bd 02e9 1b3e
000002f0: 9032 493d 2675 63bc 99ba c63d 3cd5 1c3e
00000300: def3 6a3d 740d 13be 7658 da3d 7091 8abd
00000310: cdec cabc a53e 8bbd 2869 8ebd 7cb9 96bd
00000320: 24bb 013e 23aa fc3d 8c36 5b3d 9544 bdbc
00000330: 8bff 9abd 3770 0dbe d02c ccbd 93ea b53d
00000340: 386a 7abd 4ca7 49bc 51a7 333e 544c f83d
00000350: b11c e9bd 3047 17be 078a 6bbd a21a 71be
00000360: f772 9fbc e733 51be 1a91 b33c 12d8 e73d
00000370: 993b 2ebd 6b5a 3b3e 3ab6 ce3d cc42 e63c
00000380: 7c67 c4bd 28c1 b3bd 3e2d bfbd 9d5e eb3d
00000390: e40b 443e 4b6d 3b3e b2f0 a13d 5f81 4dbd
000003a0: 73e3 a7bd 6b66 76bd f472 4ebd 4f09 2b3c
000003b0: baef a0bc 51f8 fdbc 40c2 5fbb 59e7 123d
000003c0: 1e69 9ebc 3428 273c c446 5b3c e6ce 953d
000003d0: 3066 ad3d b5cc 823d ba68 1f3d 91bb c23b
000003e0: a5b6 2f3d aeec 1e3d b574 4a3c 6053 963d
000003f0: 5eed 403e 00d4 0ebd 786d 4d3d 7711 c1bd
-0.0844733 -0.05658495 0.051410697 0.12128341 -0.0020090246 0.02033798 -0.1776119 0.008678786
-0.010575508 0.009419128 -0.09069455 0.036253918 -0.027772076 -0.03193898 0.12605911 -0.028171292
0.05946944 -0.058284145 -0.005228564 0.017652592 -0.064977616 0.044468444 -0.01402641 -0.0061513265
-0.018310059 0.053338576 -0.053560685 -0.05238609 -0.117983036 -0.04275195 0.2278649 -0.068232276
0.0074118506 0.06394192 0.063523784 0.0451603 -0.043540068 -0.1015167 0.07964726 -0.068969
0.015611686 0.12746634 0.12542054 0.002226285 -0.011203231 -0.076730676 0.2029746 -0.055212613
-0.0016649702 -0.0030761135 -0.002052277 0.16632606 0.05162689 -0.12008962 -0.03377222 -0.04924083
0.008092747 -0.008679727 0.07764964 0.10937743 0.08154648 0.1294028 0.035925597 -0.04813283
-0.05642112 0.13489671 -0.00015443479 -0.048279986 -0.07857864 0.115411244 -0.12289085 -0.069225706
0.06352391 0.18837363 0.032847542 -0.2605616 -0.0753655 -0.03321046 0.2565939 -0.19549991
-0.10993428 -0.037948407 0.020817833 0.013922581 -0.0047666337 0.06991855 0.035975784 -0.11826061
-0.093141735 0.014083707 -0.032948844 0.003856413 -0.0101866955 -0.04169274 0.03182717 -0.0166884
-0.042254657 -0.07485864 -0.093540795 -0.021061786 0.025342036 0.073748685 -0.22096893 -0.20493281
0.11673709 0.12630616 0.17003417 0.0861302 0.022008937 -0.08291832 -0.054142267 -0.034653317
0.09402688 -0.008952005 -0.035083085 -0.013044954 0.007546111 -0.014099251 0.03754376 0.013409355
-0.13935745 -0.0025631676 0.10905287 0.043966293 -0.30760822 -0.16723044 0.056418184 0.024034096
0.014853679 0.05734174 0.12367153 0.12330271 0.061917357 0.13652955 -0.05065625 -0.008267056
0.048835564 -0.003991265 -0.0031945966 0.023530256 -0.04431104 0.0040766113 0.023321975 -0.012006529
-0.0546721 0.075985216 0.023747705 -0.046929415 -0.056781698 0.026196318 -0.03055976 -0.016809484
-0.047864176 -0.23243466 -0.05174682 0.08987755 -0.025108611 -0.059260786 0.07218141 -0.07730192
0.16337569 -0.0035627976 0.06704723 0.13789922 0.026399994 -0.051466092 -0.058153864 -0.09635081
-0.056820333 -0.020097997 -0.00046237453 0.20915674 -0.011616913 -0.18235655 0.0025166385 0.07352416
0.028876219 0.015736135 0.104287714 0.072910585 -0.038704082 0.01132072 -0.010912173 -0.028385945
-0.13827407 -0.04296116 -0.1196023 0.15225604 0.049120486 -0.013882911 0.097035594 0.15315717
0.057361476 -0.143606 0.10661404 -0.06766021 -0.024771119 -0.06799058 -0.06953651 -0.07359597
0.12669045 0.123371385 0.053518817 -0.023103992 -0.07568272 -0.13812338 -0.09969485 0.08882632
-0.061136454 -0.012307953 0.17544295 0.121239334 -0.113824256 -0.1477325 -0.05750468 -0.23545316
-0.019464 -0.20429955 0.021919776 0.11320509 -0.042537306 0.1829621 0.10093351 0.028108023
-0.095900506 -0.08777076 -0.09334801 0.114926554 0.19145161 0.1830341 0.07907237 -0.050172206
-0.08197679 -0.060156267 -0.050402597 0.010439231 -0.01964556 -0.031002196 -0.0034142882 0.03586516
-0.019337233 0.010202456 0.013383571 0.07314853 0.08466756 0.06386701 0.038918234 0.00594277
0.042898793 0.038799934 0.012356927 0.07340121 0.18840548 -0.034870148 0.050153226 -0.09427159

b1.bias f4 [32]
00000000: 5a04 52bd 19ea 30bc f3b7 b3bc cade 4f3d
00000010: 60c6 96bc 6bde 16bc 2c8a c33c 4540 17bd
00000020: 18bb 9b3c 94ff 823d 26f5 8eba e737 833c
00000030: 384a b7bc e219 30bd 0e45 743d 689a f53c
00000040: 3ec7 bebc 230c 1e3d af5a 1a3d 2518 90bc
00000050: 7cd6 04bd bec6 90bd 6d0e 84bd 26c5 8b3a
00000060: b2ba 2bbd 1dae 1fbd 9e36 7abd 9e15 f9ba
00000070: 7d45 18bd a757 c6bc 97eb a0bd 3bae 253d
-0.05127368 -0.010798001 -0.0219383 0.050749578 -0.01840514 -0.009208302 0.023869596 -0.036926527
0.019010112 0.06396404 -0.00109068 0.016017867 -0.022374257 -0.042993434 0.05963617 0.029980853
-0.023288365 0.038585793 0.03768414 -0.017589638 -0.03243111 -0.07069157 -0.06448064 0.0010663613
-0.041926093 -0.038984407 -0.061087243 -0.0019003635 -0.037175644 -0.024211718 -0.07857435 0.040449362

b2.weight f4 [32, 32, 3, 3]
00000000: a40c a9bc 69c9 333d af04 033d e64e 56bd
00000010: b12b 33bd 6036 273c 638e 693d 0102 ccbc
00000020: d4b7 77bc 5740 12bd 2472 7e3c 8126 543d
00000030: 6572 e8bc 9a33 96bc c1c7 febc 6b36 cc3c
00000040: c94f 533d 585f a1bb 2235 f1bc f9b7 61bd
00000050: b616 8a3c 8542 1dbd 8e18 70bd 7f37 01bc
00000060: bb36 5bbb b8d4 0ebd be8d 65bd fe07 c73c
00000070: 72d5 27bd eaf1 1dbd 565e 933c bae5 93bc
00000080: db64 193d e820 4fbd 3f47 debc 5ce7 d0bc
00000090: 3350 423d d2e1 14bd 1756 443d 974a ba3c
000000a0: b540 5dbd 65b4 1fbd 55a4 04bb 8cfa 393c
000000b0: 987d 513c 6406 2cbd fd7d 053d aa9d a5bc
000000c0: 0871 09bd dba2 3a3c 678a 623c 985b c2bb
000000d0: 1c57 f7bc 8732 adba 3399 133d 5fa9 22bd
000000e0: 0ce2 0f3c 844f 5bbd a5a6 9c3c 9c65 c2bc
000000f0: c4fa 13bd 6ec7 023d da50 363d bcbf dbbc
00000100: 2cd1 1cbd 7c2b 52bc dcda 96bc 78d3 a13b
00000110: 0db8 0b3d b58f 503d 3500 623d c060 a0bb
00000120: 501e 2cbd 2eb3 1abd 8129 673d 9ced 313d
00000130: 6df7 cbbc a899 153d 0845 d83a 2822 11bd
00000140: 48c0 e63c 3c9c 69bc eab1 c5bc 78e1 d4bc
00000150: e401 243c aff3 96bc c1d2 70bd 6a11 13bd
00000160: d982 da3c 2708 d6bb 4672 b83c 15cb 36bd
00000170: 248f e3bc bb55 4f3d 473c 9abd 43e5 ac3c
00000180: 00f0 0abb b833 50bd 53f3 c03a 785b 1cbd
00000190: 9800 e0bc e0db da3a d854 863a 461a 8cbb
000001a0: 07dd 80bc 80ee ccba b165 713c 1f74 f6bb
000001b0: eaa1 e83c 26f6 94bc 9fee 6d3d 60a5 e0bc
000001c0: 4fe1 4e3d 4e8f 98bc a967 5c3d 34de 073c
000001d0: ac1d a7bc 84ac 53bd 915c 44bd 2686 61bd
000001e0: 327f db3c 9566 0fbd 00d9 6cbb 14d3 753c
000001f0: c9c6 313d eedf 893c 2465 d5bc 3c76 5cbd
00000200: 0443 06bd 61be 49bd 7f18 08bd b1de b13c
00000210: e9a4 f0bc b810 25bb c177 73bd 23f6 493d
00000220: 2176 6a3d c2ad f73c e2ac 54bc 258d 71bc
00000230: 044e 6abb a511 a73c 8064 d6bc 8f88 cf3c
00000240: bca7 30bd 784a ffbb a8e5 abbb afef ecbc
00000250: 3fff b53c 4344 b5bb ee6d 3e3d b20b 68bd
00000260: e955 ee3c eab5 c93c 5cb2 cbbc 2eeb 94bc
00000270: 311c 2e3d ca9c 5ebd 3c3a 4dbd d0a3 34bd
00000280: 1d3c fabb 21d9 103d c73e 3cbd 7e76 2bbd
00000290: c2b4 4bbd e0e1 3fbb e895 e8bc 6d5b 383d
000002a0: 2430 70bd ee87 5f3c cba0 51bd bee3 d6bc
000002b0: 0e32 a83c 9841 72bc a1fd 0d3d 2234 4abd
000002c0: f756 45bc a67d b8bb fed0 313d 0a9a 84bd
000002d0: dc9a 39bd 94d3 2b3c e8b5 51bd 9b7d e4bc
000002e0: 25be 403d 4fb2 163d 3c72 db3c 1ee1 68bd
000002f0: 8c26 00bd 8066 263b 5cfd 5fbd 8ead ca3c
00000300: 3677 86bc 85cb 0a3d c765 38bd 004a 26b9
00000310: 6062 5e3b 18a3 e73b 5e2a ec3c 6d76 20bd
00000320: ee49 bc3c e08a 56bb 3fdd 3abd 5d31 02bd
00000330: a25c f23c 43ce 57bd 1062 6fbc ac0b 88bc
00000340: 8aad 41bd aa05 e8bc 75b7 373d 2b80 9c3c
00000350: a134 d9bc 540f 1dbd 6899 143c ab52 98bd
00000360: 2703 4a3d e5ea 6abd caa6 2fbd 6225 853c
00000370: d065 793b f64d 11bd f711 0f3d 5624 c63c
00000380: 05b9 3c3d d96d 1ebd 934a 45bd 3872 18bd
00000390: 09de 433d 4e68 d83c 52fa 50bd 9d50 fcbc
000003a0: 22a1 573d 8f08 8abc ac12 42bc 485d d7bb
000003b0: a025 2c3b 9ed3 5cbd b886 1fbd 7934 8bbd
000003c0: e494 a5bc 6b72 36bd eff9 b7bc 74fb 7f3c
000003d0: 4711 573d eacd 1cbd 6f6b 1abd fe7f 5b3c
000003e0: 4ab0 1dbd d087 18bd 21da e33c b423 6bbd
000003f0: cae1 4abd 63ba fdbc 5e1d febc 2bbf 68bb
-0.02063591 0.04389325 0.03198689 -0.052321337 -0.04374284 0.010205835 0.057020556 -0.0249033
-0.015119512 -0.03570589 0.015530143 0.051794533 -0.02837486 -0.018335152 -0.03110111 0.024928292
0.05158976 -0.004924696 -0.029444281 -0.05510709 0.016856533 -0.038393516 -0.058617167 -0.007886766
-0.003344937 -0.034870833 -0.05604338 0.024295803 -0.04097504 -0.038560785 0.017989319 -0.018053878
0.0374497 -0.05056849 -0.027133582 -0.025500946 0.047439765 -0.03634817 0.047933664 0.022740645
-0.054016788 -0.038990397 -0.002023955 0.011351239 0.012786292 -0.041998282 0.032590855 -0.020216782
-0.03355506 0.011391367 0.013826943 -0.005931329 -0.030192904 -0.0013213911 0.036034774 -0.039712306
0.008781921 -0.05354263 0.019122431 -0.023730092 -0.03612782 0.031928472 0.0445107 -0.026824825
-0.03828542 -0.01282775 -0.018414907 0.004938539 0.03411107 0.0509183 0.05517598 -0.004894346
-0.042021096 -0.037768535 0.056436066 0.043439493 -0.024898255 0.03652349 0.0016500065 -0.035432965
0.028167859 -0.014258441 -0.024132688 -0.025986418 0.010010216 -0.018426744 -0.05879474 -0.03590528
0.026673721 -0.0065317336 0.022515427 -0.044627268 -0.027778216 0.05061887 -0.07531028 0.021105414
-0.002120018 -0.050830573 0.0014720954 -0.03817317 -0.027344033 0.0016697608 0.0010248674 -0.004275593
-0.015730394 -0.0015635043 0.014733718 -0.007521167 0.02839752 -0.018183779 0.058088895 -0.027422607
0.05050784 -0.01862302 0.053809796 0.008292723 -0.02039989 -0.051678196 -0.04793984 -0.055059575
0.02679405 -0.03500994 -0.0036140084 0.015003938 0.043402467 0.01683041 -0.026049204 -0.053823695
-0.032778755 -0.049253825 -0.033226486 0.021712633 -0.02937551 -0.0025186967 -0.059440378 0.049307
0.057241563 0.030234221 -0.012980672 -0.014743124 -0.0035752067 0.020394156 -0.026170969 0.02533367
-0.043128714 -0.00779086 -0.005245883 -0.028922884 0.022216437 -0.005531819 0.046491556 -0.05665178
0.0290937 0.024622876 -0.024865322 -0.018178549 0.042507354 -0.054348744 -0.050104365 -0.044101536
-0.0076365606 0.03536332 -0.045958307 -0.04186105 -0.04973293 -0.002927892 -0.028391793 0.045009065
-0.05863966 0.013643248 -0.051178735 -0.026231643 0.02053168 -0.014786147 0.034665707 -0.049366124
-0.01204466 -0.005630213 0.0434122 -0.06474693 -0.0453137 0.010487456 -0.05119887 -0.027891925
0.047056336 0.036791142 0.02678787 -0.056855313 -0.03128676 0.0025390685 -0.05468498 0.02474096
-0.016414266 0.033885498 -0.045018937 -0.00015858561 0.0033933148 0.007069003 0.028828796 -0.03917544
0.022984471 -0.0032736585 -0.045621153 -0.031785358 0.029585186 -0.05268694 -0.014610782 -0.016607128
-0.04728464 -0.028323013 0.044852693 0.019104084 -0.026514353 -0.038344696 0.009069778 -0.07437643
0.049319413 -0.05735292 -0.04288367 0.016253177 0.003805507 -0.03547474 0.034929242 0.024187248
0.046074886 -0.038678978 -0.048166823 -0.037218302 0.04781917 0.026416924 -0.051019974 -0.030800158
0.052643903 -0.016849784 -0.011845272 -0.0065723993 0.0026267543 -0.05391275 -0.038946837 -0.06797118
-0.020212598 -0.04454271 -0.022458045 0.015623916 0.05250671 -0.038282312 -0.037700113 0.013397215
-0.0384982 -0.037238896 0.027813973 -0.057407096 -0.049531735 -0.030972665 -0.031019863 -0.0035514336

b2.bias f4 [32]
00000000: bf7a 79bd c781 e13b 3269 1f3c 1eeb 423d
00000010: 6141 67bc 577d 92bd 9c3a d03c 8786 b73c
00000020: 26df 713c 8f9b 9bbd c0bc 68bc 4979 c93c
00000030: c308 063d 1e16 63bd 059a 1bbd c18f c4bc
00000040: 9ae2 433c 3496 ed3c 3f9a 8ebd 4046 79bd
00000050: 9322 44bd b108 513d 9418 0a3d e238 40bd
00000060: 1c78 49bd 4660 35bc e822 003d 73fc f5bb
00000070: d711 ed3c 8f62 debc a624 043c 08ea cb3c
-0.060908075 0.0068819257 0.00972967 0.047587506 -0.014114709 -0.07152813 0.025418572 0.022403015
0.014762675 -0.0759803 -0.014205158 0.024593966 0.0327232 -0.055441014 -0.03798868 -0.023994328
0.0119558815 0.029002286 -0.06963014 -0.06085801 -0.047884535 0.05103368 0.033714846 -0.046929248
-0.04918681 -0.011070317 0.03128329 -0.007506901 0.02893917 -0.027146606 0.008065378 0.024891868

b3.weight f4 [64, 32, 3, 3]
00000000: 5be2 483d 6202 eb3c 37bb 023d 980e e33b
00000010: e8d9 47bd 6f1d 6a3d 1439 0b3c fa75 c8bc
00000020: 73b7 4e3d 0b3a 87bd 3e56 83bd 995f 10bd
00000030: f7ad c6bc 2b40 2a3d 386a a2bb 5ae5 ae3c
00000040: 44e8 7d3c 00cc 743a cead 57bd fdab 6ebd
00000050: ef94 323d 4ee4 89bc b19f 443d 2f72 c03b
00000060: 72c1 4dbd 8b43 7ebd ddcc ee3c e32f 3c3c
00000070: b73c 443d 442a e4bb df6d 383c f907 6fbd
00000080: b675 e3bc b01b 4e3d 933d 383d f72d 023d
00000090: a389 573d 5a31 1abd c14b 4e3d bb05 52bd
000000a0: 2765 093d d4c0 f0bc b510 edbc f648 473d
000000b0: 8e7c 383d c0fa 84ba c0b8 db3a 12b0 d03c
000000c0: 7f60 2dbd 12de e73c 616d 253d 0a9c d93c
000000d0: 8115 423d 1a5f f1bc f7e4 76bc 5921 71bd
000000e0: 8c00 7ebd a515 98bc a93c 113d 3c2d fcbc
000000f0: 5861 e7bc 17ea 85bd 564c 83bc f01d 16bc
00000100: 1373 4dbd 14be c13c 7f70 0c3d 6eaf 17bd
00000110: 5c4e ffbc 5e17 bb3c 7bef 2abd 0029 3139
00000120: 555d 40b9 9485 58bd 094f 24bd aaf6 0d3d
00000130: bc6e 783c 788c be3b a79c 0ebd 958d 2c3d
00000140: 8a49 32bd f4c5 493c f317 3abd e8f5 bfbc
00000150: d239 943c 3bb4 84bc 1ebf 39bd 860e 503d
00000160: 3b76 de3c 6f19 eabc cb10 febc 3917 1f3c
00000170: f8bf aa3b d8ed 49bd b2e8 973c 9dc3 55bd
00000180: 072e 3f3d 397b 4b3d 42b5 933c da04 11bd
00000190: f68d 76bd f09a aabc d5a1 72bd 9bcc 7a3c
000001a0: 04ee 463d 40c2 673c 68cc 7ebb e4f6 173d
000001b0: d1b8 cebc bc6a 69bc 9b06 a8bb 240d 3bbd
000001c0: 5820 9a3c 4659 d5bc 8029 76bd 4e53 0dbc
000001d0: ada9 dbbc a05f 25bd 8766 ee3c 7af8 0fbd
000001e0: 6f99 65bd d07b 753b 9ec3 933c a78e ffbc
000001f0: 322c d2bc 80fd 3ebb 3642 cb3c 179d 0c3d
00000200: 386e c53b 77ae 1d3d 3ff9 2d3d aeb1 e93c
00000210: dcab 5a3c 6c34 293c 2a74 c33c 1e35 9abc
00000220: 5a69 49bd a2a6 883c cad4 f53c d25c 413d
00000230: a6a4 0cbd 0c46 31bc 8e0c 17bd 8ba4 e3bc
00000240: 8bec fe3c 75ba 59bd f9ec 843c 9d1c 52bd
00000250: 4185 5b3a f302 50bd 7bfa 25bd 0af9 8b3c
00000260: fb60 253d 7c1d 00bd cbe7 3e3d 46ed f83c
00000270: 8ab9 41bd 8c70 45bd 87c5 28bd 3dca 39bd
00000280: ae2c e1bc b26f 7abd 24df 78bc 1029 213b
00000290: ae08 d9bc 1e77 913c c493 48bc 9c68 7b3c
000002a0: fcd4 173c 466d 39bd 9825 86bb 90d6 87bb
000002b0: eaa6 34bd 983e aabb 068a 10bd 77d8 303d
000002c0: d3d1 65bd d502 113d d90f 233d abf3 673d
000002d0: e619 d0bc 47c1 0f3d 5a9a c43c 8e3a 26bd
000002e0: 4dc6 28bd f0a1 7ebc 42a9 d63c 5ae7 80bc
000002f0: e96a 56bd 29c5 62bd e853 d53b 5d92 323d
00000300: 9bc9 8f3b 5dbf 353d b4d0 0a3d 406e 363d
00000310: 51db 20bd 831f c9bb b3c3 c33c 83cf 5ebb
00000320: 0db7 433c da19 453d fdfa 29b9 dc9d 71bc
00000330: 9f67 383d 5aa3 e0bc c705 ad3b 80c6 39bb
00000340: 3c64 213c 2047 b5bb 548f 62bd 5ea3 c63c
00000350: 6020 203b b182 133d 2afa cebc 9a26 b53c
00000360: f82b f83b 8745 1c3d 4483 0bbd f15d 0e3d
00000370: 4265 cdbc 4023 d5bc 87d3 333d 6478 37bd
00000380: 9736 133d 01a5 543d 56b8 e23c 27e0 333d
00000390: 3415 b1bc 0fdc fabc fa40 fb3c cec3 82bc
000003a0: 6d12 143d 11f2 0b3d 40b6 e1bc 0c76 8abd
000003b0: 66f3 59bd 7c98 0a3d bae8 3ebd ccc4 8a3c
000003c0: fd01 17bd 3cc3 54bd c388 59bd 0553 7dbd
000003d0: e61f 2fbd 068e 82bc f357 f93b d6cc 2a3c
000003e0: 9c65 f9bc cc0b 93bc 7c3c 193d f465 2a3d
000003f0: d2f5 3f3d 1471 71bd 1eb3 37bd b21c 47bd
0.049043994 0.02868766 0.031916823 0.00692923 -0.048791796 0.057156976 0.008497495 -0.024470318
0.05046792 -0.06602868 -0.06412934 -0.03524742 -0.024252875 0.0415651 -0.00495651 0.021349598
0.015497271 0.00093382597 -0.052655987 -0.05826949 0.043599065 -0.016832497 0.048003856 0.0058729867
-0.050233312 -0.062076133 0.02915042 0.011486026 0.047909465 -0.0069630463 0.011256664 -0.058357213
-0.02776609 0.050319374 0.044980597 0.031782117 0.052621495 -0.03764472 0.050365213 -0.051274996
0.033543732 -0.029388823 -0.02893863 0.048653565 0.04504066 -0.001014553 0.0016763434 0.025474582
-0.042328354 0.028304134 0.040387515 0.026563663 0.04738379 -0.029464293 -0.015069238 -0.058869693
-0.06201224 -0.018565008 0.03545824 -0.030783288 -0.02824466 -0.0653879 -0.01602761 -0.009162411
-0.05015857 0.023650207 0.034286972 -0.037032537 -0.031165294 0.02283829 -0.041732293 0.00016895309
-0.00018345316 -0.052861765 -0.040114436 0.034659065 0.01516312 0.005815085 -0.034817364 0.04212721
-0.043527164 0.012315262 -0.045432996 -0.023432687 0.018093977 -0.016199222 -0.04534828 0.0507951
0.027155986 -0.02857658 -0.031013867 0.009710127 0.0052108727 -0.04929909 0.018543575 -0.052188504
0.046674754 0.04967806 0.018030766 -0.035405017 -0.06019398 -0.020825833 -0.059236366 0.015307571
0.048566833 0.014145434 -0.003887916 0.037100688 -0.025234612 -0.014246639 -0.0051277406 -0.04566683
0.01881425 -0.026043545 -0.06009817 -0.008625818 -0.026814306 -0.0403744 0.029101623 -0.035149075
-0.05605453 0.0037457831 0.018037613 -0.031195952 -0.02565584 -0.0029142797 0.024811845 0.0343295
0.006025102 0.03849646 0.042474028 0.028527107 0.0133466385 0.01032744 0.023859102 -0.018824156
-0.049172737 0.01668102 0.030008692 0.04720766 -0.03433671 -0.010819923 -0.036877207 -0.027788421
0.031118652 -0.053156335 0.016226279 -0.05129682 0.00083740434 -0.050784063 -0.04052208 0.017086525
0.04037569 -0.03127812 0.046607774 0.030386578 -0.047296084 -0.048203036 -0.041204 -0.045358885
-0.027487125 -0.061141677 -0.01518992 0.0024591126 -0.026493397 0.017756995 -0.012242261 0.015344765
0.009267088 -0.045270227 -0.004093837 -0.004145451 -0.044104494 -0.00519545 -0.03528788 0.043175187
-0.056108307 0.03540309 0.039810035 0.056628864 -0.025402974 0.035096433 0.023999382 -0.040583186
-0.04120474 -0.015541539 0.026203755 -0.015735317 -0.05234805 -0.055363808 0.0065102465 0.043596614
0.004388047 0.04437195 0.03389044 0.044538736 -0.039271656 -0.0061377897 0.023897028 -0.0033998198
0.011945498 0.048120357 -0.00016210596 -0.014747109 0.045020696 -0.027421642 0.0052802297 -0.0028347075
0.009850558 -0.0055321604 -0.05531247 0.024247821 0.002443336 0.03601331 -0.025265772 0.022113133
0.007573601 0.038152244 -0.03406073 0.03475756 -0.025072698 -0.026017785 0.0439029 -0.044792548
0.035940733 0.051915172 0.027675789 0.04391494 -0.021616556 -0.03062251 0.030670632 -0.015962508
0.036150385 0.0341664 -0.027552724 -0.06760797 -0.05321064 0.033836827 -0.046608664 0.016939543
-0.03686713 -0.051944003 -0.05310894 -0.06184675 -0.04275503 -0.015936863 0.0076093613 0.010424813
-0.030443959 -0.017949961 0.037411198 0.041601136 0.046865292 -0.05894573 -0.044848554 -0.04861135

b3.bias f4 [64]
00000000: 13ef dcbc 5acb 563d 2917 d0bc 0ffd 11bd
00000010: b90d bcbb 6c4f c03c fc52 7dbd 76ed 76bd
00000020: 8a53 9abc bb99 1c3b d7cd 86bc 2359 6dbd
00000030: 7d38 88bd a32c 193d a25b 58bd 2828 48bd
00000040: de4a 27bd ed53 2bbc 5303 c63c 704b 3bbd
00000050: 7f73 55bd ddaa e1bc f63f 71bd 0285 403c
00000060: e663 80bd 68e0 cc3d ceb9 80bd d13d a0bc
00000070: 79c3 afbc a904 40bd 735d 29bd 6a39 92bb
00000080: e751 4abc d02c e7bc 4b25 3fbd 3760 193c
00000090: 59b1 28bd dccd aa3b 8c0e 5bbd fdd1 23bb
000000a0: 07f4 133d 3115 febc 3eea 9d3c e45c a53c
000000b0: af1c 6dbd 1ccc 433d 0d35 1abd 67c2 81b8
000000c0: d229 66bd 5e0c 5d3d ace6 183d b79d 18bd
000000d0: c2ef 70bc ea8d 68bc 2e7f 30bd 631d 223c
000000e0: 9dd2 683c b6a1 56bd 066d ebbc d90c f23b
000000f0: 9c05 e63b 79e8 b9bc fa38 00bd eee9 3bbd
-0.026969468 0.052440025 -0.025401669 -0.035641726 -0.0057389406 0.023475371 -0.06184672 -0.060285054
-0.018838663 0.0023895341 -0.016455574 -0.057946336 -0.06651399 0.037396085 -0.052821763 -0.04886642
-0.040842883 -0.010457021 0.024171507 -0.04572624 -0.0521121 -0.027547294 -0.05889889 0.0117504615
-0.06269054 0.100037396 -0.062854394 -0.019560726 -0.021455513 -0.046879444 -0.041348886 -0.0044624107
-0.012348629 -0.02821961 -0.046666425 0.009361318 -0.041184757 0.0052125286 -0.05348067 -0.002499699
0.036121394 -0.031015964 0.019276734 0.020185895 -0.057888683 0.047802076 -0.03764825 -6.1874096e-05
-0.056192227 0.053966872 0.03732936 -0.037259784 -0.0147056 -0.014193991 -0.043090038 0.009894702
0.01421037 -0.052400313 -0.02873851 0.0073867855 0.0070197117 -0.02269386 -0.031304337 -0.04587739

c1.weight f4 [64, 64, 2, 2]
00000000: 4673 14bd 1957 b4bc 30ca 50bc 406a 743c
00000010: 6854 63bd 7d4d 1b3d 7f34 69bd fc7e 39bd
00000020: 2030 f03b d4e9 7abe b22f 4abb 7c6f 053d
00000030: 00ff b0bb f425 c7bc f0d3 843b e83b 6e3c
00000040: 86c1 14bd 7877 2c3d 0a1b 2fbd 20f8 53bc
00000050: 6816 3cbd 8780 ed3b 2146 1a3c 7148 953a
00000060: ae5d 3abd ccc1 be3c 369e 48bd 547f a93c
00000070: 3485 55bd b514 0a3d d4e9 2abd 08a0 c8bc
00000080: b6c1 0d3d 3daf 993c 7a26 6abd 60cb 4a3c
00000090: ee4b 163d 4918 6cbc 606e 9d3b 1a4d 7cbd
000000a0: 38e8 5fbd 7058 fdbb e0b1 72bc 0cc8 a0bc
000000b0: 0c88 8a3c 3076 d13c aa88 353d 0416 a4bc
000000c0: 763e 193d ecec 55bd 1a97 563d 6e20 1f3d
000000d0: 1af0 013d 7b8c a43d 11e7 ff3c 295b a23c
000000e0: 40c1 cabc 0821 65bc 645a 3a3d d0bc 3d3d
000000f0: c8ae 593d 6f6a 2f3c f89c b1bc 6612 5e3d
00000100: a064 c43c 04d0 813d cf63 a33c 2240 60bd
00000110: 3864 163c 8259 55bc dc74 db3c e4ed 8ebd
00000120: e863 42bd 7993 94bb e40a 8abd ff79 96bd
00000130: 8eea 3b3d d8ff b23c 9697 673d 262c 35bd
00000140: 3cf1 553d f431 823d de7f 78bd c8e3 b73c
00000150: 1e03 0bbd 348b 35bd c4ae c63c da41 0f3d
00000160: 8c54 b0bc d40e a7bc 50da 363d 582e d03c
00000170: 1631 3c3d da30 aa3d 4698 34bb 12ef 04bd
00000180: 52e2 23bd 90a9 03bc 66e6 743d 6aab 0cbd
00000190: 0485 b0bc 270a 54bc dd23 37bd b1cc 6ebd
000001a0: 7a40 7b3d cbf7 91bc 7832 62bc 2098 27bc
000001b0: c004 fc3c 2613 52bc a3ee 3bbd e152 0fbd
000001c0: 00ad 063d ec43 fc3c 44a9 fd3c f678 30bd
000001d0: 0a9d 4dbd feeb 2bbe fddc bfbb 464f 0ebd
000001e0: bc92 fc3c dd3e 993d d0dd aabc 788d 2bbd
000001f0: a443 c13c 749f 5ebd 5c20 46bd acd3 8cbc
00000200: c805 053d d596 64bd 08bb 333c b858 4c3c
00000210: d8b9 afbc 1cf8 3dbd 9298 2d3d aeaa 44bd
00000220: 2445 debc 1378 3c3d 204e 96bb 0054 5bb9
00000230: 00ed 88bb 39c8 cb3d 6f37 40bd 15f9 463d
00000240: 009d 133c ae3a 1b3b 90d5 203c 10bf 42bd
00000250: 30fd 1cbc bf34 62bc 64f8 ce3c a0ef c03b
00000260: 621c 0dbd c380 953d a84d 39bd d8bc 6dbc
00000270: 68cc 483d f5a7 3fbd b45f 6c3d 5cd6 ebbc
00000280: 4067 f4bc 8376 c53c 8c85 bd3c 7ad4 65bd
00000290: dc93 2c3d 47ba c7bc a04b 283d 2ef7 64bd
000002a0: 68d9 93bc 6faf 4abd 64aa 60bd e025 29bd
000002b0: e698 6dbd 31e2 873e 39f0 e1bb 745c 9cbc
000002c0: 0462 d1bc 4498 9aba 240c 2b3d a4ad 513d
000002d0: 583c 79bc 29fc 5a3d 7187 afbd d529 97bc
000002e0: b807 f83c c3c6 c33c 982d b73c 9882 363d
000002f0: a027 3f3c 99bf 633b 6601 123d 666b 89bd
00000300: 864e 583d b26d 0cbd 2e51 05bd 807d b33a
00000310: f44f 70bd e3de 6dbb 6578 173d 0042 293c
00000320: 5a73 08bd ccaa 463d 3088 1e3a 7180 743c
00000330: a0bf b53b e036 10bd c8ea f5bc 98e5 ad3c
00000340: eda8 52bc 3bf5 92bd a73c 5abd 1484 6fbd
00000350: 2e27 693d 4294 7ebc 68c0 3b3c 9c1b 1fbd
00000360: da7c 6e3d 17ba c93c 1d08 583c 001f a2ba
00000370: 00cf 71bc 7317 2a3d d77b abbd 81b9 223c
00000380: 2c07 fa3c c299 8e3d 246a 2b3b 4349 b83b
00000390: 2ea0 0bbd 8045 15bd d846 2ebc 60a5 52bd
000003a0: c8cf b73c 5860 9a3c 9ea6 03bd f850 4bbc
000003b0: 3c61 fb3c e6fe 27bd f4a4 9cbc 16f6 2f3d
000003c0: b2b5 79bd d53d 04be 8afc a03b c93c 5abd
000003d0: e491 803c f74b 723a 007a 98bb 006d 3c3b
000003e0: ecda 2dbc fec5 4abe 3c99 e3bc 39e0 6a3b
000003f0: 32a1 583d 1db5 183b 6a02 32bd 58eb 913c
-0.036242746 -0.022014188 -0.012743518 0.01491791 -0.055500418 0.037915695 -0.05693483 -0.045287117
0.0073299557 -0.24503261 -0.0030851183 0.032577023 -0.005401492 -0.02431009 0.004053585 0.01454065
-0.03631737 0.04210612 -0.042750396 -0.012937576 -0.045919806 0.0072479877 0.009416134 0.0011389387
-0.045499496 0.023285769 -0.048979007 0.020690598 -0.052128986 0.033711154 -0.041726902 -0.024490371
0.034608565 0.018760318 -0.0571656 0.01237759 0.036693506 -0.014410087 0.0048044175 -0.061596967
-0.05466482 -0.00773149 -0.0148129165 -0.01962664 0.016910575 0.025569052 0.044319786 -0.02003003
0.037413083 -0.0522279 0.052390195 0.038849287 0.03172312 0.08034607 0.03123811 0.01981886
-0.024750352 -0.013984926 0.04549636 0.046322644 0.0531452 0.010706528 -0.021681294 0.054216765
0.023973763 0.06338504 0.019945053 -0.05474866 0.009179167 -0.013021829 0.026789121 -0.06978968
-0.04745856 -0.0045341817 -0.067403585 -0.07347488 0.045877986 0.021850511 0.056541048 -0.044231556
0.052232012 0.06357184 -0.06066882 0.022447482 -0.03393852 -0.044322208 0.024253257 0.03497491
-0.02152469 -0.020392813 0.044641793 0.025412723 0.04594525 0.08310099 -0.0027556582 -0.032454558
-0.040010758 -0.008036032 0.059790038 -0.03434316 -0.021547802 -0.012941874 -0.044711936 -0.058300678
0.061340787 -0.017818352 -0.013805978 -0.0102291405 0.030763984 -0.012821948 -0.04588188 -0.03499115
0.03287983 0.030794106 0.030964501 -0.043084107 -0.050198592 -0.16789243 -0.0058552013 -0.03474357
0.030831687 0.07482693 -0.020857722 -0.041882962 0.023591824 -0.054351285 -0.048370704 -0.017190777
0.032476217 -0.055807907 0.010969885 0.012472324 -0.021450922 -0.046379194 0.04238183 -0.048014335
-0.027132578 0.04601295 -0.00458695 -0.0002091676 -0.004178643 0.09950299 -0.046927866 0.048577387
0.0090096 0.00236861 0.009816542 -0.047545493 -0.009581849 -0.013806521 0.025264926 0.0058879405
-0.034450896 0.0729995 -0.045240074 -0.014510356 0.049023062 -0.046791036 0.057708457 -0.028788738
-0.02983439 0.024104362 0.02313497 -0.056110837 0.042133197 -0.024380816 0.041087747 -0.05589979
-0.018048003 -0.049483713 -0.054849997 -0.041295886 -0.058007143 0.26539758 -0.006895092 -0.019087054
-0.025559433 -0.0011794646 0.041759625 0.051190987 -0.015212141 0.053463135 -0.08570755 -0.018452564
0.030277118 0.023898488 0.022360608 0.044558138 0.011667162 0.0034751652 0.035645865 -0.06709938
0.05280926 -0.0342843 -0.032548122 0.0013694018 -0.05867 -0.003629618 0.03698005 0.010330677
-0.033313133 0.04850273 0.0006047515 0.014923201 0.005546525 -0.035208583 -0.030019179 0.021227643
-0.012857658 -0.0717568 -0.0532805 -0.05847557 0.05692213 -0.015538277 0.011459447 -0.03884469
0.058224536 0.024624867 0.013185528 -0.0012368858 -0.014758825 0.04152627 -0.0837323 0.009931923
0.030520998 0.06962921 0.0026155794 0.005623968 -0.034088306 -0.036443233 -0.010637008 -0.051427245
0.022437945 0.018844768 -0.03214132 -0.012409441 0.030686013 -0.041014574 -0.019121625 0.042959295
-0.060964294 -0.12914212 0.0049129175 -0.053280625 0.015694566 0.0009242887 -0.0046532154 0.0028751493
-0.010611277 -0.1980209 -0.027783029 0.0035839214 0.052888103 0.0023301311 -0.043459333 0.017812416
