nets/value100K (copy).pth (torch_old, 643777 bytes, 25 tensors)

a1.weight f4 [16, 5, 3, 3]
000000 98 b5 af bc 31 01 8b 3e 6c 98 b8 3e b6 d0 b2 3e
       -0.021448895 0.27149346 0.3605379 0.3492486
000010 a4 2c bb 3e 30 50 91 3e c6 bf 1f be 3e 9d be 3e
       0.36557496 0.2838149 -0.156005 0.3722934
000020 5d ed 0f 3e 71 23 58 3e ff 76 72 3e aa 30 86 3d
       0.1405539 0.2110727 0.23678206 0.06552251
000030 5f f2 02 3e 8d 5b a7 bd bb 19 0f be 12 b0 2e bf
       0.1278777 -0.08171759 -0.13974659 -0.6823741
000040 8c 35 7b be b7 74 38 3c 32 7c 40 3c a7 97 ce 3c
       -0.24532145 0.011258296 0.0117483605 0.025218798
000050 43 29 fe bd 81 4b ad 3e 9d 2b 85 be 94 d7 08 be
       -0.12410214 0.33846667 -0.26009837 -0.13363487
000060 c6 6b d0 bd 47 3c 1f be c9 1d 81 bc b4 82 13 3e
       -0.10176806 -0.15550338 -0.015761273 0.14405328
000070 e3 4d 1a be f9 b7 98 3c 1a 9d a7 3d 4c d7 c1 3d
       -0.15068774 0.018642412 0.081842616 0.09464893
000080 c4 ea 90 bd 76 59 1f be e3 b5 0c 3e d5 05 ba 3c
       -0.07076028 -0.1556147 0.1374126 0.022707859
000090 96 6d 00 3d 79 b9 ae bc 9d 46 ec bd 6e e5 30 bd
       0.03135451 -0.021328675 -0.11536906 -0.04318755
0000a0 fb d2 aa 3d a9 06 66 3d 77 89 11 bd 59 54 d6 3d
       0.083410226 0.056158695 -0.035531487 0.10465307
0000b0 e1 72 f0 bc 47 c8 3c bf 09 c7 ac be 46 e6 46 bf
       -0.029351654 -0.737431 -0.33745602 -0.7769512
0000c0 12 41 ab 3c 1a a3 58 be bb 33 11 3e f1 9c d5 be
       0.020905051 -0.21155968 0.1417989 -0.417213
0000d0 ed a8 4a be 37 eb 9c 3d 3e 91 60 3e 77 aa 0d 3d
       -0.19791003 0.07662051 0.21930405 0.034586396
0000e0 0f 2f 79 3e 1c 55 5c be de 04 19 be ff 37 04 bf
       0.24334358 -0.21516842 -0.14943263 -0.51647943
0000f0 db 1a 8b 3e 12 80 80 bd 7a 0d 91 3a bf fc 43 3c
       0.27168927 -0.062744275 0.0011066638 0.011962115
000100 68 1e 24 3e ed 2f 32 be 57 18 86 be c8 17 39 3e
       0.16027224 -0.17401095 -0.26190445 0.18075478
000110 00 9f 02 bf 4d 92 ad be ed 21 49 3e d8 c1 da 3d
       -0.51023865 -0.3390068 0.19641848 0.10681504
000120 b8 2c 81 3e b4 d8 8b bd 07 83 55 3e 34 d7 3d 3e
       0.2522943 -0.06828442 0.20850764 0.18539125
000130 23 bd d7 3b 65 98 bf 3e ff 66 ef 3e 40 8c 6a 3e
       0.006583826 0.37420955 0.46758267 0.22905064
000140 59 c0 50 be ad ff e4 3d 4e 90 cb 3c d5 8c e6 bd
       -0.20385875 0.11181579 0.024849083 -0.1125733
000150 52 4d 92 3d 28 38 04 bd e2 6f 7f bc a7 76 f0 bd
       0.07143654 -0.032280117 -0.01559064 -0.11741381
000160 d0 2d da 3d fe 8c 23 bd 86 6f 83 3d 7c 8c d1 bd
       0.10653269 -0.039929383 0.06417756 -0.102318734
000170 5d a0 7f be 6c 64 14 3d 77 f9 51 be f9 72 c8 3c
       -0.24963517 0.036228582 -0.2050532 0.024468886
000180 43 17 87 be 76 7b db bd 54 f3 01 bf 88 9d bb be
       -0.26384935 -0.10716908 -0.50761914 -0.36643624
000190 80 b5 8c 3d f4 ea 05 3e 91 57 8b 3e 59 5a 99 3e
       0.06870556 0.13077909 0.27215245 0.29951742
0001a0 34 3c 89 3e f4 6d ce 3e 6b 07 92 be ee 59 d0 3e
       0.26803744 0.40318263 -0.28521284 0.4069361
0001b0 4f 3a 80 be 25 cf a4 3e 91 d7 b2 bd e5 c9 1d be
       -0.25044486 0.3218929 -0.08732522 -0.15409048
0001c0 39 06 c4 3e e5 72 31 3e a1 9a a4 3e 09 d8 88 3e
       0.38285998 0.17328985 0.32149222 0.26727322
0001d0 79 f7 e1 3e 49 8d 1d 3e c4 05 50 be e6 c8 df 3e
       0.4413412 0.15385927 -0.203147 0.4370796
0001e0 fb f6 0f be d9 80 b8 3d a1 55 a4 be d9 7b 97 be
       -0.1405906 0.09008951 -0.3209658 -0.29586676
0001f0 34 3e d4 3e c9 9d 23 be 0b 14 17 be 69 f4 c2 bc
       0.41453707 -0.15978159 -0.1475374 -0.023798184
000200 bf 1a c5 3d 0e 90 02 be 2e 1f 3f 3d 23 60 99 3c
       0.09624242 -0.12750265 0.046660595 0.0187226
000210 b8 20 89 3d 86 77 85 3d a6 17 78 bc c5 57 81 3e
       0.06695694 0.06516938 -0.015142357 0.25262275
000220 02 9c 27 be 6c 9a fc be 3f f5 2b 3e 78 d2 09 be
       -0.16368106 -0.49336565 0.16792773 -0.13459194
000230 46 53 cf 3c 6f 36 19 3e 68 33 34 bd 77 22 01 3e
       0.025308263 0.14962171 -0.043994337 0.12610804
000240 2d 37 44 be 78 7c ad be e4 fd b3 3d f9 d1 ef 3e
       -0.19161673 -0.33884025 0.0878866 0.46839884
000250 c7 6f 97 be e9 9c 52 be 07 1a b0 be fe 6b bd be
       -0.29577467 -0.20567669 -0.34394857 -0.36996454
000260 68 ef 0c be 9b 19 28 be e8 49 ea be ac 97 56 bf
       -0.13763201 -0.16416018 -0.4575951 -0.8382518
000270 76 0d 07 be 35 18 07 bf 27 44 9f bd dd 3e f6 be
       -0.13188729 -0.5277131 -0.07776671 -0.48094836
000280 fb 23 47 be ae 33 0d bf eb 5d 2e 3e 0a 3d cf 3e
       -0.19447319 -0.5515698 0.17028014 0.40476257
000290 8a df 12 3f 27 6b 64 be 01 c1 52 be 2f 02 87 be
       0.57372344 -0.223065 -0.20581438 -0.26368853
0002a0 da 4d 4d be 0a 45 d2 3d 82 c3 44 3d 76 5c bb 3d
       -0.2004923 0.102670744 0.048038013 0.09148495
0002b0 66 59 d4 bd e3 5c 8f bd cf 85 51 3d dd 55 95 3c
       -0.10368614 -0.070001386 0.051153 0.01822942
0002c0 b7 06 60 3d ce 41 5a bd b8 07 8b bd 62 76 93 3d
       0.054693904 -0.053285412 -0.067885816 0.07200314
0002d0 24 15 5a 3e f8 7e bd 3e 5e 11 ab 3e 66 bc ed bd
       0.21297127 0.37010932 0.33411688 -0.116082
0002e0 22 e5 87 3d 52 3c 96 3e e8 8c a5 3c 0c 8d 5d 3d
       0.066355005 0.29342896 0.02020879 0.05408959
0002f0 bc 9a b9 3d 43 40 20 be 7c 98 03 bf 3e 21 9e be
       0.09062716 -0.15649514 -0.5140455 -0.30884737
000300 c1 70 26 3d 14 96 61 bd 1b 56 ed 3d 63 01 dd be
       0.040634874 -0.055074766 0.11588689 -0.4316512
000310 df 85 a3 be 6b 04 95 bc 7d ae c7 be 7d bf 78 be
       -0.31938073 -0.018190583 -0.39000311 -0.24291797
000320 2f 0b 8c 3e 91 02 10 bf f1 30 d8 3d c8 1f 82 bd
       0.27352282 -0.56253916 0.1055621 -0.06353718
000330 3a f5 54 bd f3 c5 38 be 83 9d 3d 3e c7 08 81 3c
       -0.05199168 -0.18044262 0.18517117 0.015751256
000340 90 e2 51 bd 1a 2d 6a bd 32 82 21 be b1 43 e6 bd
       -0.051241457 -0.05717192 -0.15772322 -0.1124338
000350 8c c0 b8 3d 29 0c 2f 3e 85 4c a6 3d 39 33 0a bd
       0.090211004 0.17094482 0.08120064 -0.033740256
000360 e7 ca df bd dd 1c 19 bd f6 fb 2c be 2f 77 9f 3e
       -0.109273724 -0.03738104 -0.1689299 0.31145617
000370 4b c1 aa 3b d7 bc 1b bc ba 88 c3 bd 6f 5a 12 3a
       0.0052110306 -0.009505472 -0.09547563 0.00055829337
000380 46 dc 41 be 98 86 50 3c bd e9 0d bf 94 44 36 bf
       -0.18931684 0.012727402 -0.5543478 -0.7119839
000390 65 04 96 be 52 b7 07 bf ad bb 82 be b2 47 36 be
       -0.29300228 -0.530141 -0.2553381 -0.17800787
0003a0 3c e8 6d be 62 bd d0 bc 6b b0 af 3d 90 cd eb 3e
       -0.23233122 -0.02548093 0.08578571 0.4605527
0003b0 55 9b 76 3e 86 90 5a 3e ff 96 06 3f 90 6e 8b 3e
       0.24082692 0.21344194 0.5257415 0.2723279
0003c0 42 4c be 3d 15 21 78 3e e1 49 32 3e 9d 14 79 be
       0.09291889 0.2423137 0.17410995 -0.2432427
0003d0 e9 c4 41 3e dc 3d a8 3e db c7 34 3e 11 d5 8c 3e
       0.18922772 0.32859695 0.17654364 0.27506307
0003e0 09 d0 0e 3e 23 8a 62 3e 76 d3 6d 3d 9e 5d 7a be
       0.13946547 0.22123007 0.058062993 -0.24449775
0003f0 ce a7 f3 bc 96 ae 73 3e 49 61 6a 3e e8 c1 97 3e
       -0.029743101 0.23797068 0.22888674 0.29640126

a1.bias f4 [16]
000000 ab d3 34 bd 06 e0 ee bd f8 26 86 3d d4 b5 40 bd
       -0.044147175 -0.11663823 0.065504014 -0.047048405
000010 31 5e f0 bd 8e 85 2b bd a3 fd 41 bd cc 48 42 3e
       -0.117367156 -0.041875415 -0.047361027 0.18973082
000020 47 af ae 3d 2b b8 84 3c de b9 ed bd 62 2d e8 3d
       0.08529525 0.0162011 -0.11607717 0.11336781
000030 51 af 9c bd 6d a3 8d be e9 a1 75 bd 42 41 30 be
       -0.076506265 -0.27663746 -0.059968863 -0.17212394

a2.weight f4 [16, 16, 3, 3]
000000 ac 99 87 bd 1e b7 37 3e 04 b6 35 3e 8b ec 2c 3e
       -0.066211075 0.17940947 0.17745215 0.16887109
000010 8b 9b 52 be 59 ec 44 3e 72 a0 56 3e 25 0a fa 3d
       -0.20567147 0.19230784 0.20959643 0.12208966
000020 11 ec f9 bd 33 e2 9a be 2d 05 be bd 5a 3e 0b bc
       -0.12203229 -0.302507 -0.09278331 -0.0084987525
000030 ce e2 45 3d 90 23 18 bb d3 af d6 be e4 8f 03 bf
       0.048312 -0.0023214556 -0.41931018 -0.51391435
000040 01 78 cf 3d 98 c5 1b bf 7e 62 7d bd b0 9a 60 be
       0.10130311 -0.6084838 -0.061861508 -0.21934009
000050 38 f3 ba bc 37 4f 6f 3e cb 27 54 be c8 00 a0 3d
       -0.022821054 0.23370062 -0.20718305 0.07812649
000060 d3 2c a0 be 82 8d c6 3e cc 91 85 3d 88 4b ec 3c
       -0.31284198 0.38779837 0.06521949 0.02884461
000070 98 70 3b bd b9 5f 0e 3e 7f fc 9f be d4 31 54 bf
       -0.045761675 0.13903703 -0.31247327 -0.8288853
000080 f2 4d 78 be bd 19 12 bd 69 47 90 be e8 4b 6b 3e
       -0.24248484 -0.035669077 -0.28179482 0.22978175
000090 e4 80 51 3c 39 6c 3d be 12 75 aa bd 9f fb 8b 3d
       0.012787078 -0.18498315 -0.08323111 0.06835102
0000a0 8f 2b 28 3e 92 77 48 be ab dd 1b be 8f 61 7a 3d
       0.16422866 -0.19576862 -0.15221278 0.061128195
0000b0 06 2a 8e 3d 18 49 5c 3e f1 d2 53 bd 41 1d da 3d
       0.06941609 0.21512258 -0.05171484 0.10650111
0000c0 85 02 d8 3d 00 79 46 3e 84 b9 8f 3d c6 32 08 bf
       0.105473556 0.19382095 0.07017806 -0.53202474
0000d0 7a 47 1b bd b6 64 8e be be 24 e3 3d 45 63 3a 3e
       -0.037909962 -0.2781121 0.110909924 0.18201931
0000e0 45 cd 83 3e e7 21 85 bd 78 cf c6 3c ee b7 15 3e
       0.25742546 -0.06500607 0.02426885 0.14620945
0000f0 84 be ee 3c d5 4c ce 3d ee 7d 82 be 2e 59 bb 3b
       0.02914358 0.10073248 -0.25486702 0.005717418
000100 49 45 74 be 7a c1 58 be a4 5a 53 3e dd 15 80 bd
       -0.23854555 -0.21167555 0.20640045 -0.0625417
000110 bf 82 8c 3d a1 dc 27 bf 51 d9 b2 bd f2 75 d7 be
       0.06860875 -0.6557103 -0.08732856 -0.42082173
000120 4b 9d a3 3c d0 73 48 3e 12 1a eb be 6d 73 8b bd
       0.019972464 0.19575429 -0.45918328 -0.06809125
000130 dc 88 88 3e 51 d3 cd bd 42 ed 3a bf c7 e1 f7 be
       0.26666915 -0.10050071 -0.73018277 -0.48414442
000140 19 90 f6 bd c9 93 72 be 4d 30 4b be 0f ca 0d be
       -0.12039203 -0.23689188 -0.19842644 -0.1384661
000150 d5 86 87 3e 20 4d 0d 3d 77 0d bc 3e a7 67 43 3e
       0.26470056 0.03449738 0.36729023 0.19082509
000160 f2 37 4b be 20 25 67 3d 8e d1 3b be f0 34 e7 bd
       -0.1984556 0.05643189 -0.18341658 -0.11289394
000170 9e 96 d9 bd 10 b4 49 3e 2c 4a 1a 3e dc 5b 09 3e
       -0.10624431 0.19697595 0.15067357 0.13413948
000180 f6 68 22 3e 1f e8 85 3d dc bf 00 be 9a 90 f4 3d
       0.15860352 0.06538414 -0.12573189 0.11941643
000190 48 6a e2 3e 46 f3 71 bd df e6 0d bd 1c 62 0e be
       0.4422171 -0.059069894 -0.034644004 -0.13904613
0001a0 eb 93 8c bd 24 c9 02 3d c0 f1 e2 3d aa e3 d4 bd
       -0.068641506 0.031930104 0.110812664 -0.10394986
0001b0 5f be c0 bd ae ee 32 bd c9 e2 25 be b1 9b fa 3e
       -0.094113104 -0.043684654 -0.16199793 0.48946908
0001c0 b5 bf fe 3c 30 f3 d1 3e 51 76 72 3e 41 f3 21 be
       0.031097272 0.4100585 0.23677947 -0.1581545
0001d0 77 81 a4 3c 20 77 d4 3e f1 6d 13 be f6 71 4a 3e
       0.020081265 0.41497135 -0.14397408 0.19770035
0001e0 6e 9d a2 3c 38 16 d4 bd b1 7a 0c bf 79 dd 04 be
       0.019850459 -0.103558004 -0.5487471 -0.1297511
0001f0 36 b7 74 be b3 be 37 be e7 6a 06 3d 93 79 ef bc
       -0.23898014 -0.1794384 0.032816794 -0.029232776
000200 f6 65 9b 3e b8 5e b6 bc 4b fb cc be 58 4b 14 3d
       0.30351228 -0.022261962 -0.4003547 0.036204666
000210 88 df 11 3e 88 ca 9a 3d 13 49 e7 3e e7 37 80 be
       0.14245427 0.07558161 0.4517294 -0.2504265
000220 ca 45 88 be 1e 86 b6 bd bd 4c 92 be bd 92 72 3e
       -0.26615745 -0.089122996 -0.28574172 0.23688789
000230 4f a3 87 3d 55 73 43 3e 82 d7 5e 3e 39 d1 d7 bd
       0.066229455 0.19086964 0.21761897 -0.10537953
000240 48 44 8c bb e5 db ea 3d b3 4b f4 3d 5e 59 0a be
       -0.0042806007 0.11467723 0.11928501 -0.13510653
000250 45 69 f3 3d d6 fe 42 3d dd 34 b5 3d fd 88 e7 3b
       0.11885313 0.04760631 0.088479735 0.007065891
000260 7c 29 82 3e d6 51 e8 bc 1b 97 22 be ba 3d d8 bd
       0.25422275 -0.028359335 -0.15877955 -0.105586484
000270 74 6c 72 be 7a d1 b0 3d b6 c9 ad be f4 da 71 bd
       -0.23674184 0.086337045 -0.33942956 -0.0590467
000280 37 4b ed bd da cf ba be da 81 e2 3c c1 6c 29 3d
       -0.11586612 -0.36486703 0.027649809 0.04136348
000290 2b 4b b2 3d 4e 94 f6 bd e7 a7 43 3d d7 ce 91 bd
       0.087057434 -0.120400056 0.047767546 -0.0711953
0002a0 d1 b0 7f be 54 5c 0e bd 76 ff 1c bf 65 2f dc 3e
       -0.24969794 -0.03475602 -0.613273 0.4300491
0002b0 ec 0c 92 3d 3f 48 c9 3d 9e 6d 92 bc 6a 7f 78 3d
       0.07131371 0.09828233 -0.017874535 0.060668387
0002c0 2d 09 09 3d cb 60 f1 bd 52 a9 16 3e d0 ff 4c 3c
       0.033456016 -0.1178604 0.14713028 0.012512162
0002d0 33 10 6f 3c 45 2a 1a 3c 9e 85 8c 3e 93 68 c7 3d
       0.014591265 0.009409492 0.27445692 0.09736743
0002e0 3b 3a 47 3e d2 4a 86 3e 8e d9 36 3e 50 44 ef bc
       0.19455807 0.26228958 0.17856428 -0.029207379
0002f0 79 90 5b be 4d 0b 3e be 58 59 13 bd 31 47 88 be
       -0.2144183 -0.18558998 -0.035973877 -0.26616815
000300 5e 6d 03 bd 28 09 8b be 3c b9 c3 be 3f 0c 9f bd
       -0.032086723 -0.27155423 -0.3822726 -0.07766008
000310 54 23 17 3e 6e f3 72 be c3 df 96 3e be a5 e9 3d
       0.1475957 -0.23725674 0.29467592 0.11408566
000320 27 2e 35 3e 34 0b 8d be 63 3c b5 be df 12 3a be
       0.17693387 -0.2754761 -0.35397634 -0.18171261
000330 b2 c7 9a 3c 61 df 87 3e ff 50 ce bd 71 ea 55 3d
       0.01889405 0.26537612 -0.100740425 0.052225534
000340 ec 6c 2b be f8 5a 76 3c 95 9d 04 3e 90 e0 b9 3b
       -0.16740769 0.015036337 0.12950738 0.005672522
000350 62 9c 04 be 7a 9c 44 3d 04 bd d9 bd 24 23 0b 3e
       -0.1295028 0.04800079 -0.10631755 0.13587624
000360 f9 6b 13 be 21 e3 a1 bd d7 8a a8 bc d9 6d 11 be
       -0.14396657 -0.079046495 -0.020574016 -0.1420206
000370 ae bb 02 be 9d 75 df 3d b2 2c 64 3c 79 f0 85 be
       -0.12766907 0.10911105 0.013926672 -0.2616003
000380 9c 38 59 3e 0e 6a b2 bd 0f 64 81 3d 5e 22 dc 3d
       0.21213001 -0.087116346 0.06317913 0.107487425
000390 28 78 bd bd 21 46 8e 3e e8 7a 07 3e bb 55 08 be
       -0.092514336 0.2778788 0.13230479 -0.13313954
0003a0 c0 21 26 3d fa 67 fd bd f4 c5 d6 3d 5c fd 8b be
       0.04055953 -0.123733476 0.10486975 -0.27341735
0003b0 55 81 82 be 6a 1c 22 3e 4b 9e 48 3d b4 4c ff be
       -0.25489298 0.15831152 0.048979085 -0.49863207
0003c0 39 4f 8a 3e e2 82 95 3e b9 82 50 3e c6 2b 67 3e
       0.27013567 0.29201418 0.20362367 0.22575292
0003d0 f7 f7 5b bd da ef 2f 3e 1e a4 66 3d eb 1b 82 bd
       -0.053703275 0.1718134 0.056308858 -0.06352981
0003e0 07 9c 2b bd b0 01 6c 3e 52 5b 25 3d 76 6f eb bb
       -0.041896846 0.23047519 0.040370293 -0.007184918
0003f0 68 20 cf bd ef 27 4f be 24 df 1e be d4 72 b1 bd
       -0.10113603 -0.20230077 -0.15514809 -0.0866448

a2.bias f4 [16]
000000 11 8c a9 be 5f cc 48 3d 49 f9 f7 3c 65 ab 1e be
       -0.33114675 0.04902303 0.030270236 -0.1549507
000010 c3 93 39 3c 53 23 fb bd c2 0f 08 be 4f bd 08 be
       0.011326733 -0.12262597 -0.13287261 -0.13353465
000020 2b 77 9d be b3 0e 45 3e 02 04 ee bd 6d 73 6b be
       -0.3075498 0.19243889 -0.11621858 -0.2299325
000030 57 16 5e bd 8b 9a 36 3d 0b 0d c6 bd 60 81 81 3d
       -0.054220524 0.044580977 -0.096704565 0.063235044

a3.weight f4 [32, 16, 3, 3]
000000 8b bb f4 3a 14 94 b6 bd 94 25 68 3e a4 59 b8 3d
       0.0018671615 -0.089149624 0.22670585 0.090014726
000010 c5 24 5d be 02 99 f4 bd 99 3b 4f 3d 4b 33 78 be
       -0.21596058 -0.119432464 0.050593946 -0.24238317
000020 00 dd 77 3d 57 2f 08 3e 1a d3 a2 3d 25 6f 0e be
       0.060513496 0.13299309 0.07950421 -0.13909586
000030 9a d7 bd 3b 90 a2 64 3e c1 6a 35 be 47 5e 89 3d
       0.005793524 0.22327638 -0.17716505 0.06707435
000040 a6 08 3e 3e 63 f7 97 bd 8f bf aa be a5 1a fd 3d
       0.18557987 -0.07420232 -0.33349273 0.12358598
000050 66 cd 0c be ba 2e 9f 3e 89 43 a6 3c 8d 2f b9 bd
       -0.13750228 0.31090337 0.020295875 -0.09042273
000060 63 55 a6 be 71 9f bb 3d e3 76 5e be d4 81 9e 3e
       -0.3248702 0.091612704 -0.21725039 0.30958426
000070 57 49 7a 3e 90 cc 19 be bf 85 7f 3c c7 8d 52 3d
       0.2444204 -0.1501944 0.015595852 0.05140474
000080 6e a0 d3 3d 15 52 33 3e d6 91 c5 3e d1 49 81 bd
       0.10333334 0.1751178 0.38587826 -0.063129075
000090 a2 ee 50 3e af df 0b bd e0 77 5e be e5 4e 3f 3e
       0.20403531 -0.03414887 -0.21725416 0.1868244
0000a0 52 99 b9 3d 65 1b 34 be 6f 63 ad 3e ad 11 d6 3d
       0.09062447 -0.17588575 0.33864924 0.1045259
0000b0 cb ce 47 bd c1 6a ac bd 75 31 28 3c 13 a2 1e 3c
       -0.048781198 -0.08418799 0.010265698 0.009682196
0000c0 d8 e3 75 3d d7 a1 a7 3d 8a 81 eb 3c ce 0a 3f bd
       0.06003174 0.081851654 0.028748292 -0.046641164
0000d0 5a 9b ff bc 55 ea 1f bd 85 f0 15 bf 73 0a cd 3c
       -0.031202007 -0.039041836 -0.5857013 0.025029397
0000e0 ff 4b 05 3e 80 c9 17 3e ca 22 9c 3e 09 cf a8 3d
       0.13017271 0.1482296 0.30495292 0.08242614
0000f0 ff 9a 36 3e 30 63 f4 be 7c fb e5 3d 0b e7 c4 3d
       0.17832564 -0.47731924 0.112296075 0.096143804
000100 c2 8a 6b 3d b4 32 85 be e4 65 29 3e 7f 45 87 bc
       0.057505377 -0.26015246 0.16542774 -0.01651263
000110 55 dc 5a be 86 d6 98 3e 6e 03 5d 3d 22 8d 68 3e
       -0.21373112 0.29851168 0.05395835 0.22710088
000120 d1 01 db 3d ea 01 02 3e 41 e3 fa be 9d 50 86 3c
       0.10693706 0.12696043 -0.49001506 0.016395861
000130 ac fd 74 3e a6 dd 83 be 1a 65 10 be ab 5b 2c 3e
       0.23924893 -0.25755042 -0.14101067 0.16831844
000140 16 e4 97 3c f2 45 e8 bd 2b 1c 84 bd 8e ce bb 3b
       0.018541377 -0.11341466 -0.06450685 0.0057314103
000150 15 d9 83 be d5 ca e4 bc dd 38 84 3d c0 db 89 be
       -0.25751558 -0.02792875 0.06456158 -0.26925468
000160 5b f0 b3 3d 18 96 b0 3c 38 05 a8 bb 56 1c 52 be
       0.087860785 0.021555945 -0.0051275752 -0.20518622
000170 ed 60 1e 3e dd 24 f1 3c cf b6 7f bd d2 cf 41 3e
       0.15466662 0.029436523 -0.0624302 0.18926933
000180 2e 57 53 bd ad 32 8f 3d f4 84 94 3e 26 aa e0 3d
       -0.051596813 0.069920875 0.29007685 0.10969953
000190 f7 c9 d6 3d 67 82 ab be 0d 33 f7 bd 78 f4 c0 3c
       0.104877405 -0.33497927 -0.12070284 0.023554072
0001a0 08 2f b8 3d c8 0f 18 3f ee ee ac be 3b 0f c6 3d
       0.089933455 0.5939908 -0.3377604 0.09670874
0001b0 29 b3 f6 bd 63 46 24 be 64 27 b3 3c be bc 6b bd
       -0.12045891 -0.16042475 0.021869369 -0.057553045
0001c0 86 80 e4 3d 36 58 21 3e 37 7a 1c bf 8d 37 27 be
       0.111573264 0.15756306 -0.61123985 -0.16329785
0001d0 b2 74 0b 3e 01 41 e0 be b6 35 09 3e c7 05 0e 3e
       0.13618734 -0.43799594 0.13399395 0.13869391
0001e0 ad cc 29 be 8b 7b 02 3d b9 6c e1 3d d7 94 af 3d
       -0.16581984 0.0318561 0.11007065 0.08573311
0001f0 d2 09 82 be 79 7c e1 3e e3 5d 7d bd a2 68 e8 3e
       -0.25398117 0.44040278 -0.061857115 0.45392329
000200 b8 e6 55 be 6c 35 00 bf 09 ca ad bd 51 8a 03 be
       -0.20888793 -0.50081515 -0.08485801 -0.12845732
000210 54 c1 08 3e 81 c9 f5 be 9a 09 a7 3d ef b7 ca bc
       0.13354999 -0.48005298 0.08156128 -0.02474591
000220 27 ce 0c be 1d 28 5f 3e 4e 09 00 bd c6 69 73 be
       -0.13750516 0.21792646 -0.031258874 -0.23770818
000230 3f a8 57 3e b7 18 79 be 9b ac 15 3e a5 ee 4e 3d
       0.21060275 -0.24325834 0.14616625 0.050520558
000240 55 0a 87 bf 7a 38 18 bf 28 94 67 3e 5f 07 5f 3e
       -1.0550028 -0.59461176 0.22615111 0.21780156
000250 0b bd 4a 3d 18 27 09 bd 13 5f 6b 3e 3a 5d 43 3f
       0.04949669 -0.03348455 0.22985487 0.7631413
000260 95 67 2f be 05 6d c8 3e b4 8b 2e 3f a4 2e 00 bf
       -0.17129357 0.39145675 0.6818192 -0.5007117
000270 c7 64 b8 3e 1d 28 58 3d 32 0e d1 bd 78 35 1a 3e
       0.36014387 0.05277263 -0.10207786 0.15059459
000280 e6 b3 97 be eb ed 36 3d 17 ad 5b bd d0 c1 73 be
       -0.2962944 0.04466049 -0.05363187 -0.23804402
000290 b6 a6 d9 be c9 62 b7 3c 0e 5b 82 3d 48 6e 96 3d
       -0.42510003 0.022385972 0.063650236 0.07345253
0002a0 b4 53 96 bd 34 6d 3a 3e 75 4e cc bd 7c eb c3 3e
       -0.07340184 0.1820572 -0.09975902 0.38265598
0002b0 38 61 7c 3e c6 b1 a8 bd 17 51 9e bd 17 e4 e4 be
       0.24646461 -0.082370326 -0.077303104 -0.4470527
0002c0 17 c7 99 bd 19 25 21 3e c4 8b 2f 3e f5 3e 10 3e
       -0.075086765 0.15736808 0.1714316 0.14086516
0002d0 d7 5c 37 3e aa 73 23 3c b2 bd c0 3d 34 3a 0e 3e
       0.1790651 0.009976307 0.094111815 0.1388939
0002e0 52 3b 84 3b 4c 2e a1 3e eb 75 ab be e3 35 6a be
       0.004035392 0.31480634 -0.33488402 -0.22872119
0002f0 66 a8 cc be 3c 5c ea bc 98 10 7a 3d c4 c3 43 bd
       -0.39972228 -0.028608434 0.06105098 -0.04779412
000300 79 ba b3 bc cc fb 9f 3d cc 91 12 bb f1 8f 19 3d
       -0.021939503 0.07811698 -0.0022364734 0.03749079
000310 05 6c 93 3d 8e 94 99 3c b0 3c 29 be 9c 90 8c be
       0.071983375 0.018747594 -0.16527057 -0.27454078
000320 de 21 91 3e 9c f7 6b 3e 84 33 0d be 6b 4c f4 3d
       0.2834615 0.23043674 -0.13789183 0.11928638
000330 be e5 ff bd db b9 2f bb 16 7a bb bd 44 4d 3f bd
       -0.12494992 -0.002681366 -0.091541454 -0.046704546
000340 bb 15 9f 3d 50 17 12 be 49 42 ff 3d 4f b5 a9 3d
       0.07767817 -0.14266706 0.12463815 0.08286535
000350 34 b3 a9 3d df 3f 86 3d f7 fc 82 3e 35 d0 84 be
       0.082861334 0.06555151 0.25583622 -0.259401
000360 80 b1 ba 3e 2c ec 53 3e 9e 75 29 3c a1 5f 8b 3e
       0.36463547 0.20695561 0.0103429835 0.27221397
000370 42 8e 20 bd 8d e1 48 3d 7e ec 46 3e 6e e7 cc 3d
       -0.039198168 0.049043227 0.19426152 0.10005079
000380 aa 86 90 be 73 09 48 be f6 6b 50 be 8f 36 72 bf
       -0.2822774 -0.19534855 -0.20353684 -0.946145
000390 54 f0 36 be ae 72 81 bc 6c 2f 03 be c8 40 c9 bd
       -0.17865115 -0.015801754 -0.12811059 -0.09826809
0003a0 1a 04 1e be 9a 71 b9 bc e6 1e e6 bd 1d 12 99 be
       -0.15431252 -0.022637177 -0.11236362 -0.29896632
0003b0 9c ec be 3e b3 57 90 be 55 57 17 be b3 30 2c 3e
       0.37289894 -0.2819191 -0.14779408 0.16815452
0003c0 bf ea b0 be 7b 5d ed be 23 23 d7 be 8e 99 91 3d
       -0.34554097 -0.46360382 -0.42018995 0.07109366
0003d0 7a a4 c4 3d f1 0a 6d 3d e8 89 b4 3d f1 c8 9c be
       0.09601684 0.057871763 0.08815366 -0.30622056
0003e0 b1 ad bf be 7b 95 15 3d 0b e4 06 3e 00 be ac bc
       -0.37437204 0.03651951 0.13172929 -0.021086693
0003f0 5c 21 58 bf d0 a7 e8 bd 1f 31 21 bf d8 a9 ae 3e
       -0.844259 -0.11360133 -0.6296558 0.34113955

a3.bias f4 [32]
000000 01 fc 95 be cf dd ab be ad 83 2b be 6a 16 c1 3d
       -0.29293826 -0.33567664 -0.16749449 0.09428103
000010 54 6c 7d bd be 2b c1 3e 0d 63 69 3e 8b 88 3d be
       -0.061870888 0.37728685 0.22791691 -0.18509118
000020 eb bf 7e 3d 0b 4c 88 3e d7 58 a2 be e8 cf 49 3e
       0.062194746 0.26620516 -0.31708404 0.19708216
000030 ba 4c 87 3d 68 1a 64 be a5 e4 70 be 51 20 69 be
       0.06606431 -0.22275698 -0.23524721 -0.22766234
000040 e7 99 7f be 84 3e 1a be d3 61 43 3e 76 84 d3 be
       -0.24961053 -0.1506291 0.19080286 -0.41311997
000050 69 64 6a 3e 2f cc b0 bd 8a 9a 5d be 8e fb 48 bc
       0.22889866 -0.08632695 -0.21640983 -0.012267007
000060 a4 d7 72 be 63 e7 4b be 31 03 cd 3e 48 f5 6f 3e
       -0.23715073 -0.19912486 0.40041497 0.23433411
000070 32 ec 7e 3d 8b b6 b0 bd 51 f9 a0 be a4 d4 e4 3e
       0.062236972 -0.08628567 -0.31440213 0.44693482

b1.weight f4 [32, 32, 3, 3]
000000 24 b1 c5 3d f6 b8 37 3e fd 6f a3 bd 0c 72 3c 3c
       0.096529275 0.17941651 -0.079803444 0.0115018
000010 c4 d2 bf bc 49 70 05 be 40 ce 53 be d4 5d aa bd
       -0.02341593 -0.13031115 -0.20684147 -0.083186775
000020 8e 09 04 be 5e 2d 1c be 58 f9 01 be 74 66 df bc
       -0.1289427 -0.15251681 -0.12692773 -0.027270533
000030 38 f4 cf be 04 7f 48 3e 4f 41 1a 3e 23 46 e1 3e
       -0.40616012 0.19579703 0.15063976 0.43998823
000040 03 cc c0 be 9c 9e 07 3f 77 3e 8d bd c8 63 7f bd
       -0.3765565 0.52976394 -0.0689668 -0.06235102
000050 ea b8 1e be d2 2d c8 3b 30 d1 d4 bd 12 a3 b0 3e
       -0.15500227 0.006108978 -0.10391462 0.34499413
000060 3d 98 05 be 5b a1 a4 bd e1 cc 35 bd f7 6b 27 3e
       -0.13046356 -0.080385886 -0.04438484 0.16349779
000070 17 23 dd bd 59 ff 61 be e4 a0 ed bd 3c a8 5e 3e
       -0.107977085 -0.22070064 -0.11602953 0.21743864
000080 8a 46 81 be 00 ab c4 3c 65 15 93 bd 48 57 95 3c
       -0.2524913 0.02400732 -0.07181815 0.018230096
000090 c9 2e e0 3d ef 9a 09 bd 56 03 b4 bd 86 63 c0 bd
       0.109464236 -0.03359502 -0.08789699 -0.093939826
0000a0 41 42 b4 3e 2a a8 de 3d d6 e4 97 3d 0e 9a 9b be
       0.35206798 0.108719185 0.07416694 -0.30390972
0000b0 9c 3b 07 3e f5 c7 d5 bc 37 66 94 3e ea 3b 0a 3f
       0.13206333 -0.026096324 0.28984234 0.5399767
0000c0 09 be 90 bd ee 8f 30 be 98 71 14 be 96 cc 39 be
       -0.07067496 -0.17242405 -0.14496458 -0.1814445
0000d0 a1 26 8e 3e 8c a0 81 3e 1b a1 48 3d 45 4e 94 be
       0.27763847 0.253178 0.048981767 -0.28965965
0000e0 a7 96 85 3c 77 b0 21 3e bb ff c7 3e 91 d6 39 3e
       0.016307188 0.15789972 0.39062294 0.18148257
0000f0 83 c4 d6 bd 1d 7c dd bd 7b 86 86 be 4c 8e a1 3d
       -0.104867004 -0.10814688 -0.26274475 0.07888469
000100 f2 c7 ae be 83 c0 91 be 0d 70 0d 3e a2 4c 2a be
       -0.3413692 -0.28467187 0.13812275 -0.16630796
000110 2c 92 51 3e e3 37 04 3e e8 9d 8f 3a 2e 22 d8 3d
       0.20465916 0.12911944 0.0010957094 0.10553394
000120 b9 55 97 ba 0f 03 26 3b 94 ae d4 bd 18 b9 8a 3d
       -0.0011545933 0.0025331413 -0.10384861 0.06773585
000130 06 8f 13 3e eb 9d 90 3d bc c1 ba be ea 52 98 3d
       0.14410028 0.070613705 -0.36475933 0.074376896
000140 a0 37 59 b7 d0 91 c5 bc 3a 19 2b 3b 85 a8 9d 3d
       -1.2947159e-05 -0.02411738 0.0026107565 0.07698158
000150 56 74 11 3e b4 d3 12 be ae e0 11 be be 0f 6d be
       0.14204535 -0.14338571 -0.14245865 -0.23150536
000160 40 5d db be 65 4e 0b be b2 40 bf bd 34 90 f1 3d
       -0.42844582 -0.13604124 -0.093385115 0.11795083
000170 36 25 c8 3e 7f e1 0d be 61 52 83 3d ed 53 8f 3e
       0.3909089 -0.13855551 0.06412197 0.27993718
000180 60 03 46 bd 0d 56 ad bd c5 cc 0a bb 8b 2f f0 be
       -0.048343062 -0.084636785 -0.002117918 -0.46911272
000190 93 17 08 3d 58 a4 58 3f 8c f2 7c bd 90 d2 1e 3c
       0.033225607 0.8462577 -0.06175475 0.009693757
0001a0 3c fc 2c 3f 6b 40 03 3e 67 c0 7e 3e dc 87 ad 3e
       0.6757238 0.12817542 0.24878083 0.33892715
0001b0 74 9e 7b 3e 79 f5 2c 3e 70 ae 5f 3e 92 fa 27 3e
       0.24572164 0.16890515 0.21843886 0.16404179
0001c0 e3 b4 ff 3d 86 2d 9c 3e 34 c1 4b bd 45 04 19 3d
       0.12485673 0.30503482 -0.0497448 0.037357587
0001d0 50 61 f3 3e df ce 93 bb 23 78 0d be 2b 9b 98 3d
       0.4753518 -0.004510745 -0.1381536 0.07451471
0001e0 83 ee 3d 3e ec 65 b0 3b c4 5f e6 bd a7 0c 24 bf
       0.18548016 0.005383244 -0.112487346 -0.64081806
0001f0 24 e9 6b be f7 87 33 bf 0c e0 3f be d0 f2 d7 bd
       -0.23038155 -0.7012934 -0.18737811 -0.1054436
000200 a0 3a 53 bd ca 46 95 3e 55 0d 3e 3d be b6 6f be
       -0.05156958 0.2915557 0.046399433 -0.23409554
000210 7c 3a 92 3e 0f b3 3c be 53 c4 75 bd c2 47 e1 3d
       0.28560245 -0.1842768 -0.060001682 0.11000015
000220 1c dc 1c bd f7 33 22 be 05 9e 98 3e 7b 6f 97 3d
       -0.03829585 -0.15840136 0.2980806 0.0739431
000230 b1 61 1f be 08 06 06 3a ec 9f f8 3e 9d 32 97 bd
       -0.1556461 0.0005112593 0.4855951 -0.073827006
000240 d4 16 53 be 85 d1 0c be 38 f9 86 bd a7 be dd bb
       -0.20614177 -0.137518 -0.065905035 -0.0067671123
000250 3a 23 66 3d 50 82 b6 3e 5f 38 bd bd 43 79 7b 3b
       0.05618594 0.35646296 -0.092392676 0.0038371838
000260 0b e2 ea 3d 1c eb f5 3a 96 43 69 3d 19 fe 72 be
       0.114688955 0.0018762085 0.05694922 -0.23729743
000270 25 c6 d1 bd bb 06 cd 3d c0 d0 34 3e d1 c2 36 3d
       -0.10242871 0.10011049 0.17657757 0.044619385
000280 16 27 7f be 2b 0f 83 3e 5e a3 54 3c 97 28 ce bd
       -0.24917254 0.2559751 0.012978403 -0.10066336
000290 5b 76 a5 be 15 0a 8f 3b 6c 01 03 3e 4d 41 78 bd
       -0.3231686 0.0043652155 0.12793511 -0.06060915
0002a0 2d 70 d7 be 5f 2d f5 bd 7e eb 31 bd 6c a8 97 3e
       -0.4207777 -0.119715445 -0.043437473 0.29620683
0002b0 d4 5a aa 3d 53 f7 13 3e 60 20 cb bc e3 b4 0f 3d
       0.08318105 0.14449815 -0.024795711 0.035084616
0002c0 e2 97 21 3e f8 cf a8 be 46 28 88 bd d2 0d 2c 3e
       0.15780595 -0.32971168 -0.066483065 0.16802147
0002d0 00 e4 3f be ff 4f 20 3e d0 a0 dd 3e 58 a5 21 3e
       -0.18739319 0.15655516 0.43286753 0.1578573
0002e0 28 88 9c be 1a e8 1b be 90 1e 5b 3b 5e e2 5c be
       -0.3057263 -0.15225258 0.0033434965 -0.21570727
0002f0 ee a5 a2 bc 8c 61 14 3d c2 b4 af 3b 4a 9c 0b bd
       -0.019854512 0.03622584 0.005362124 -0.034084596
000300 2f d4 1c bc b5 51 38 bc 99 86 8f 3c d7 8c ff bc
       -0.009572073 -0.011249949 0.017520236 -0.031195087
000310 44 82 55 3c e0 6e 69 3d da 64 bf bd af 2a c3 be
       0.013031546 0.056990504 -0.09345408 -0.38118502
000320 47 6a 47 be 21 5f 34 3c 7a 92 ef bd 00 f6 9f bc
       -0.19474135 0.011009009 -0.1169786 -0.019526482
000330 62 c5 04 bd 61 26 60 3e 91 41 91 bc d7 31 43 bc
       -0.0324148 0.2188964 -0.01773146 -0.011913738
000340 45 d0 de 3c 08 17 5e 3d ca 69 3f 3d b5 c9 99 3c
       0.02719892 0.054221183 0.046731748 0.01877294
000350 9f 9d 44 bc 1b 38 a0 bc 25 ea e2 3c 57 e5 e8 3c
       -0.01200047 -0.019558003 0.02769954 0.02842967
000360 01 6f d6 bd 44 b9 40 3d d0 9b 65 3e ff 7e 00 3e
       -0.10470391 0.047051683 0.22422719 0.12548445
000370 fa 8c df 3e d9 bb 03 be 59 f9 bd bd 77 79 cb bd
       0.43662244 -0.12864627 -0.09276075 -0.09935277
000380 0c 0c a3 3c 62 b6 56 3e 4b 81 26 3d 62 cb 81 bd
       0.019903205 0.20968011 0.040650647 -0.0633762
000390 77 11 b2 3e e5 bb dd 3c bd c5 77 3d 5a 99 8f be
       0.3477895 0.027067134 0.060491312 -0.28046685
0003a0 c1 8b 9a be f1 15 49 3d 85 64 fa bd 15 02 93 3d
       -0.3018475 0.04909319 -0.12226204 0.071781315
0003b0 ee d4 55 be dc 5a 05 3e 83 8f c5 3d 68 0a 03 3f
       -0.20882007 0.13022941 0.09646513 0.51187754
0003c0 32 3e 8f bc 30 59 a1 bc 0e fc 11 be a7 0c 30 be
       -0.017485712 -0.019695848 -0.14256307 -0.17192326
0003d0 36 65 31 be b8 93 ad 3d 35 f3 2e be e0 02 b1 3c
       -0.17323765 0.08475441 -0.17084964 0.021607816
0003e0 06 e1 a3 be a6 8e a9 be 67 9f 55 3d fa 70 60 3e
       -0.32007617 -0.33116645 0.05215397 0.21918097
0003f0 4e 7e 73 be ab b4 ea bd 83 6f e2 3e e7 39 ae 3d
       -0.2377865 -0.11460241 0.44225702 0.08507138

b1.bias f4 [32]
000000 3e c8 24 be 6c 96 a9 3e c3 ab 1e 3d 4d 5a 9f bb
       -0.16092011 0.33122575 0.038738023 -0.0048630596
000010 61 c1 0d be 4b 28 c2 be 9b 82 83 be e9 ec 72 3e
       -0.138433 -0.37921366 -0.25685582 0.23723187
000020 6b fb 18 bf 3e f1 da be 4a be 11 bd 7e 3c df 3d
       -0.59758633 -0.42762178 -0.035581864 0.1090021
000030 6a 9c 68 be 5b d6 c6 3e ce 72 06 be 08 e8 5e be
       -0.22715917 0.38835415 -0.13129732 -0.217682
000040 d6 34 cf bd da ad 39 bd c6 68 94 be 26 2c e6 3e
       -0.101174995 -0.045331813 -0.28986186 0.44955558
000050 89 ae 25 3d c8 5f 8b 3d c9 5b 80 be 1d 35 07 be
       0.040449653 0.06805378 -0.25070027 -0.13203855
000060 f3 42 ad 3e 85 b8 bd 3c 66 8f 01 bf 35 a0 cc 3d
       0.3384014 0.023159275 -0.50609434 0.099914946
000070 cf e2 9a bd 73 8d 81 be 92 b6 84 be a2 6b 26 bc
       -0.075627916 -0.2530323 -0.2592054 -0.010157498

b2.weight f4 [32, 32, 3, 3]
000000 50 06 ce be dd bd 9c be 9d 24 d5 bd 7f c8 6b 3d
       -0.4023919 -0.30613604 -0.10407374 0.057564255
000010 49 43 d4 3d 65 8d d5 3d ea d9 64 be 05 e8 0c 3e
       0.10364396 0.104273595 -0.22348753 0.13760383
000020 f2 05 4b be 32 ae 6a be 94 d9 90 bd 56 0c 7b be
       -0.19826487 -0.22918013 -0.0707275 -0.24516425
000030 a2 d0 b7 3e db b0 57 bc a9 83 80 3e ec b9 83 3e
       0.35901362 -0.013164724 0.2510045 0.25727785
000040 13 83 80 3d a9 df 2e bd b2 d1 e1 3d 0a 75 a9 3e
       0.062750004 -0.042693768 0.11026324 0.33097106
000050 36 32 20 3e 97 2d e8 be a2 c6 82 bc e5 40 9f be
       0.15644154 -0.45347282 -0.015963856 -0.31104198
000060 f9 78 70 be 34 e5 9a bd 1d 30 e0 bd 28 e1 d8 bd
       -0.23483647 -0.07563248 -0.10946677 -0.1058982
000070 93 8c e8 be a3 fb 1d be 65 1c 2f be b8 ae 86 3d
       -0.4541975 -0.15428023 -0.17100675 0.06576294
000080 d1 d5 85 3e 23 a8 09 bd e0 02 4e bd 73 3b e9 be
       0.2613969 -0.033607613 -0.05029571 -0.4555317
000090 c3 a7 90 3d 88 5c 6c 3e ef 81 94 3e ba 66 a2 be
       0.07063248 0.23082173 0.2900538 -0.31719
0000a0 ab 7b bc bc 24 86 4a bd e8 82 95 be 88 32 90 3e
       -0.023008188 -0.049444333 -0.29201436 0.28163552
0000b0 02 e6 ad be 0c 47 ce 3d 23 8a 38 3e 10 ea 22 3e
       -0.33964545 0.10072145 0.18021445 0.159096
0000c0 42 10 d3 be 8e dc 27 bf 88 f0 97 3e c2 6c ee be
       -0.4122334 -0.65570915 0.29675698 -0.4656735
0000d0 4d 98 84 bc d8 4a 39 be bc 51 56 3e ff 2b 53 bd
       -0.016185904 -0.18094957 0.20929617 -0.05155563
0000e0 03 e1 fa 3d 8c de d2 bd 75 a1 42 3d 94 da 10 be
       0.12249949 -0.10296354 0.04751726 -0.14145881
0000f0 2c a7 1b be 69 50 86 3d 2a 17 5a bd 5b fd ea 3c
       -0.1520049 0.06558306 -0.053244747 0.028685262
000100 e3 ff 51 bf 69 35 9c 3e dc 06 36 3e 56 62 ed 3b
       -0.8203108 0.305095 0.17776054 0.0072443886
000110 b9 e2 43 bc 9e 44 aa 3d a7 af 06 bd d6 fb 84 3e
       -0.01195591 0.08313869 -0.03288236 0.25973386
000120 08 79 26 3e a1 04 4d bd 1e f1 08 3f 9b ea 6c 3e
       0.16257107 -0.050053243 0.53492916 0.2313637
000130 e6 5b cd bd e6 31 3d 3e 3b f9 cb 3e 23 63 fd bd
       -0.10027294 0.18476066 0.39838585 -0.123724245
000140 84 e6 9d 3e ec bd 0f 3d f6 58 34 bd d1 07 1e 3e
       0.30839932 0.035093233 -0.044030152 0.15432669
000150 87 bd 02 bd 9c 4a db be a1 34 07 bf 18 f8 bc bc
       -0.03191903 -0.4283036 -0.5281468 -0.02306752
000160 2d 06 32 3e bf cb 6b bd 34 92 c4 3d 40 4a e8 bd
       0.17385168 -0.057567354 0.095981985 -0.11342287
000170 cc 0a c1 be 24 0e 42 3c 7c f2 db 3d d8 bd 9d be
       -0.3770355 0.011844192 0.107396096 -0.30808902
000180 81 76 16 3e c9 b0 a6 be f1 57 b7 3d c9 ba e3 3c
       0.14693643 -0.3255675 0.0895232 0.027799027
000190 4d a9 55 bd 86 91 e8 be 13 55 53 3d 6b 7f e9 bd
       -0.05216341 -0.45423526 0.051594805 -0.11401256
0001a0 7a df ed 3d 46 4a 9e bd f0 98 f4 bb f6 c3 ea 3d
       0.116148904 -0.0772901 -0.0074645206 0.11463158
0001b0 e5 96 af 3c ff 34 ca bd 09 b0 c7 b9 d9 e4 d7 3d
       0.021434257 -0.098733895 -0.00038087394 0.10541696
0001c0 94 27 04 be 6a fe a5 3c ab 74 b5 be 29 57 46 be
       -0.12905723 0.020262916 -0.35440573 -0.19369186
0001d0 25 7b b3 3e 6d 8f c8 3d 18 49 b4 3e 03 45 0b be
       0.3505489 0.09792981 0.35212016 -0.13600545
0001e0 e2 81 61 3c 02 e5 c9 3b 9e 06 06 be 9b 3e 8a 3e
       0.013763877 0.006161333 -0.13088462 0.2700089
0001f0 9f b6 01 3e 65 bf 79 3e 13 5f 09 be f4 4d a1 b9
       0.1266732 0.24389417 -0.13415174 -0.00030766393
000200 98 e7 0c 3e 0b 52 76 3d da 36 0e 3d f6 f2 33 be
       0.13760221 0.060136836 0.03472028 -0.17573151
000210 98 7f 4f 3e 02 b6 e2 3d 78 21 8b be d8 b3 6e be
       0.20263517 0.110698715 -0.27173972 -0.23310792
000220 73 a5 0a bc 5a 7d f0 bd 15 1e da 3c fd 7d 2d bc
       -0.008462298 -0.11742659 0.026625672 -0.01058912
000230 7d ca f8 bc a7 53 7e be 45 91 f5 3c 45 37 a3 be
       -0.030369991 -0.24836598 0.029976496 -0.31878105
000240 ed 12 92 3d cc 05 ab 3d fb d9 19 3e 30 77 c6 bd
       0.07132516 0.08350715 0.15024559 -0.09690702
000250 10 23 5e 3e 8a b0 60 3e 00 d9 84 be d7 34 df 3d
       0.21693063 0.21942344 -0.25946808 0.1089875
000260 a8 10 52 3e 22 39 94 3c a1 ec bf 3d 8a 21 1a 3e
       0.20514166 0.01809365 0.09371305 0.15051857
000270 f0 fb 77 be 77 df a5 be 51 96 80 be 45 33 8a 3e
       -0.242172 -0.32397053 -0.25114682 0.2699224
000280 bc 18 7f 3e 9e 61 ef bd 97 ff 82 bb 4a 9b 8f bd
       0.24911779 -0.11688541 -0.003997754 -0.07012041
000290 96 f9 7d be 2b 2d 5a be 09 08 2d 3e 51 87 24 be
       -0.2480224 -0.21306293 0.16897596 -0.16067244
0002a0 88 98 02 3e ad 02 04 bd c6 bd 02 bf ca 06 04 bd
       0.12753499 -0.032229114 -0.5107082 -0.032233037
0002b0 3a 31 38 3d 8c 89 13 be 56 0a 88 3d a3 6c 1a 3e
       0.04496882 -0.14407939 0.066425964 0.15080504
0002c0 e0 65 8d bd 2e 1c 19 bd 95 69 51 bd 91 4f 47 3e
       -0.06904197 -0.03738039 -0.05112608 0.19463946
0002d0 3d 86 a7 bd 9d 04 86 bd 15 74 8f bd af 64 f5 3d
       -0.08179901 -0.06543849 -0.07004563 0.119820945
0002e0 e3 c6 ee bc 9d b5 b0 bd 0c ec 0b bd e9 24 98 bd
       -0.029147571 -0.0862839 -0.03416066 -0.07428915
0002f0 24 f7 96 be 20 0e 50 bd c8 8d 17 3e 96 0d 9f be
       -0.29485428 -0.05079472 0.14800179 -0.31065053
000300 90 aa 03 3e 8e 07 32 3e 8a 91 ce 3d 16 31 01 be
       0.12858033 0.17385694 0.10086353 -0.12616381
000310 7a 2d 68 3e 93 8f 08 be 8e 21 bb 3c 87 f1 a7 bd
       0.22673598 -0.13336019 0.022843149 -0.082003646
000320 56 b0 e0 be ab 25 25 be 0d ef 3c be 4c 0b 04 3e
       -0.43884534 -0.1612765 -0.18450566 0.12894934
000330 b3 c9 6a 3e 1d 9a aa be 98 9d 91 3d 9b c7 26 3d
       0.22928505 -0.33320704 0.07110137 0.040717702
000340 31 9e 20 bc 4c 75 23 3c e4 9a 07 bd 17 58 8b bc
       -0.009803341 0.009976696 -0.0331067 -0.017009778
000350 b5 fc 2a 3d 36 63 6f bd 6d c9 58 bc c9 d4 a7 bc
       0.041744906 -0.058444224 -0.013231617 -0.020487206
000360 06 23 d3 3e fa 2e 53 3c 36 f4 2c 3e f8 82 82 3d
       0.41237658 0.012889618 0.16890034 0.063726366
000370 36 6e 3a be 81 31 fa bd a2 ba 11 3f 4a 12 6c 3e
       -0.18206105 -0.12216473 0.56925404 0.23053852
000380 aa 34 09 be 4b 79 a3 be 82 ab c8 bc c2 f9 bf 3e
       -0.13398996 -0.31928477 -0.024495844 0.37495238
000390 e5 71 d0 be be a7 7d bb 53 0d 10 3e d1 52 0e be
       -0.40711895 -0.0038704718 0.14067583 -0.1389878
0003a0 57 18 2e bd 58 37 91 be 7e 8c 61 be cd 73 8a be
       -0.04250368 -0.28362536 -0.2202625 -0.27041474
0003b0 03 84 03 be 6f 27 25 bf 16 91 00 bd 7b 41 8f be
       -0.12843327 -0.64513296 -0.031388365 -0.27979645
0003c0 f3 99 33 be b3 a7 2d be 5a 94 a8 be 4f 76 bc be
       -0.17539196 -0.16958503 -0.32925683 -0.36809012
0003d0 b6 cf 41 be c5 45 d7 3e 79 f2 2b be bd dc 29 3d
       -0.18926892 0.42045417 -0.16791715 0.041470278
0003e0 18 f0 5d bd de e9 b6 bb 5c a1 91 3e e7 a0 4f 3e
       -0.05418405 -0.0055820784 0.2844342 0.20276223
0003f0 af ab e0 3d a6 86 c1 3c 4b 48 81 be b4 53 02 3e
       0.10970246 0.023623776 -0.25250468 0.12727243

b2.bias f4 [32]
000000 0f 68 50 3e 7b 17 b8 3d 45 e9 54 be 17 c8 23 be
       0.20352195 0.089888535 -0.2079211 -0.15994297
000010 32 6b f4 be 9f 63 dc be 40 12 3c be 4d c5 c5 bd
       -0.47738034 -0.43044755 -0.18366337 -0.09656773
000020 c0 e6 6d be 11 51 7a be 5e bf 52 3d 7a 46 db bd
       -0.23232555 -0.24444987 0.051452033 -0.10706802
000030 22 7c 93 3e 64 3a e9 3d a2 fb fa bd a3 51 26 be
       0.28805643 0.1138809 -0.122550264 -0.1624208
000040 d4 1d c4 bd d4 c4 11 be 42 5a b1 be 85 57 da 3e
       -0.09576002 -0.1423524 -0.34639174 0.42644897
000050 27 5a af 3e 0f 13 30 be dc ee 9f be 8f 65 d4 be
       0.34248468 -0.1719477 -0.31236923 -0.41483733
000060 c4 24 e7 3d 53 94 b6 be 6e 29 db be 54 5d ab bd
       0.11286309 -0.35660037 -0.42805046 -0.0836741
000070 5d 54 59 be 80 0b 02 bf 47 5b 4f 3e 75 30 7a 3e
       -0.21223588 -0.507988 0.20249663 0.24432547

b3.weight f4 [64, 32, 3, 3]
000000 e7 95 92 bd 3f a4 a8 bc cf d7 89 bd d4 1a a6 bd
       -0.07157498 -0.020586131 -0.06730615 -0.08110586
000010 e9 b4 7b bd cc 03 4d 3c 45 c0 c4 bd 7a b9 9d bd
       -0.061451826 0.012513112 -0.09606985 -0.077013925
000020 9a 7c 99 bd b4 22 52 bd 96 1a eb bc 63 cf bf bd
       -0.07494469 -0.051302627 -0.0286992 -0.09365728
000030 1f 0e 9e bd 91 d5 88 bc 79 10 d0 bd c8 d1 37 bd
       -0.07717537 -0.016703399 -0.10159392 -0.044877797
000040 0b d9 20 bd fa c1 51 bc ac 62 5d bc fb f3 68 bd
       -0.03926949 -0.012802595 -0.013512295 -0.056873303
000050 7e b3 93 bd ce 96 bf bc 81 e2 a8 3c 8a e9 74 bd
       -0.0721197 -0.023387339 0.020615818 -0.059793033
000060 5c 8c 57 bd be 96 a5 3c 91 92 76 bd ce 15 b9 bd
       -0.05262409 0.020213481 -0.06019837 -0.09037362
000070 dd 03 99 bd d6 4d 8f bd 94 31 d5 bc 10 cd da 3c
       -0.0747144 -0.06997268 -0.026024617 0.02670911
000080 bb 20 58 bc f9 31 50 bd c9 e1 75 bd 37 19 74 3d
       -0.013191397 -0.050828908 -0.06002978 0.05959436
000090 23 3f 07 3d 0e 73 c1 bd 77 0c 8b bd f2 de e9 bb
       0.033019196 -0.09445773 -0.06789487 -0.007137173
0000a0 60 47 7f bd 4f a3 a8 bc 84 2d 6a 3c 88 d0 b5 3c
       -0.062323928 -0.020585684 0.014293078 0.022194162
0000b0 53 d6 1d 3c 4e 5e 96 ba 2a 55 3d bd 34 cf bb bd
       0.009633618 -0.0011472197 -0.046223797 -0.0917038
0000c0 d4 50 84 bd d5 61 6e bd cb b5 a0 bd 39 32 02 bd
       -0.06460729 -0.05819877 -0.07847174 -0.031786177
0000d0 2f 07 86 bd bf a7 d0 ba 86 ed 82 bd ff f6 43 bd
       -0.06544339 -0.0015919133 -0.0639296 -0.047842976
0000e0 02 28 cb bd 6c b0 db bb 96 7d b3 bd ea e5 9b bd
       -0.0991974 -0.0067043807 -0.08764188 -0.07612212
0000f0 a6 ef 14 3c ec 46 5d bd 47 b9 6e bd 82 0f aa bb
       0.00909034 -0.054022714 -0.058282163 -0.005189837
000100 38 b5 f4 3c 4f 7a 94 bc ee 6f b9 b8 94 14 52 bd
       0.029871568 -0.018124728 -8.842336e-05 -0.051289156
000110 4d a6 ce bc 58 95 d0 bb 3e 88 0e bd 9d b2 97 bc
       -0.025225783 -0.0063654594 -0.0347979 -0.018517787
000120 ca e8 12 3d a0 09 8d bc 3a 4d 93 bd f9 a2 95 bd
       0.035866536 -0.017216504 -0.07192464 -0.07306475
000130 18 bd 84 bd 71 25 38 3c 98 21 e5 3b 5c ad d2 bc
       -0.06481379 0.0112393955 0.00699253 -0.02571743
000140 cf 30 49 bd 4b e3 6f bb 60 e6 c1 bd 4d ae 99 bd
       -0.049118813 -0.0036603983 -0.09467769 -0.07503948
000150 67 7e 96 bd ca 21 41 bd d0 03 11 bc e4 14 25 3b
       -0.07348328 -0.047151364 -0.008851007 0.0025189454
000160 8d 00 be bc e8 9c 92 3c a2 93 01 3d c3 14 5a bd
       -0.023193622 0.017897084 0.031634934 -0.053242456
000170 22 d8 9c bc a3 df 46 bc 72 ff 09 bc 1b 99 37 bd
       -0.019146029 -0.01213828 -0.008422719 -0.044823747
000180 24 13 6c bd 6c 9a cf bc 75 bd 62 bd ad e1 4c bd
       -0.05763544 -0.025342189 -0.05535646 -0.05001991
000190 a1 70 1b bd 1a bd eb bc a9 16 5a bd 44 f2 aa bd
       -0.03794921 -0.028776694 -0.053244267 -0.0834699
0001a0 f6 b1 12 bd 7c ba 3c bd 5e d2 f6 3c 2d f8 b9 bc
       -0.035814248 -0.046076283 0.030129608 -0.022701347
0001b0 fc b9 60 bd 0c f3 ac 3b 00 2d 93 bd 04 fb 05 bd
       -0.05486487 0.005277997 -0.071863174 -0.03271009
0001c0 56 c2 c2 bc 17 f5 00 bd 0d 97 e2 bc ad de 93 3b
       -0.023774307 -0.031483736 -0.027659917 0.004512629
0001d0 3d 74 5e ba 22 e7 63 bd 78 0d 81 bd 57 8e a1 bc
       -0.0008485949 -0.055640347 -0.06301397 -0.019721193
0001e0 36 a0 49 bd d4 5d b7 bc 3b b9 14 bd 45 e0 77 3b
       -0.049225055 -0.022383608 -0.036309462 0.0037822884
0001f0 60 e6 c8 bc 73 bf 4a bc d2 e5 f7 ba d7 a7 1f 3c
       -0.024523914 -0.012374747 -0.0018913096 0.009744606
000200 11 45 26 3d 98 c0 c4 bd 06 e4 2c 3d b5 d1 72 bd
       0.04059321 -0.09607047 0.042209648 -0.059282023
000210 39 b3 4b bc 3f 37 c4 bd 1a 78 4b bd 5b e5 65 bd
       -0.012432867 -0.0958085 -0.049675085 -0.056126934
000220 57 05 42 bd 24 d3 5f bd 7c c4 67 bd 36 b8 c8 3c
       -0.047368374 -0.05464472 -0.056583866 0.024501901
000230 78 50 8d bd 33 8d be bc 5a ca 77 bd 0b 8c b7 bd
       -0.06900114 -0.023260688 -0.060495712 -0.08962258
000240 10 0f f1 bc f7 3b 20 bd 6a 45 a9 bd f2 58 f9 bc
       -0.029426128 -0.039119687 -0.08265193 -0.03043792
000250 31 ab 7a bd 34 dc 38 bd ad a2 fc 3c 8c 67 12 bd
       -0.061198417 -0.045131877 0.030839289 -0.03574328
000260 ee 0d c7 3c 85 8c 93 bd 92 b7 83 bd 79 ec 8c 3a
       0.024298634 -0.07204536 -0.06431498 0.0010751627
000270 b6 4a 97 bd 2d ea b0 bd 78 ff 13 3d 09 75 87 3c
       -0.07387297 -0.086384155 0.036132306 0.016535299
000280 20 de a3 ba 9c 9d 50 bc 90 80 e4 bc 74 4c 43 bc
       -0.0012502111 -0.0127328895 -0.027893335 -0.011920083
000290 ec f9 00 3d dc 5d 38 3c 3c 68 5a 3b b5 27 f1 3c
       0.031488344 0.011252847 0.0033326289 0.02943788
0002a0 3f 0a 9f 3a 5d 5b a5 3d 40 4a cc ba 19 12 7d bd
       0.0012133791 0.08074067 -0.0015586093 -0.061784837
0002b0 ac 6d c9 bc fd f0 8a bd a1 f0 ec bc 68 aa ca bc
       -0.024588428 -0.06784246 -0.028923335 -0.02473946
0002c0 b5 a0 e3 3c 6a 44 4f bd 23 2a 57 bc d4 c8 5b bd
       0.027786592 -0.050602354 -0.013132605 -0.05365832
0002d0 e7 a4 0d bd 93 1c 74 bd 3c da 8a bd ae e4 20 bd
       -0.03458109 -0.059597563 -0.06779906 -0.039280586
0002e0 43 bc ba 3c 5d 4c a0 39 8c a9 7c bd 9e e3 17 bd
       0.022794848 0.00030574473 -0.06168513 -0.037082307
0002f0 0f c6 65 3c 42 52 ac 3c a3 7f 48 bd 60 6d 28 bb
       0.014024272 0.021035317 -0.04894985 -0.0025699958
000300 21 97 00 3d 82 fa 8a 3c 58 82 15 bd b2 4a c2 3c
       0.031394128 0.016965155 -0.03650126 0.023717258
000310 bf c7 25 3d 83 41 0d 3d d1 e6 f7 3c cf 7f 22 3c
       0.040473696 0.034486305 0.030261429 0.009918167
000320 07 ce 62 bd 2c 27 e4 3c a3 a6 f0 3c 0a 79 0a 3d
       -0.055372264 0.02785071 0.029376334 0.033806838
000330 0c 91 44 bc c0 89 e3 3c de a3 1b bd ee c6 07 bd
       -0.0119974725 0.027775645 -0.037998073 -0.0331487
000340 6b 2e 19 bd 40 91 50 bd 14 e1 2d bd 6f 6a 51 bd
       -0.037397783 -0.05091977 -0.04245098 -0.051126894
000350 72 43 8f 3c c4 cb 2a 3c ea dd 5c 3d bf 11 1d ba
       0.017488215 0.010424558 0.05392257 -0.0005991719
000360 95 5b 87 bd 1c 3e 8e bd 34 17 c6 ba 12 3a 96 bd
       -0.06609265 -0.0694544 -0.0015113116 -0.07335295
000370 93 6f 08 bd 39 0b bd ba af e9 73 bd b6 fe 49 3c
       -0.03330953 -0.00144229 -0.05954903 0.012328794
000380 9f a9 44 bd 31 53 7e b9 a9 b5 73 bd 87 c8 d9 ba
       -0.048013326 -0.00024254319 -0.059499417 -0.0016615548
000390 95 db 61 3b d3 e5 05 3d 6a 50 af bd ec 45 90 bd
       0.0034463156 0.03268988 -0.0856026 -0.070445865
0003a0 ec f4 2d bd 8f 35 50 bd 52 0f db bc 78 a4 ae bb
       -0.042469904 -0.050832327 -0.026740704 -0.005329665
0003b0 2f f2 e1 bc ba de f4 bc 4a 46 05 3d b4 22 77 3c
       -0.027581302 -0.02989136 0.032537736 0.015083957
0003c0 b9 44 13 bd 88 f8 a6 bd ba a9 48 bd 64 cf 65 3c
       -0.03595421 -0.08152872 -0.04898999 0.014026497
0003d0 8b 5f 02 bd 30 6b 92 bd a8 be 9b bc bb 4d 1d bd
       -0.031829398 -0.07149351 -0.01901181 -0.038404208
0003e0 68 79 33 bd 18 e6 11 bc c5 c2 53 bd 3f 29 b4 bd
       -0.043816954 -0.008904956 -0.05169942 -0.087969296
0003f0 b7 48 29 3d f6 15 a9 3c 6c a4 0e bd eb 13 37 bd
       0.041329112 0.020640355 -0.034824774 -0.04469673

b3.bias f4 [64]
000000 49 71 c3 bc 07 1e 06 be ca 73 cc bd 2a 4a c5 bc
       -0.02385773 -0.13097392 -0.099830225 -0.024083216
000010 4f 8e e3 bd f0 52 d9 bc 0c a2 51 bd e1 d7 1f be
       -0.111111276 -0.026528805 -0.05117993 -0.15609695
000020 a7 c2 83 bc 56 14 44 3d 52 b2 6c 3c 6c 41 0f be
       -0.016084028 0.047870956 0.014446812 -0.139898
000030 f4 34 d0 bc 07 17 bd ba f9 1c ab be ed ae 0b be
       -0.025415875 -0.0014426418 -0.33420542 -0.13640948
000040 f2 b1 3d 3d 92 a4 d4 bd b3 0a 06 be 87 86 a1 3d
       0.04631228 -0.10382952 -0.13090019 0.07886987
000050 4c 9c 70 bc db f2 f2 bc f6 f1 3d bd 2c 0d f5 bd
       -0.014685702 -0.029656818 -0.04637333 -0.11965403
000060 e6 15 00 be fb fa d7 3d 1a b2 2d be 76 c7 8b be
       -0.12508354 0.105459176 -0.16962472 -0.27300614
000070 14 3f 8e be de b9 b5 3d 9a 61 cd bc 67 cb e0 3c
       -0.277825 0.08873342 -0.025070954 0.02744074
000080 f8 3b 1c be 0d ad 67 bd 6d 77 f8 3d e8 2c 2d be
       -0.15257251 -0.05656152 0.12132154 -0.16911662
000090 d0 77 17 bd 49 01 c2 bd 3c 26 cc bd 53 78 59 be
       -0.036979496 -0.094729014 -0.0996823 -0.21237306
0000a0 44 02 d4 3d 1b 17 a3 3e a0 5a 2e 3c e1 43 a9 bc
       0.10351995 0.31853566 0.010641724 -0.02066225
0000b0 9b 23 1e be fb 75 a1 3d f9 e5 ee bd 19 2f 7a 3d
       -0.1544327 0.07883831 -0.116649576 0.061080072
0000c0 6c 89 2e be dd a7 97 3d c7 ad 38 be f0 d5 d5 bd
       -0.1704461 0.07405064 -0.18035041 -0.10441196
0000d0 78 e8 4a be 17 7d b6 bd fd e6 20 be cd 3b c1 bd
       -0.19815242 -0.08910578 -0.15713115 -0.09435234
0000e0 f0 c9 36 bd c4 33 19 be bc 7a 38 3d 30 18 1e be
       -0.044626176 -0.14961153 0.045038924 -0.15438914
0000f0 7a 38 b5 bd 70 77 9e bd 55 c2 02 3e 68 1e c1 3c
       -0.08848663 -0.07737625 0.12769444 0.02357407
